NIPS_3/Models/Weights_167/3/weights.npz (npz, 178923 bytes, 8 tensors)

encoder/1/W f4 [15, 784]
000000 a2 e2 30 3d c7 42 99 bc 37 cd 9d 3d 75 f7 56 bd
       0.043184884 -0.0187086 0.07705157 -0.052482087
000010 87 38 dd 3d fc ae 23 bd 7d 9e 78 3c 04 3c e6 bc
       0.10801797 -0.0399618 0.015174505 -0.02810479
000020 21 80 b9 3c 59 fa 00 bb f3 e3 f4 3b bb ab 50 3c
       0.022644104 -0.0019680469 0.0074734627 0.012736256
000030 5c d8 94 3d 97 ff be 3d 18 2e 66 3d e9 8f d4 3d
       0.0726783 0.09326094 0.056196302 0.10379011
000040 4c 1d a3 bd a2 cf 30 bd 59 40 b9 bc cd b1 65 bd
       -0.07964572 -0.043166764 -0.022613691 -0.056077767
000050 69 e4 15 3d c0 be a9 3b 68 b6 38 bd cc 73 00 bc
       0.036594782 0.00518021 -0.04509583 -0.007840108
000060 69 40 7b bc 77 5d c9 bc b1 b4 d9 3c d5 80 f4 3c
       -0.015335181 -0.0245807 0.026575418 0.029846588
000070 1e 1d 80 3d 20 2e ed 3c 0c 48 e9 3c 00 b4 88 bc
       0.06255554 0.028952658 0.028476737 -0.016687393
000080 3b 8b 41 3d ac 46 00 3e 27 2b 7f 3e 6d f2 cc 3e
       0.04725192 0.12526959 0.24918805 0.40028706
000090 64 74 e4 3e 4f 5b 22 3f 03 cc 43 3f 1c ca 67 3f
       0.4462005 0.63420576 0.7648317 0.9054277
0000a0 12 7c 83 3f 90 28 83 3f 67 34 8d 3f 8d 4a 84 3f
       1.0272238 1.0246754 1.1031617 1.0335251
0000b0 19 d4 73 3f 8e 96 67 3f 4d c8 35 3f 6c 72 17 3f
       0.9524551 0.90464103 0.7100876 0.5915897
0000c0 07 07 14 3f a7 02 a3 3e 65 d9 5a 3e 04 ea e3 3d
       0.5782322 0.3183796 0.21371992 0.11128619
0000d0 9e 06 71 bb fe 88 be bb 68 88 bb 3c e9 bf 2d bc
       -0.0036777626 -0.0058146706 0.022892192 -0.010604837
0000e0 24 db 3b 3c 58 45 71 3c c4 7c 4c 3d 3c e8 11 3e
       0.011465821 0.0147260055 0.049923673 0.14248747
0000f0 5f 81 68 3e 8d 73 b4 3e 09 45 1c 3f 64 42 60 3f
       0.22705601 0.35244408 0.6104284 0.87601304
000100 21 22 95 3f 06 a2 b9 3f 18 bc d6 3f e9 1a f4 3f
       1.165104 1.4502571 1.6776152 1.9070712
000110 e2 2b 08 40 cb ea 0f 40 ce fe 13 40 a8 ae 10 40
       2.1276784 2.2487056 2.312427 2.2606602
000120 f4 f6 11 40 09 72 14 40 e1 e2 0f 40 e7 5a 0c 40
       2.2806978 2.3194602 2.2482226 2.1930482
000130 21 95 f7 3f e2 40 cc 3f 1e d8 a1 3f 6f da 5c 3f
       1.9342386 1.5957301 1.2644079 0.86270803
000140 e3 4a f5 3e a8 44 56 3e 57 d9 ca bc 48 c0 3c bd
       0.47908697 0.20924628 -0.024761839 -0.04608181
000150 68 5e 1f bc 7c 24 4e bb e5 7a 32 3e c3 2d 6d 3e
       -0.009727098 -0.0031454852 0.17429693 0.23161988
000160 66 43 e1 3e 79 38 40 3f 63 a4 8e 3f 74 42 cd 3f
       0.43996733 0.7508617 1.1143917 1.6035905
000170 14 11 fc 3f 1c fd 0c 40 91 8d 14 40 2a f3 1f 40
       1.9692712 2.2029486 2.3211405 2.4992166
000180 08 f9 1d 40 ce b7 1f 40 58 24 20 40 91 c1 22 40
       2.4683247 2.4955935 2.5022182 2.5430644
000190 4d 21 21 40 6b f7 21 40 16 ea 22 40 f4 f6 1d 40
       2.5176575 2.5307262 2.5455375 2.4681978
0001a0 bd e9 15 40 d4 c4 0b 40 58 6c f2 3f 6a ad bf 3f
       2.3423913 2.1838884 1.8939314 1.4974797
0001b0 9c 5d 81 3f bc 02 fc 3e db d9 23 3e 32 2d 03 bd
       1.0106692 0.49220836 0.16001074 -0.032025523
0001c0 d4 35 d5 bc 3f a5 78 3d bf 80 8d 3e 48 64 03 3f
       -0.026026644 0.060704466 0.27637288 0.5132489
0001d0 e4 a0 44 3f 23 aa b9 3f 2b 67 f7 3f 21 8c 10 40
       0.76808 1.4505047 1.9328359 2.2585528
0001e0 fc 06 1d 40 b7 3d 1f 40 6d 39 22 40 f8 74 20 40
       2.4535513 2.4881418 2.534755 2.5071392
0001f0 7f e4 27 40 17 c1 23 40 4a 56 25 40 93 f0 28 40
       2.6233213 2.5586603 2.5833917 2.6396835
000200 b9 22 27 40 85 ef 25 40 11 de 24 40 27 c4 28 40
       2.6114943 2.592744 2.5760539 2.6369722
000210 be 4a 25 40 1c 7f 22 40 9b 64 1b 40 58 00 09 40
       2.582687 2.5390081 2.4280155 2.140646
000220 f5 cf f1 3f ce 68 a3 3f 78 12 d7 3e 27 83 ef 3d
       1.8891588 1.2766359 0.42006278 0.11694937
000230 19 53 47 bc 23 db 56 bd ae 63 c7 3e 99 51 3b 3f
       -0.012165808 -0.05245508 0.38943237 0.73171383
000240 fb 9d c2 3f 59 5b 05 40 76 e0 17 40 2a c5 20 40
       1.5204462 2.0837004 2.373075 2.512034
000250 73 ad 21 40 4a ef 27 40 a3 eb 21 40 e4 05 26 40
       2.5262115 2.62398 2.5300071 2.5941095
000260 85 c7 28 40 36 ef 26 40 b8 71 2a 40 8e c6 27 40
       2.6371777 2.6083503 2.6631908 2.6214938
000270 b7 c3 29 40 02 6d 28 40 89 75 2b 40 47 15 22 40
       2.6525705 2.6316533 2.6790488 2.5325487
000280 aa 6b 29 40 01 f6 24 40 5f 66 23 40 7a 72 1c 40
       2.6471963 2.577515 2.5531232 2.444487
000290 09 b2 11 40 2b 82 f3 3f 43 a1 80 3f 07 be 87 3e
       2.2764914 1.9024099 1.0049213 0.26512167
0002a0 fc 8f ca bc d4 73 0b 3e 4f ab 1b 3f 3b 15 9b 3f
       -0.02472686 0.13618404 0.6080827 1.2115854
0002b0 7e 3e fb 3f 19 4f 0f 40 07 ef 1d 40 e1 1d 26 40
       1.9628446 2.2392027 2.467714 2.5955737
0002c0 27 34 23 40 16 f7 28 40 8c fc 27 40 22 ec 28 40
       2.5500581 2.640081 2.6247892 2.6394124
0002d0 fe 7b 23 40 ab 6a 27 40 1f b3 27 40 8e de 28 40
       2.554443 2.6158855 2.6203077 2.6385837
0002e0 e2 23 29 40 d9 a9 26 40 d7 b4 28 40 b0 fd 2b 40
       2.642815 2.6041167 2.6360376 2.6873589
0002f0 f5 c6 25 40 86 7a 25 40 5e 94 21 40 09 36 1f 40
       2.5902684 2.5856032 2.5246806 2.487673
000300 13 e1 1c 40 7b 7e 0a 40 f6 8c c3 3f d0 83 f2 3e
       2.4512374 2.1639698 1.5277393 0.4736619
000310 af d3 6c bc 71 68 ee 3e 88 6e 62 3f a9 c5 df 3f
       -0.014454766 0.46564057 0.8844991 1.7482196
000320 36 dc 13 40 00 42 1a 40 6c 4c 24 40 45 3a 24 40
       2.3103156 2.4102783 2.5671644 2.5660565
000330 97 7d 26 40 d9 18 23 40 b4 dc 29 40 eb 77 2c 40
       2.6014154 2.5483916 2.6540956 2.6948192
000340 83 57 26 40 21 43 28 40 76 0f 2c 40 1f 32 23 40
       2.5990913 2.6290972 2.6884437 2.5499341
000350 ef 0b 27 40 8a 4c 24 40 0c 6f 28 40 47 6c 25 40
       2.6101034 2.5671716 2.6317778 2.5847337
000360 a3 a6 28 40 0e 5a 25 40 6f e7 21 40 07 82 21 40
       2.6351707 2.5836215 2.5297506 2.5235612
000370 8d a8 1d 40 57 25 12 40 78 93 ca 3f 34 7e f0 3e
       2.4634125 2.283529 1.5826254 0.46971285
000380 3c 4b 10 3e a0 a7 11 3f 6c 17 b3 3f f9 8e fc 3f
       0.140912 0.568964 1.3991523 1.9731132
000390 ce fa 17 40 98 23 20 40 d7 c2 25 40 99 ab 27 40
       2.374683 2.5021725 2.590017 2.6198485
0003a0 87 98 25 40 46 e5 29 40 b7 33 25 40 22 52 2a 40
       2.5874345 2.6546187 2.5812814 2.661263
0003b0 a6 28 25 40 b2 6b 27 40 5e 47 2c 40 1f 1c 2c 40
       2.580606 2.6159482 2.691856 2.6892164
0003c0 c2 25 2a 40 d0 8e 29 40 85 4c 28 40 6a d2 26 40
       2.6585546 2.6493416 2.6296704 2.6065927
0003d0 3a 09 28 40 7b d7 1f 40 e6 f9 22 40 6c 22 1c 40
       2.6255631 2.497527 2.5465026 2.439601
0003e0 9a d8 1e 40 e3 f0 10 40 1d ff c0 3f a4 c8 c6 3e
       2.4819703 2.2647026 1.5077854 0.38824952
0003f0 51 5b 39 3e c2 ee 1d 3f 9c ee ca 3f c4 0a 01 40
       0.1810124 0.6169244 1.5854068 2.016282

encoder/0/b f4 [15]
000000 b5 ee 1c 3e 06 d3 89 bc 5f 33 0b 3e bc 43 18 3e
       0.15325435 -0.016824257 0.13593815 0.14869589
000010 44 a5 11 3e 37 53 14 3e 69 f4 13 3e 8d c7 1f 3e
       0.142232 0.14484869 0.14448704 0.15603466
000020 74 26 14 3e cb 6a 13 3e ac 63 12 3e f6 ad d2 3d
       0.14467794 0.14396207 0.14295834 0.10287087
000030 30 0a 1f 3e a6 dc 0d 3e 08 cd f1 3d
       0.1553123 0.13853702 0.11806685

decoder/0/W f4 [784, 15]
000000 d0 71 a5 3e 54 83 c1 bc c9 de 4c 3d 71 56 ae bd
       0.32313395 -0.023622192 0.050017152 -0.08512581
000010 fa 3e a8 3d a3 0d 95 be 03 a4 81 3e 6f 74 00 3e
       0.08215137 -0.29111966 0.25320444 0.12544416
000020 d6 31 22 bd 27 16 40 3d 94 0e bc be 30 b9 81 3d
       -0.03959831 0.046896126 -0.36729872 0.0633415
000030 4b 09 59 ba 81 94 d4 bd 1c 0d fa be 89 ca 06 bf
       -0.0008279278 -0.10379887 -0.48838127 -0.52652794
000040 6a 6c 9a be c0 b3 ec 3d 84 6b 3f 3e 3f 70 6e be
       -0.30160838 0.11557722 0.18693358 -0.23285006
000050 26 d3 b1 be ea 77 70 bd 06 4d 84 be b2 d1 56 bd
       -0.34731406 -0.05870811 -0.25840014 -0.052446075
000060 d0 2d 13 be fd a0 16 3e 6d 40 af bd 7e b5 37 3e
       -0.14372945 0.1470985 -0.0855721 0.17940328
000070 de a1 9b 3d 1e b5 18 3e c3 3b ea 3f c4 87 dc 3f
       0.07599233 0.1491284 1.8299488 1.7228932
000080 5d ec e0 3f d6 82 1b 40 61 37 ed 3f 0a 86 01 40
       1.7572132 2.4298606 1.8532525 2.023806
000090 0c 0c ed 3f 2f d8 e1 3f f5 e6 2a 40 07 97 14 40
       1.8519301 1.7644099 2.6703465 2.321718
0000a0 d6 05 00 40 ee 29 ea 3f d6 64 16 40 69 f8 07 40
       2.0003562 1.8294046 2.3499045 2.1245368
0000b0 c8 71 9f 3f 71 e9 f0 3f 9b b0 c6 3f 0e 39 ef 3f
       1.2456598 1.8821241 1.5522646 1.8689287
0000c0 fd 1c 09 40 49 5e ce 3f 18 13 dc 3f 17 e6 fc 3f
       2.1423943 1.6122524 1.7193327 1.9757718
0000d0 f1 b8 1d 40 09 35 d8 3f 52 b4 02 40 a6 14 12 40
       2.464413 1.6891185 2.0422559 2.2825103
0000e0 5d d7 c0 3f 7f 63 e4 3f 9a ac d2 3f c4 1b d8 3f
       1.5065724 1.7842864 1.6458924 1.6883473
0000f0 dd 10 69 bc cf fa ad 3d 84 91 20 bd f5 27 e9 bd
       -0.014225212 0.084951036 -0.039201275 -0.11384574
000100 6d c5 8d 3e 2f 3e 5a 3e d8 47 87 3c 72 68 d1 be
       0.27689686 0.21312784 0.01651375 -0.40899998
000110 43 20 94 be 74 8f e8 3d fa 99 c3 bd ef 22 bb be
       -0.28930864 0.113554865 -0.09550853 -0.3655009
000120 03 ee e4 3e 5a cc 17 be fa b1 9c be 6b c0 de 3d
       0.4471284 -0.14824048 -0.30604535 0.108765446
000130 42 6d aa be 09 c4 00 bd 03 d3 0d be 26 99 71 bc
       -0.33286482 -0.031436954 -0.13850026 -0.014745986
000140 e4 8a 69 3e 5d 49 ab 3e 31 69 c9 be 1c 73 ba be
       0.22806889 0.3345441 -0.39338067 -0.36415946
000150 57 b5 c2 bc 97 a5 90 bd 68 ec ab be 99 04 cd bd
       -0.02376811 -0.07062834 -0.335788 -0.100106426
000160 9e 2c eb bd e0 b3 c6 3e e5 54 69 3c 19 23 47 3e
       -0.114831194 0.3880911 0.014241432 0.19446982
000170 bc 26 b3 be 83 03 e4 bb 63 ca a4 3e 42 8f d7 bd
       -0.3499049 -0.0069584264 0.3218566 -0.10525371
000180 19 0e 79 3e bd ce 6a 3a 03 45 1c bd 8a 4c be bd
       0.24321784 0.0008957198 -0.038151752 -0.092919424
000190 02 5c 95 bd 32 96 89 be ce 64 35 bc a3 0a d3 3c
       -0.0729294 -0.26872402 -0.011071397 0.025761908
0001a0 b9 ad d6 bd cb 51 05 40 a0 20 ed 3f 51 81 e5 3f
       -0.10482354 2.0831172 1.8525581 1.7930089
0001b0 01 7b 05 40 a4 55 e2 3f c0 eb eb 3f d2 4e 08 40
       2.0856326 1.7682385 1.843132 2.1298108
0001c0 85 34 ee 3f de a4 d2 3f 07 9d 0f 40 01 e9 04 40
       1.8609778 1.6456563 2.2439592 2.0767214
0001d0 00 3c fd 3f 6a 55 ca 3f 72 9f f1 3f 5d ef 0a 40
       1.9783936 1.5807316 1.8876784 2.1708596
0001e0 99 bb f9 3d 2a d6 fa be e6 eb 9e be 1d 38 6c 3c
       0.121939845 -0.4899152 -0.3103935 0.014417675
0001f0 67 70 c6 bd 4a b3 28 3e 14 37 a9 3d 58 3b 8d 3e
       -0.09689408 0.16474643 0.082624584 0.27584338
000200 ea 39 1e 3c a3 7e 0f 3d 3a 3b 96 3e bb 98 37 bf
       0.0096573625 0.03503288 0.2934206 -0.71717423
000210 0e f8 11 3e 9b 79 e8 3d 7d 23 d7 be df 89 a1 3e
       0.14254782 0.113513194 -0.42019263 0.315505
000220 22 0e 45 be 21 5c 15 be 86 bf 27 3e ae d2 a7 be
       -0.19243672 -0.14585926 0.16381654 -0.32777923
000230 11 ac 69 bd 8b 2d 19 3e be 85 2e 3d a7 13 05 3e
       -0.05704886 0.1495878 0.042608015 0.12995778
000240 7f a4 ab 3e 9b 9c 0f be 93 ab 70 be c4 2e ec bd
       0.33523938 -0.14024584 -0.2350295 -0.11532357
000250 5c c8 b2 be b3 96 2c 3e 6d 86 ed 3f 9a 8d c2 3f
       -0.34918487 0.16854362 1.8556648 1.5199463
000260 76 f0 ff 3f 9d d5 00 40 e1 ca d9 3f ab f8 02 40
       1.9995258 2.013038 1.7015039 2.0464275
000270 48 0a eb 3f 08 71 03 40 0b 63 13 40 43 cc 00 40
       1.8362513 2.0537739 2.30292 2.0124671
000280 25 e1 dc 3f 6c f7 12 40 78 03 06 40 93 da ff 3f
       1.7256209 2.2963514 2.0939617 1.9988579
000290 79 39 07 40 40 e8 0e 40 70 ed eb 3f 67 95 f1 3f
       2.1128829 2.2329254 1.8431835 1.8873719
0002a0 3f 8d d9 3f db 8c fc 3f a0 d3 09 40 ac d1 e8 3f
       1.699623 1.9730486 2.1535416 1.8188987
0002b0 8c 4c fe 3f 64 f2 05 40 ed 2f 19 40 99 ee 16 40
       1.986711 2.0929193 2.3935502 2.3583128
0002c0 97 26 d1 3f 3e 90 06 40 e0 33 fe 3f 18 a1 e6 3f
       1.6339902 2.1025538 1.9859581 1.8017912
0002d0 8f f3 d1 bc 62 21 be be b0 af ca be c7 95 11 bc
       -0.025628833 -0.37134844 -0.39587164 -0.008885807
0002e0 4c 19 0a 3e 0d 2b 7c 3e da 54 8d 3e f6 80 8f be
       0.13486212 0.24625798 0.276038 -0.28028077
0002f0 3e 44 c1 be d4 a8 20 bd fd 03 8f 3e e7 26 73 3d
       -0.37747377 -0.039223507 0.2793273 0.059363272
000300 fa fb 4f be e0 c8 8e 3b 83 22 9f 3e 0c 9a e3 3d
       -0.20310965 0.0043574423 0.31081018 0.111133665
000310 a3 8e 53 be f2 87 03 3e 53 4f 82 3e 58 17 85 bd
       -0.2065988 0.12844828 0.25451145 -0.06498593
000320 c8 75 ca bd 32 31 b8 3e 13 ab 9f bc 26 94 4d be
       -0.09885746 0.35975033 -0.019490754 -0.20076045
000330 75 d0 6b be 3f 1a cf bd 62 bf 39 3e 44 06 59 be
       -0.23028739 -0.10112428 0.18139413 -0.21193796
000340 b3 10 05 bf 03 ac a3 3e 70 16 ee 3f ae 08 e2 3f
       -0.51978606 0.31967172 1.8600597 1.7658899
000350 fa 0a f0 3f a6 b2 05 40 fa 36 0a 40 e0 d2 ea 3f
       1.875335 2.0890288 2.1596055 1.8345604
000360 94 5c 0e 40 a0 f3 b5 3f ce 63 01 40 83 a4 de 3f
       2.2244005 1.4214973 2.0217166 1.7393955
000370 ff e2 10 40 87 2e d6 3f 30 6e 09 40 ea ab e2 3f
       2.2638547 1.6732949 2.1473503 1.7708714
000380 77 d1 05 40 33 12 98 3c 2c 10 87 bd 14 b0 f8 bd
       2.0909097 0.018563366 -0.065948814 -0.12142959
000390 bf dc 95 be bc 52 01 be 4e f9 64 be a5 ad b6 3d
       -0.29269978 -0.12629217 -0.22360727 0.08919839
0003a0 24 6c 7c bd a8 cb aa 3d 0a c6 c7 be 7d f5 05 3e
       -0.06162657 0.083396256 -0.3901828 0.13081928
0003b0 9f 41 38 3e 3e 0b 95 be 9b 34 12 bd fc ab 15 bd
       0.17993782 -0.2911014 -0.0356947 -0.03654097
0003c0 c7 fe 10 bf 68 5b 73 3e c5 00 92 be e6 43 8b be
       -0.5663876 0.23765337 -0.28516212 -0.2720024
0003d0 13 e6 9c 3e 80 92 d2 bd bb d9 62 be e2 ac 1d 3e
       0.30644283 -0.10281849 -0.2215337 0.15397981
0003e0 d9 47 b3 3d 5e 5a a1 3d 43 ff 19 3e 83 b5 8c 3d
       0.08753938 0.07878564 0.15038781 0.06870558
0003f0 f3 22 31 3e 66 b7 e5 be 23 49 e8 bd f0 82 07 40
       0.17298488 -0.44866484 -0.11342075 2.1173668

decoder/0/b f4 [784]
000000 23 11 f8 3b ce ea 91 3c ce de 9c 3f 2a f5 8f 3f
       0.007570402 0.017812159 1.2255495 1.1246693
000010 0e ca 6f 3b a8 d1 3f ba 5c aa 88 bd cc 17 9f 3f
       0.003658894 -0.0007317313 -0.066731185 1.2429137
000020 e6 99 d4 bb 92 0b ff bc c3 9b 9a 3f de 31 9a 3f
       -0.0064880727 -0.031133447 1.2078785 1.2046468
000030 41 7c 9a bd 8b 7c d9 ba 1e 5a 9b 3f 42 8a 80 3c
       -0.07543231 -0.0016592903 1.2136877 0.015690926
000040 0e 43 9e 3c df ad 99 3f 75 70 9a 3f 79 c8 61 bd
       0.019319084 1.2006186 1.2065569 -0.055122826
000050 4a c8 9c 3f e5 ef 0b 3b f8 6b 9a 3f 20 20 c6 bc
       1.2248623 0.0021352705 1.20642 -0.02418524
000060 69 ba 8d 3c 37 08 45 bc a3 28 18 3c 77 da a2 3b
       0.017300801 -0.012025884 0.009287032 0.0049698907
000070 42 af 99 3f dc db 9c 3f ad ba 91 bb 51 b1 31 3c
       1.200661 1.2254596 -0.0044473023 0.010845498
000080 d0 4c 9a 3f cb ae 7e 3c 44 2a 9a 3f c3 34 9a 3f
       1.2054691 0.015544604 1.2044148 1.2047352
000090 1f 37 9b 3f 83 fe 17 3c 31 fa 8d 3c 2e 61 9b 3f
       1.2126197 0.009276989 0.017331215 1.2139032
0000a0 d9 78 9c 3f 2d f9 9f 3f d5 f7 69 3c 2a 38 0d bc
       1.222438 1.2497917 0.014280279 -0.008619348
0000b0 5b 30 25 3c 9f ec 62 3b 90 f5 9a 3f 6b 3d c0 3b
       0.01008233 0.00346259 1.210619 0.0058666966
0000c0 4f 6d 9c 3f e5 23 54 3c f6 ff 9b 3f 65 45 9a 3f
       1.2220858 0.012948011 1.2187488 1.2052428
0000d0 c8 02 b8 bc 9f f5 9a 3f 37 e2 9d 3f 25 70 9b 3c
       -0.022462264 1.2106208 1.233466 0.018974373
0000e0 08 57 9a 3f d0 58 9d 3f b5 b6 72 3c 08 3b 9b 3f
       1.205781 1.2292728 0.014814069 1.212739
0000f0 75 96 58 3c af f6 99 3f 17 68 f3 bc 0a d5 5a 3c
       0.0132194655 1.2028407 -0.02971272 0.0133564565
000100 ec df 99 3f 1e 24 9a 3f 44 f6 01 bd aa b4 04 3b
       1.202146 1.2042272 -0.031728998 0.0020249286
000110 71 21 9a 3f 60 24 bf bc 1a 46 9e 3f 3d 30 9b bd
       1.2041456 -0.023332775 1.2365143 -0.0757756
000120 5c 67 9a bd 7c 73 9c 3f 4a 52 9f 3f ed 49 9a 3f
       -0.075392455 1.2222743 1.2446988 1.205381
000130 7f 09 55 3c f2 86 76 bd 15 d0 05 3c d7 a6 86 3c
       0.013002752 -0.060187288 0.008167286 0.016436977
000140 43 84 8a 3f 00 b9 23 ba 3c 0d 9a 3f 8f a4 9a 3f
       1.0821613 -0.00062455237 1.2035289 1.2081469
000150 57 4d 07 bd b0 ff 99 3f 8c c4 71 3c d6 34 9c 3f
       -0.03303274 1.2031155 0.014756333 1.2203624
000160 62 22 2d ba 83 a0 9a 3f 74 94 e0 bc 3a 86 88 3c
       -0.00066045497 1.2080234 -0.027414538 0.016665567
000170 8e 36 8d bb 6a 53 9f 3f a0 0a 9b 3f d4 8c 9a 3f
       -0.004309482 1.2447331 1.2112617 1.2074227
000180 7c 03 9a 3f f2 13 9c ba e0 02 9b 3f bf 3a 3f bd
       1.2032313 -0.00119078 1.2110252 -0.046686884
000190 0e 77 9d 3f 65 3e 35 3c 95 ce 9c 3f 2d 80 7c 3c
       1.2301958 0.011062239 1.2250544 0.015411419
0001a0 ac 33 78 3c 9c d7 93 bc 5e d6 9b 3f f4 c7 99 3f
       0.015149038 -0.018047146 1.2174795 1.2014146
0001b0 32 24 9e 3f e5 ea 9f 3f 6b fb 99 3f 75 10 9a 3f
       1.2354796 1.2493559 1.2029852 1.2036272
0001c0 65 58 9e 3f 19 bb 9b 3f 2e 75 0e 3c 90 65 0f bb
       1.2370726 1.2166473 0.00869493 -0.0021880604
0001d0 27 28 9d 3f 81 ed 64 3c ed d2 99 3f f2 04 17 bc
       1.2277879 0.013972641 1.2017494 -0.009217488
0001e0 a3 67 e1 3b f9 da 88 bb e0 00 51 bc c3 e3 99 3f
       0.0068788095 -0.004176494 -0.012756556 1.2022632
0001f0 d7 b3 84 3c d9 f0 f3 bc 3f dd 7d 3c b2 77 46 bd
       0.016199036 -0.029777931 0.015494644 -0.048453994
000200 62 b7 17 3c 0c 85 9b 3f 22 3b 64 bb d9 71 4d bc
       0.00926003 1.2149978 -0.0034825285 -0.01253935
000210 77 4d 9d 3f 48 56 9a 3f 0d e2 9b 3f a7 20 9b 3f
       1.2289265 1.2057581 1.217836 1.211934
000220 3c 59 a6 bc cb 9b 96 3c 03 6b 9f 3f 3c e8 9c 3f
       -0.020306222 0.018384835 1.2454532 1.2258372
000230 7b cb 19 bd b2 6c 9a 3f 6d a0 c6 3b 4b 79 0e bc
       -0.03754757 1.2064421 0.0060616047 -0.008695911
000240 75 03 27 bb 45 d5 a2 3f 5e ff 9c 3f 9b f2 1a bd
       -0.0025484238 1.2721335 1.2265432 -0.037829023
000250 c6 0b 9a 3f be 97 6b 3c c0 ba de bc 3e 49 9b 3f
       1.2034843 0.01437944 -0.027188659 1.2131727
000260 f2 84 28 3c c9 79 c1 3b 7c c7 9f 3f 8f f2 9c 3c
       0.010285603 0.0059044105 1.2482753 0.01915863
000270 3b 26 9d 3f d6 ee 80 bc eb 1a 9b 3f 8f 30 ed ba
       1.2277292 -0.015738886 1.211759 -0.0018096137
000280 3d 50 a1 3f fa bc 99 3f 48 ec 2d bd ad ce 9e 3f
       1.2602612 1.2010796 -0.042461663 1.2406822
000290 c3 d5 ba 3b ba 26 9b 3f 18 bf 9e 3f 13 0f 9b 3f
       0.005701752 1.2121193 1.2402067 1.2113975
0002a0 f1 91 9a 3f 5a fa 99 3f 9c 46 98 3f 21 d3 b6 bc
       1.2075788 1.2029526 1.1896548 -0.022317471
0002b0 4f d2 98 3f 0b 65 9e 3f bd bf 6e 3f 7a 3f 9a 3f
       1.1939181 1.2374586 0.9326132 1.2050622
0002c0 c6 53 9b 3f 94 43 9a 3f db 05 97 3f 7b 00 9b 3f
       1.2134941 1.2051873 1.1798662 1.2109522
0002d0 fb a8 9a 3f 89 11 71 3c 47 ab 9b 3f 49 3d a3 3f
       1.2082819 0.014713653 1.2161645 1.2753078
0002e0 77 46 9b 3f f7 ee 58 3c 5b bd 31 3c 12 47 9e 3f
       1.2130879 0.013240567 0.0108483685 1.2365439
0002f0 48 b8 9d 3f 51 44 94 3f 89 5e 1a 3c 40 60 2d 3f
       1.2321863 1.1583349 0.009421953 0.6772499
000300 24 35 9b 3f a2 ce 95 3f f8 0e 9d 3f 08 7d 95 3c
       1.2125592 1.1703684 1.2270193 0.018248096
000310 8f a0 9e 3f 5d b3 9d 3f d7 fc 4d 3c 6f 55 9d 3f
       1.2392749 1.2320362 0.012572489 1.2291697
000320 d0 a7 84 3c cb 91 40 3a 4b b0 8a bd 3a f6 9b 3f
       0.0161933 0.00073459436 -0.067719065 1.2184517
000330 5f 49 9f 3f 77 a5 9a 3f 65 4e 3a bd b5 07 56 3c
       1.2444266 1.2081746 -0.04548492 0.013063361
000340 c3 80 9e 3f 38 cc 9e 3c 55 ac 9b 3f b0 14 9a 3f
       1.2383045 0.019384488 1.2161967 1.2037563
000350 91 0c 9f 3f 2c 67 a0 3f cc 48 a1 bd e3 2b 9b 3f
       1.242571 1.2531486 -0.07875213 1.2122768
000360 3f 87 9e 3f d5 c9 c4 3b 12 74 eb bc 3c f1 9a 3f
       1.2385024 0.0060055056 -0.02874187 1.2104869
000370 26 ba 9e 3f 4d ba 9a 3f fd 90 56 3a e5 a0 9b 3f
       1.2400558 1.2088104 0.0008185057 1.2158476
000380 46 a3 9c 3f 29 4e 0e ba e7 05 9f 3f da c9 c4 3b
       1.2237327 -0.0005428517 1.2423676 0.006005508
000390 f5 3d 9f 3f 21 40 19 bd 7c a0 9d 3f a1 a3 9d 3f
       1.2440783 -0.037414674 1.2314601 1.231556
0003a0 79 05 8a 3c 64 c3 93 3f d6 9f 9c 3f bf 67 99 3c
       0.016848313 1.1544003 1.2236278 0.018726228
0003b0 d1 6d a1 3f 2b bb 9d 3f e4 55 9c 3f 9e 44 9b 3f
       1.2611638 1.2322744 1.2213712 1.2130315
0003c0 58 d9 9c 3f 36 a5 48 3c cb 76 f0 bb 58 99 13 3c
       1.2253828 0.012246421 -0.00733838 0.009008728
0003d0 58 77 d7 3b 50 2a 80 3c 3c 4d fe bc c8 2f 91 bd
       0.006575506 0.015645176 -0.031042688 -0.07089192
0003e0 12 61 18 bd 5d a4 99 3f 81 97 9e 3f b7 e0 a8 3c
       -0.03720195 1.2003285 1.2389985 0.020614965
0003f0 68 7b 9a 3f cf 18 7a bb 0f 30 5c bd 54 72 8f 3c
       1.2068911 -0.003816176 -0.05375677 0.01751057

encoder/0/W f4 [15, 784]
000000 22 fe a8 3c 39 b6 8e 3b 6d 6e 07 3d 52 85 74 3c
       0.020628992 0.0043552187 0.033064295 0.014924364
000010 d8 63 f5 3c 2d 4c 32 bb f8 cc 24 bd 67 a3 99 ba
       0.029954836 -0.0027206049 -0.040234536 -0.0011721671
000020 ad 41 25 3c 2a d8 13 3d b5 ef b3 bd 6b 38 88 3d
       0.010086459 0.036094822 -0.08785955 0.06651386
000030 e9 a6 9b bd d0 bf 3b bd 9d f9 20 3d 90 73 17 bd
       -0.07600195 -0.045837224 0.03930055 -0.036975443
000040 79 1f 79 3c b6 c0 cc bc 27 50 21 bc 6f dd af 3b
       0.015205258 -0.024994235 -0.00984577 0.005366973
000050 a9 5d 91 3c 94 ef 9d bd 89 6e 32 bd 21 8b 14 3d
       0.017744856 -0.077117115 -0.043562446 0.036265496
000060 bd 2a da 3b 3b e0 b5 3c 6f ee 8a bd 19 74 57 bc
       0.006657927 0.022201648 -0.06783759 -0.013150238
000070 b8 06 3c bb 8a 8d 54 bd 13 7b b3 bc ba da 92 3b
       -0.0028690528 -0.051892795 -0.021909272 0.0044816406
000080 c8 e9 c7 bc 15 df c2 3c ef ef 7a bd 8b e5 c4 3c
       -0.024403468 0.023788014 -0.061263975 0.024035236
000090 65 a2 94 3d 10 d9 63 bc 32 c2 e0 3d 8c 07 5e 3c
       0.07257537 -0.013906732 0.1097454 0.013551604
0000a0 a3 ea 54 bd 18 37 5d 3d 67 28 9f 3d 45 dc d9 3d
       -0.05198158 0.05400762 0.07771378 0.10637716
0000b0 7c 6b 07 3e 28 10 63 3e 4d b5 07 3e e0 ff 0d 3d
       0.13224596 0.22174132 0.13252755 0.03466785
0000c0 09 6d a7 3d 29 47 b8 3d 73 8c a1 3d a0 1c 06 3d
       0.08175094 0.08997948 0.07888117 0.032742143
0000d0 12 b7 0e bd c9 ef 39 bc e7 f8 70 3c b3 2c 98 bc
       -0.03484256 -0.011348673 0.01470778 -0.018576002
0000e0 ae 71 96 3a ac b0 6e 3c 9f c8 22 bd dd 1d f7 ba
       0.0011477971 0.014568489 -0.03974211 -0.0018853504
0000f0 d6 39 f8 3d c7 5d 18 3d b6 07 16 3d 94 20 1a 3e
       0.12120406 0.037198808 0.036628447 0.1505149
000100 2e 02 cd 3d f2 72 13 3d b8 9e 01 3d 79 67 7e 3e
       0.10010181 0.035998292 0.031645507 0.24844159
000110 91 d4 8c 3e a4 75 46 3e 18 00 f9 3d f2 ad 6d 3e
       0.27505925 0.19380814 0.12158221 0.23210886
000120 38 ef 7e 3e a8 7f 31 3e 44 99 50 3e 11 21 6f 3e
       0.24895942 0.17333853 0.20370966 0.23352458
000130 8f 76 4e 3e 69 a9 08 3e 2b 7f ee 3d 92 d8 0a 3e
       0.20162414 0.13345875 0.11645349 0.13559178
000140 ba 10 2f 3e c1 dc 0c 3e dd 51 0e 3d fe b9 0b 3c
       0.17096224 0.13756086 0.03474604 0.008528231
000150 91 4c 4f 3c 11 23 9e 3c 9d c6 08 bd 8e 95 ba 3b
       0.012652532 0.01930383 -0.033392537 0.005694098
000160 c5 c3 6b bd 76 97 8e 3d ea f2 fd 3d 5b fe ae 3d
       -0.057559747 0.06962483 0.12399848 0.08544608
000170 ba da 30 3e 51 84 fc 3d 48 55 71 3e 9e d1 34 3e
       0.17270938 0.12329925 0.23567688 0.17658088
000180 b2 ff 0b 3e 7f 49 48 3e c0 5e 26 3e 92 2f 1a 3e
       0.13671759 0.19559287 0.16247082 0.15057209
000190 df bc 4d 3e 72 c4 7b 3e fa 95 40 3e 72 6d 0f 3e
       0.2009158 0.24586657 0.18807212 0.14006594
0001a0 81 a7 f6 3d c7 6e 24 3e dc c1 01 3e d5 df e2 3d
       0.120436676 0.16057883 0.12671608 0.11077849
0001b0 31 4f 05 3e 2e ab 96 3d 68 f7 4c 3d b2 8c 18 bc
       0.1301849 0.07356869 0.050040632 -0.009310888
0001c0 0a 45 13 3c a6 73 ce 3b a2 3d 39 bd 2c f1 56 3d
       0.008988628 0.0063004075 -0.045224793 0.052476093
0001d0 ec 9d c2 bd 98 63 ec 3d 64 bc 06 3d bf 3b 1a 3d
       -0.095027775 0.115424335 0.032894507 0.037654635
0001e0 96 c8 69 3c 60 4d a3 3d e3 0a 90 3d 63 9a 01 3e
       0.014269015 0.079737425 0.070333265 0.1265655
0001f0 7f 86 a0 3d 62 6a 28 3e 77 7b e8 3d ae bb 7f 3d
       0.07838153 0.16446832 0.11351674 0.062434845
000200 ae 3f 98 3d 57 c3 a8 3d 12 90 dc 3d b5 75 cb 3d
       0.07434021 0.08240383 0.10769667 0.0993456
000210 7f af 2d 3e a2 4f 25 3e 4a 47 c4 3d b8 70 6a 3d
       0.16961478 0.16143659 0.0958391 0.057236403
000220 21 d5 32 bc 65 d6 fc bc 7b d4 b8 3d 0b be 81 3d
       -0.010915072 -0.03086395 0.090249024 0.06335076
000230 51 6c 3d bd df fb 75 bd 2b 74 12 3a 95 ec 3f 3d
       -0.046245877 -0.060054656 0.00055867684 0.04685648
000240 1e ee 14 bd cc a0 64 3d c7 93 e2 3c 7e fc c1 3b
       -0.0363599 0.05581741 0.027658356 0.005919992
000250 01 32 e3 3c 15 fc 2c 3d 08 41 bf 3d 2d 42 f6 3d
       0.027733805 0.04223259 0.093385756 0.12024341
000260 b9 76 2e 3d c0 37 84 3d 00 5e 1b 3e 66 c8 57 3d
       0.04259369 0.06455946 0.15172577 0.05268135
000270 97 b1 99 3d c5 68 88 3d c1 e7 b1 3d 78 bd b5 3d
       0.07504576 0.06660608 0.08686782 0.08874029
000280 5a d2 e3 3d f4 2c d3 3d 45 00 19 3e ca dc af 3d
       0.11124106 0.103113085 0.14941509 0.08587034
000290 10 f6 56 3d ec fe a9 ba fc 98 45 3d 78 80 74 bb
       0.052480757 -0.0012969649 0.0482416 -0.0037308019
0002a0 21 2e a5 3c bb f7 76 bd 12 65 ab bd 4e 9d 4a 3d
       0.020163598 -0.060294848 -0.08368887 0.049466424
0002b0 ae 1e dc bc 32 fe f6 3c 8b a7 a2 ba 59 e1 12 3d
       -0.026870098 0.030150507 -0.0012409551 0.03585944
0002c0 51 66 01 3e 79 5a ab 3d ef 51 9f 3d 68 1d 93 3d
       0.12636687 0.08366866 0.077792995 0.07183343
0002d0 23 a5 02 3e 78 e7 ef 3d 78 b8 0c 3e 54 88 4b 3d
       0.12758307 0.11714071 0.13742244 0.04969056
0002e0 ea 10 e9 3d 55 6b 32 3e f1 0e 04 3e 2d 7f b6 3d
       0.11380179 0.17423756 0.12896325 0.089109756
0002f0 49 79 c7 3d e8 d6 1a 3c a6 a7 b0 3d b0 a2 2f 3e
       0.0973993 0.009450652 0.086257264 0.17151904
000300 e6 17 01 3e db 0a eb 3c 08 83 4a bd c1 e8 22 bd
       0.12606773 0.0286917 -0.049441367 -0.039772753
000310 c9 f9 26 3d 65 e9 15 3e 83 00 5b 3d 4b 4d b0 3b
       0.040765557 0.14639814 0.053467285 0.005380308
000320 6b ed 87 3d d8 82 ac 3d 5c cd 19 3d b4 c8 8c 3d
       0.06637081 0.08423394 0.03754936 0.068742186
000330 26 f4 cc 3c c4 96 95 3d d7 57 f1 3c e9 a8 8c 3d
       0.025018763 0.07304147 0.02946083 0.068681546
000340 27 30 bb 3d 19 f7 95 3d fe 3d 9f 3d 55 78 c9 3d
       0.09140044 0.07322521 0.07775496 0.09837405
000350 c2 ef 27 3e af 88 ed 3d 9d 32 73 3d fb 00 d4 3d
       0.16400054 0.11598336 0.05937444 0.103517495
000360 5b d9 83 3d ee 08 6b 3d 0b 93 0b bc 35 62 9b 3d
       0.06437942 0.057381563 -0.0085189445 0.07587091
000370 a6 5b 9b 3d 93 da f0 3d 47 a9 03 3e e5 26 fe bc
       0.0758584 0.1176044 0.12857543 -0.031024406
000380 d6 b0 be 3d 2f e6 a4 3d 5f ee 2c 3e 9e 18 40 3e
       0.093110725 0.080517165 0.16887806 0.1875939
000390 04 3d 00 3e 7a 53 83 3c c3 f4 df 3d 92 04 37 3d
       0.12523276 0.016031016 0.109353565 0.044682093
0003a0 9e b3 a7 3d d2 37 eb 3d 3f bf e5 3c 45 65 e1 3d
       0.08188556 0.11485256 0.028045295 0.11005644
0003b0 9f a6 bd 3d d8 97 e0 3d 13 1a f7 3d 40 f2 d1 3d
       0.09260296 0.10966462 0.1206552 0.10251284
0003c0 2a 3b 77 3d 16 b7 f5 3d a6 f2 37 3e 90 2c c0 3d
       0.060359158 0.119978115 0.17963657 0.093834996
0003d0 64 6f d5 3d 43 0e 8b 3d ef a9 21 3d 0e ec 0b 3e
       0.10421637 0.067898296 0.039468702 0.13664266
0003e0 b2 01 d3 3d c9 6a 17 3e f8 9f 95 3d 0f 7e 7b bd
       0.10303058 0.14786829 0.07305902 -0.061399516
0003f0 ed 26 36 3d 7c 91 40 bd 9a 46 21 3e a9 d0 03 3e
       0.044470716 -0.047013745 0.15749589 0.12872566

decoder/1/b f4 [784]
000000 32 5b 15 40 97 85 a3 3c 05 7f 15 3d 9a c4 9d 3d
       2.3336911 0.019961162 0.03649809 0.077035144
000010 6e d7 13 40 cd bf 90 3c 0c 5f 13 40 67 d7 33 3d
       2.3100238 0.017669583 2.3026762 0.043906596
000020 28 27 13 40 7a 73 13 40 ac 45 e8 3c 4e 22 a8 3c
       2.299265 2.3039231 0.028353535 0.02052417
000030 35 31 12 40 d0 dd 14 40 fe ed a0 3c 36 87 14 40
       2.2842534 2.3260384 0.019644734 2.3207526
000040 04 9d 12 40 e6 86 86 3c 36 40 ce 3c 5a 46 14 40
       2.2908335 0.016421746 0.025177103 2.316794
000050 5f 60 2a 3d 32 53 15 40 45 ca 84 3c e9 bc 14 40
       0.041595813 2.3332028 0.01620973 2.3240302
000060 ed f0 16 40 76 9c 14 40 06 43 14 40 9a 29 16 40
       2.358455 2.3220496 2.3165908 2.3462892
000070 61 72 b2 3c 0c a9 40 3c 4d 71 12 40 df 63 16 40
       0.021783056 0.011759054 2.2881653 2.3498456
000080 81 96 ad 3c 52 c8 14 40 91 1b a4 3c eb 47 2c 3d
       0.02118993 2.3247266 0.020032676 0.042060774
000090 2e 0e 1d 3d 6d ae 16 40 01 52 17 3c b5 bb 81 3c
       0.0383436 2.354396 0.00923586 0.015836576
0000a0 ec 50 7c 3d 4d 30 5c 3c c7 fa 12 40 48 ca 16 40
       0.06160061 0.01343925 2.2965562 2.3560963
0000b0 f9 e9 13 40 74 21 16 40 b2 ef 9d 3c 49 75 15 40
       2.3111556 2.3457918 0.019279335 2.3352835
0000c0 4b 5b 4f 3d ac 10 14 40 4b f3 6b 3c bf 70 fa 3c
       0.050624173 2.3135176 0.014401267 0.03057134
0000d0 c6 59 14 40 e2 08 dd 3c 53 47 39 3c ab a8 14 40
       2.3179793 0.026981775 0.011308509 2.3227947
0000e0 54 f2 af 3c b7 ed 33 3d 7b 52 16 40 4c aa 29 3d
       0.021477856 0.043927874 2.3487842 0.041422173
0000f0 ce a3 16 40 32 11 70 3c 95 66 13 40 4b 00 84 3c
       2.3537478 0.014652537 2.303136 0.016113421
000100 d8 82 93 3c 34 46 0c 3d 71 81 15 40 5b 48 15 40
       0.018006727 0.03424664 2.3360255 2.3325412
000110 a3 0d bc 3c 2f 4a 13 40 ae f5 64 3c 53 36 13 40
       0.022955721 2.3014028 0.01397459 2.3001907
000120 20 5f 13 40 35 33 73 3b ff b3 8b 3c 8b bf 65 3c
       2.302681 0.003710938 0.017053602 0.014022718
000130 7b fd 16 40 40 68 14 40 57 86 15 40 56 14 82 3c
       2.3592212 2.318863 2.3363245 0.015878838
000140 09 2a 40 3d c7 13 16 40 7a 40 7e 3c 5f 47 0a 3c
       0.046915088 2.344957 0.015518302 0.008439868
000150 99 7e 13 40 8f cf 31 3c 60 5e 15 40 66 d6 03 3d
       2.304602 0.0108527085 2.3338852 0.03218689
000160 84 ec 13 40 61 0e 95 3c c6 bd 15 40 3b de 36 3c
       2.3113108 0.018195333 2.3397079 0.011161382
000170 3d 1a 14 40 6e cc 82 3d c8 38 f9 3c 1f 36 95 3c
       2.3141015 0.06386648 0.030422583 0.018214284
000180 57 00 b7 3c bb 04 15 40 41 2c 64 3d ec 6d 14 40
       0.02233903 2.3284137 0.055706266 2.319209
000190 dc 02 57 3d 1a c2 15 40 7d df 28 3d d8 9e 15 40
       0.05249296 2.339972 0.04122876 2.33782
0001a0 e2 8d 45 3c 09 b8 14 40 13 a6 12 3d 82 15 c2 3c
       0.012057753 2.3237326 0.035802912 0.023691896
0001b0 e5 6b 2e 3c 62 9d ab 3c 26 a3 c1 3c 4b 58 b1 3c
       0.010645841 0.02094907 0.023637366 0.021648547
0001c0 2e 54 2f 3c 49 d6 9a 3c 0a a4 13 40 16 b6 15 40
       0.010701222 0.018901007 2.3068871 2.3392386
0001d0 e3 96 4d 3c 33 d9 14 40 bf 72 c2 3c 92 58 16 40
       0.012548181 2.3257568 0.023736356 2.349156
0001e0 6e 25 83 3c 06 74 15 40 7f 78 13 40 3d 33 5f bb
       0.016009059 2.3352065 2.3042295 -0.003405764
0001f0 6b 1f 2e 3c 90 09 14 40 34 28 13 40 f6 89 13 40
       0.010627608 2.3130836 2.2993288 2.3052955
000200 48 ab 13 40 bb 32 9a 3c 09 d8 14 40 bd a0 15 40
       2.3073292 0.018823018 2.3256857 2.3379357
000210 a3 13 21 3d 7a e5 87 3c d4 e2 c8 3b 93 3d a0 3c
       0.039325368 0.016588915 0.0061305556 0.01956061
000220 93 db 15 40 99 6c 16 40 ea d2 a1 3c 2b f8 32 3d
       2.3415267 2.3503783 0.019753892 0.043693703
000230 23 52 14 40 25 74 b4 3c a1 9e 16 40 9d 03 16 40
       2.3175132 0.022028038 2.353432 2.3439705
000240 89 8d 16 40 77 89 51 3c 86 48 a2 3c ad d0 14 40
       2.3523886 0.012789122 0.019809972 2.3252366
000250 86 b5 dc 3c ed de 12 40 11 63 14 40 aa 75 f4 3c
       0.026942026 2.2948563 2.3185465 0.029841263
000260 7b d3 14 40 ad 43 14 40 27 45 30 bc e9 b9 42 bc
       2.3254077 2.3166306 -0.010758675 -0.011885145
000270 4f e6 17 3b fe 7f 14 40 72 e2 5c bc f6 df 15 40
       0.0023178046 2.320312 -0.013481723 2.3417945
000280 41 ec 14 3d 2e df f0 3b eb af 13 40 c4 22 a4 3c
       0.03635812 0.007350824 2.3076122 0.020036109
000290 ee 86 15 40 26 6d 66 3d 7a c4 8e 3c 35 62 31 3c
       2.3363605 0.056256436 0.017427672 0.010826637
0002a0 63 81 64 3c 29 43 5d 3c 16 16 0e 3d 37 1f 16 40
       0.013946864 0.013504782 0.03468903 2.3456552
0002b0 6d 6f a0 3c 10 7d 37 3d c8 94 05 3d 40 93 aa 3c
       0.019584382 0.044797003 0.032612592 0.020822167
0002c0 04 30 c6 3c 87 1b ad b9 24 eb 0a 3d 86 2f 08 3c
       0.024192818 -0.0003301764 0.033915654 0.008312112
0002d0 af ac 4a 3b dd b1 94 bc 28 c3 33 bc ff 78 92 bc
       0.0030925681 -0.018151218 -0.010971822 -0.017879961
0002e0 f6 6f 6d bc fa b1 13 40 24 3c 14 40 2f b2 48 bc
       -0.014492026 2.3077378 2.3161707 -0.0122495135
0002f0 00 b6 08 3d 69 89 11 3d f6 9e 6d 3c b1 36 8e 3d
       0.033376694 0.035531435 0.014503231 0.06944025
000300 0e dc 2d 3d e8 f2 4c 3d ac 39 f8 3c cd 4c 16 40
       0.04244619 0.05003634 0.030300938 2.3484375
000310 00 a2 7c 3c 23 e2 66 3d 2c 7c 15 40 38 e3 83 3c
       0.015419483 0.056368005 2.3357038 0.016099557
000320 ae 60 b5 3c 04 f8 15 40 61 cd 13 40 3e a9 a7 3c
       0.022140827 2.3432627 2.3094103 0.020466443
000330 d3 ee 29 3d 70 40 dc 3c 67 ab 13 40 96 a5 61 bc
       0.041487526 0.026886195 2.3073366 -0.013772389
000340 07 72 88 bc f8 bc 6a bc 65 79 53 bc 61 e9 6b bc
       -0.016655935 -0.01432728 -0.012907361 -0.014398904
000350 a5 88 5a bb 35 58 5f bc 50 aa 12 40 c4 c0 ae bb
       -0.0033345607 -0.01363187 2.291645 -0.005333038
000360 f5 56 1e 3d bb 9c 12 40 fb 85 15 40 b0 89 ee 3c
       0.038657147 2.290816 2.3363025 0.029118389
000370 30 cd 18 3c dd 07 f4 3c 8d 50 16 40 f8 f8 8d 3c
       0.009326264 0.029788906 2.3486664 0.017330632
000380 83 da 35 3d e1 80 15 40 3d e0 20 3d 95 d3 16 40
       0.044397842 2.3359911 0.03927635 2.356664
000390 1e 5a 4d 3d 3c ee 12 40 6d 29 0c 3d 85 b3 77 3c
       0.05013477 2.2957907 0.034219194 0.015118484
0003a0 0d 8b 95 bc ff c7 92 3c cb aa 0c bc 30 a2 13 40
       -0.018254781 0.017917631 -0.008585642 2.3067741
0003b0 80 2c 68 bc 3a 3a e6 bb af bb 34 3c 10 e3 57 bc
       -0.014170766 -0.007025984 0.011031075 -0.0131766945
0003c0 0e b0 66 bc 55 ea 80 bc 6c 8f 12 40 5f f6 13 40
       -0.014080061 -0.015736738 2.2900038 2.3119123
0003d0 28 2f 14 40 ae 30 14 40 6c 0e 13 40 8e 2e 13 40
       2.3153782 2.3154712 2.2977552 2.2997165
0003e0 c7 74 13 40 6a 32 52 3c 27 b5 76 3c ab b5 16 40
       2.3040025 0.012829402 0.0150578385 2.3548381
0003f0 a5 2a 15 3d 95 8a 13 40 6c 46 14 40 6f 10 17 40
       0.036417622 2.3053334 2.3167982 2.360378

decoder/1/W f4 [784, 15]
000000 e2 98 1c 40 7e 7c 2d 40 0f f9 25 40 10 13 22 40
       2.4468312 2.7107234 2.5933263 2.5324135
000010 e8 38 22 40 2c 06 14 40 2c 9a 36 40 34 a1 4c 40
       2.5347233 2.3128767 2.85316 3.197339
000020 ea a2 3e 40 f0 3d 1d 40 1b ad 34 40 79 0a 33 40
       2.9786935 2.4569054 2.8230655 2.7975142
000030 15 d4 26 40 00 ec 17 40 4d f9 2b 40 8a 77 92 be
       2.6066945 2.3737793 2.687091 -0.28606826
000040 98 4c fd 3e 87 c4 c1 3d b5 d7 38 be eb 9d 36 be
       0.494725 0.09461313 -0.18051036 -0.17833678
000050 c8 5a 01 3e 98 26 c4 be 28 6e 38 be 5d 8e 64 3e
       0.12632287 -0.38310695 -0.18010771 0.22319932
000060 c4 7c 00 bf f8 30 d0 be a1 cd 08 be dd ce 3f 3e
       -0.5019038 -0.4066236 -0.13359691 0.18731256
000070 9e 68 c6 be 78 ca 0b 3f bf 23 ea 3d c9 ed 40 bc
       -0.38751692 0.5460582 0.11432599 -0.011775442
000080 82 d5 62 be 47 54 ad 3e 9e 79 96 be 5a 7b 80 bd
       -0.2215176 0.3385336 -0.29389662 -0.062735274
000090 23 0d eb bd 48 a5 ff 3d 9a 15 a1 3e 1f 97 11 3e
       -0.11477115 0.12482697 0.31461793 0.14217804
0000a0 74 93 5b 3f 18 51 f5 3e ea 50 d3 be 02 e0 48 bc
       0.8577187 0.47913432 -0.4127267 -0.012260439
0000b0 88 3c 08 3e 52 a5 d0 3e 05 fc 94 be 3f 65 e1 be
       0.13304341 0.4075113 -0.29098526 -0.44022557
0000c0 f4 48 8b bd 63 c5 44 be f4 94 19 3f 9f 11 5b 3e
       -0.06801024 -0.19215922 0.5999291 0.2139344
0000d0 f7 7a c5 be 93 7e 5a 3c 24 a9 ea 3d 8c 0b 6a 3e
       -0.38570377 0.013335842 0.11458042 0.22855967
0000e0 13 6b 3b 3e b0 28 01 be a7 ea 0c 3f 3b 94 b7 bc
       0.18302564 -0.12613177 0.5504555 -0.022409549
0000f0 5d 9d 1d 40 3a ad 3f 40 2e c1 2b 40 f6 fa 2c 40
       2.4627297 2.994948 2.6836658 2.7028174
000100 31 d5 2f 40 c7 fb 37 40 94 cd 2e 40 4c ff 1c 40
       2.7473872 2.8747423 2.7312975 2.453082
000110 b3 4b 3e 40 06 fd 1e 40 f6 5f 42 40 ce fd 21 40
       2.9733703 2.4841933 3.037107 2.531116
000120 a5 16 35 40 c4 a7 31 40 65 6e 02 40 06 2e 64 bf
       2.829507 2.7758646 2.037988 -0.89132726
000130 e2 fa 7d be 86 58 2e be 0f 6a 96 3e 14 7e b3 3e
       -0.24802735 -0.17025957 0.2937779 0.35057127
000140 f7 6b 99 3e 0c d1 86 3e c7 07 bb 3c ec c6 c4 be
       0.29965183 0.26331365 0.022830857 -0.38433015
000150 1e 4a 0f bf e7 ed 42 be 02 69 83 3d e2 49 f0 be
       -0.5597247 -0.19036065 0.06416513 -0.46931368
000160 87 d9 9a be 7e 9b 65 bd ab af 2d 40 75 67 31 40
       -0.30244085 -0.056056492 2.713847 2.7719395
000170 8c 04 22 40 38 b2 37 40 7e 34 43 40 2a 34 34 40
       2.5315275 2.8702526 3.0500789 2.8156838
000180 62 39 23 40 c1 27 2f 40 a4 73 35 40 eb 18 35 40
       2.5503774 2.7368014 2.8351831 2.8296459
000190 91 3d 24 40 40 2b 2d 40 9e bd 2e 40 07 53 25 40
       2.5662577 2.7057648 2.7303233 2.5831926
0001a0 08 70 1d 40 a2 fc e9 3e f7 32 2a 3d 1e f0 d0 bd
       2.4599628 0.45700556 0.04155251 -0.10202049
0001b0 7e 7a 34 3e be 7d a5 bc 6e 45 34 3e 88 d3 f4 bd
       0.17624852 -0.02020156 0.1760461 -0.11954409
0001c0 c9 68 25 b9 f2 64 95 3e c0 56 03 be 1d 41 c2 3d
       -0.00015774662 0.29178578 -0.12826061 0.094850756
0001d0 d5 e5 9c bc 2d 1c a5 3d 3d 5d 9e bd f1 49 1e 3f
       -0.019152561 0.08062015 -0.077326275 0.61831576
0001e0 d0 8d 15 40 fa e6 23 40 53 58 1a 40 b3 04 31 40
       2.3367805 2.5609727 2.411641 2.7659118
0001f0 b0 56 1d 40 c6 c7 45 40 a4 09 39 40 c9 79 35 40
       2.458416 3.0903182 2.8912134 2.8355582
000200 7e 2e 43 40 42 0e 36 40 5b 91 31 40 5c 05 37 40
       3.0497127 2.8446202 2.7744968 2.859702
000210 d3 52 1e 40 5d 6e 2b 40 f9 5a 29 40 4a b8 21 40
       2.4738052 2.678611 2.6461775 2.526873
000220 d4 c4 1e 40 b9 b3 1f 40 8d 16 1b 40 e2 87 3e 40
       2.4807634 2.4953444 2.4232514 2.9770436
000230 cc 1e 26 40 fd 0e 2f 40 72 86 36 40 2b 1e 28 40
       2.5956297 2.7352898 2.851956 2.6268413
000240 9f b0 38 40 77 81 38 40 7a dd 22 40 dd ed 36 40
       2.88578 2.882902 2.5447679 2.858268
000250 e9 3a 41 40 08 02 2c 40 a9 2d c0 be 64 e7 a2 3e
       3.0192206 2.687624 -0.37534836 0.31817162
000260 c0 e9 06 be f5 73 c5 bd 55 cd 6b bd de 3c 04 3e
       -0.13175106 -0.09641258 -0.057568867 0.12913844
000270 aa 8d fb 3c 5f 3d c6 3d 14 96 5d 3e da c3 07 bf
       0.0307072 0.09679674 0.21639282 -0.5303322
000280 9b d2 c6 3e 91 32 7e bd ff f1 99 bc 24 63 07 3d
       0.38832554 -0.062059943 -0.01879215 0.033053532
000290 5a 27 f1 3e 8b 38 b4 3e ac b0 70 bd 67 a0 63 be
       0.47100335 0.3519939 -0.058762237 -0.22229157
0002a0 68 4e ab 3e 1f 92 98 3e e4 e5 98 be 5f 5d ab be
       0.33458257 0.29798982 -0.29862893 -0.33469674
0002b0 d4 d2 d2 be fc 5d 3f be b0 b4 1a 3f bc c3 81 be
       -0.41176474 -0.18688196 0.6043196 -0.25344646
0002c0 fc b5 b8 3c 33 7b af be ee 4e 52 be e9 27 3f 3e
       0.022547714 -0.3427368 -0.20537922 0.18667568
0002d0 a7 fa 48 40 93 8a 22 40 cf 47 17 40 8c 23 1c 40
       3.1402986 2.539708 2.3637578 2.4396696
0002e0 d4 36 3b 40 2d b6 2b 40 e9 87 36 40 61 5a 25 40
       2.9252214 2.6829941 2.8520453 2.5836413
0002f0 89 3d 31 40 12 7f 37 40 0a 0a 22 40 15 0a 2c 40
       2.7693808 2.8671308 2.5318627 2.6881154
000300 e5 bd 40 40 53 09 25 40 49 06 30 40 16 8f 17 40
       3.0115902 2.578694 2.7503836 2.3681083
000310 0b e0 39 40 2b 31 20 40 e3 ea 1b 40 b9 e7 1b 40
       2.9042995 2.503001 2.4362113 2.4360182
000320 63 77 3a 40 b3 34 22 40 37 73 2f 40 e3 a5 41 40
       2.9135368 2.5344665 2.7414072 3.02575
000330 86 ff 37 40 f7 40 26 40 11 0e 34 40 80 7f 26 40
       2.874971 2.5977151 2.8133585 2.601532
000340 45 5a 30 40 ab ff 22 40 57 06 1f 3c d6 5d 00 be
       2.7555096 2.5468547 0.009706101 -0.12535796
000350 e9 56 1a 3e b1 5d 9a 3e 32 05 05 3f d1 a1 bc be
       0.15072216 0.30149606 0.5196105 -0.36842206
000360 5b 36 c6 3c 17 7e 6c be 2e 27 84 be 13 d4 25 be
       0.02419584 -0.23094974 -0.25811142 -0.16194181
000370 3e c3 37 be b3 ad 44 be 98 56 c4 bd 26 65 b4 3d
       -0.17945573 -0.19206886 -0.09586829 0.08808355
000380 c0 89 03 3e 3d 31 25 40 56 e9 23 40 39 59 1c 40
       0.12845516 2.5811303 2.5611167 2.4429457
000390 d4 fa 3d 40 b7 94 25 40 39 8a 2a 40 44 b8 21 40
       2.9684343 2.5872018 2.6646864 2.5268717
0003a0 7a 32 23 40 93 34 34 40 dc 14 28 40 c5 e3 18 40
       2.5499558 2.8157089 2.6262732 2.388902
0003b0 da 15 39 40 5b 3b 2d 40 e7 88 45 40 d9 02 31 40
       2.8919587 2.7067478 3.0864809 2.7657988
0003c0 ce 58 2d 40 7a 32 3f 40 e6 0c 1c 40 63 61 13 40
       2.7085452 2.9874558 2.4382873 2.302819
0003d0 96 07 2c 40 ec 25 09 40 c7 1b 2b 40 e1 dc 4c 40
       2.687963 2.1429396 2.6735704 3.2009814
0003e0 12 d3 1c 40 9a de 0f 40 4a 25 10 40 a6 5d 28 40
       2.4503827 2.2479615 2.252276 2.6307158
0003f0 c8 24 0a 40 56 19 2c 40 7a ef 1c 40 87 b2 d4 be
       2.158495 2.6890464 2.4521165 -0.41542456

encoder/1/b f4 [15]
000000 14 51 28 40 2c 72 28 40 f3 db 28 40 60 a1 28 40
       2.6299486 2.6319685 2.6384246 2.6348495
000010 8f 02 28 40 d7 7a 28 40 74 36 29 40 25 e3 27 40
       2.6251562 2.6324975 2.6439486 2.6232388
000020 04 65 28 40 40 35 28 40 ec fb 28 40 a7 36 28 40
       2.6311655 2.6282501 2.640376 2.6283357
000030 a5 51 28 40 4e 5e 28 40 81 f8 28 40
       2.6299832 2.630756 2.6401675
