NIPS_3/Models/Weights_167/27/weights.npz (npz, 177371 bytes, 8 tensors)

encoder/1/W f4 [15, 784]
0	0x3d30e2a2	0.043184884
1	0xbc9942c7	-0.0187086
2	0x3d9dcd37	0.07705157
3	0xbd56f775	-0.052482087
4	0x3ddd3887	0.10801797
5	0xbd23aefc	-0.0399618
6	0x3c789e7d	0.015174505
7	0xbce63c04	-0.02810479
8	0x3cb98021	0.022644104
9	0xbb00fa59	-0.0019680469
10	0x3bf4e3f3	0.0074734627
11	0x3c50abbb	0.012736256
12	0x3f285f54	0.6577046
13	0x3f682662	0.9068357
14	0x3f157d29	0.58394104
15	0x3f21ac37	0.63153404
16	0xbda31d4c	-0.07964572
17	0xbd30cfa2	-0.043166764
18	0xbcb94059	-0.022613691
19	0xbd65b1cd	-0.056077767
20	0x3d15e469	0.036594782
21	0x3ba9bec0	0.00518021
22	0xbd38b668	-0.04509583
23	0xbc0073cc	-0.007840108
24	0xbc7b4069	-0.015335181
25	0xbcc95d77	-0.0245807
26	0x3cd9b4b1	0.026575418
27	0x3cf480d5	0.029846588
28	0x3d801d1e	0.06255554
29	0x3ced2e20	0.028952658
30	0x3ce9480c	0.028476737
31	0xbc88b400	-0.016687393
32	0x3f12d814	0.5736096
33	0x3f41d004	0.7570803
34	0x3fc6b787	1.5524758
35	0x40090a66	2.1412597
36	0x40261fd4	2.5956926
37	0x4055fefb	3.3436878
38	0x40883ce8	4.257435
39	0x409dc48e	4.9302435
40	0x40a956a2	5.2918253
41	0x40a7ad6c	5.2399197
42	0x40aec612	5.4616785
43	0x40a4c7f0	5.1494064
44	0x40a8d444	5.2759113
45	0x409be597	4.871776
46	0x407f492c	3.988841
47	0x40589bd9	3.3845122
48	0x4043208b	3.0488613
49	0x3fe96d5d	1.82365
50	0x3fb7abb9	1.434928
51	0x3f3133a0	0.692194
52	0xbb71069e	-0.0036777626
53	0xbbbe88fe	-0.0058146706
54	0x3cbb8868	0.022892192
55	0xbc2dbfe9	-0.010604837
56	0x3c3bdb24	0.011465821
57	0x3c714558	0.0147260055
58	0x3f139fbd	0.57665616
59	0x3f527afc	0.8221891
60	0x3fbbd4db	1.4674333
61	0x4003e54e	2.0608706
62	0x4047c752	3.1215405
63	0x40989d2b	4.7691855
64	0x40c1509f	6.0410914
65	0x40f813af	7.752403
66	0x41115f30	9.085739
67	0x41214a29	10.0806055
68	0x412e5c34	10.897511
69	0x4136dc24	11.428745
70	0x413cd5cc	11.8021965
71	0x413ea46e	11.915144
72	0x413ece66	11.92539
73	0x413d96ca	11.849314
74	0x41387212	11.527849
75	0x41300c92	11.003069
76	0x411eb8f1	9.920152
77	0x41054dc5	8.331487
78	0x40d182d2	6.5472193
79	0x40890709	4.282109
80	0x401f9043	2.49318
81	0x3fa45d51	1.2840978
82	0xbccad957	-0.024761839
83	0xbd3cc048	-0.04608181
84	0xbc1f5e68	-0.009727098
85	0xbb4e247c	-0.0031454852
86	0x3f5d677c	0.8648603
87	0x3fc68584	1.5509496
88	0x40233c64	2.550561
89	0x4079f878	3.9057903
90	0x40bb6ebc	5.8572674
91	0x4101b2e0	8.106171
92	0x411f16c7	9.943061
93	0x41331da2	11.194735
94	0x413eafcf	11.917922
95	0x41476661	12.462495
96	0x414a9493	12.661273
97	0x414d9af0	12.850327
98	0x414f5182	12.957399
99	0x4150aa2a	13.041544
100	0x41505c33	13.02251
101	0x414fc3c5	12.985295
102	0x414e21f7	12.883292
103	0x4149a81a	12.60354
104	0x4141721e	12.090361
105	0x4133beb3	11.234057
106	0x411ce08f	9.804824
107	0x40f04da2	7.5094767
108	0x40a6f839	5.2178006
109	0x4023525e	2.5519023
110	0x3f643e70	0.8915777
111	0xbd032d32	-0.032025523
112	0xbcd535d4	-0.026026644
113	0x3f16745c	0.587713
114	0x3fc0baa6	1.505696
115	0x4022e224	2.5450525
116	0x40847fdf	4.1406093
117	0x40f52eae	7.661948
118	0x411e460f	9.892104
119	0x4137c609	11.485848
120	0x4145c893	12.361468
121	0x414c67d5	12.77535
122	0x4150a149	13.039376
123	0x415232ec	13.137432
124	0x41554e2f	13.331588
125	0x415501f2	13.312975
126	0x4155d975	13.36559
127	0x4156e3ec	13.430645
128	0x415663fa	13.399408
129	0x4155c8e3	13.361545
130	0x4154ecd0	13.307816
131	0x4154e5ad	13.306073
132	0x4152244d	13.1338625
133	0x414db3f3	12.856433
134	0x41455a09	12.334481
135	0x4133e577	11.243522
136	0x4118a8f9	9.541253
137	0x40cd9e41	6.425568
138	0x40221cd7	2.5330102
139	0x3f6c7c5b	0.9237725
140	0xbc475319	-0.012165808
141	0xbd56db23	-0.05245508
142	0x40016a65	2.0221188
143	0x406f3abc	3.7379599
144	0x40fbc922	7.8683023
145	0x4129069e	10.564116
146	0x41405379	12.020379
147	0x414b368e	12.700819
148	0x41503600	13.013184
149	0x41545c97	13.272605
150	0x41543be8	13.264626
151	0x41561699	13.380517
152	0x41574ccb	13.456248
153	0x41572771	13.447129
154	0x41583236	13.512259
155	0x415798e0	13.474823
156	0x41581374	13.504749
157	0x4157a1bb	13.476985
158	0x41581d65	13.507176
159	0x41555591	13.33339
160	0x41565e18	13.397972
161	0x4153c7c6	13.236273
162	0x4150a684	13.040653
163	0x4149f4a1	12.622224
164	0x413d22a4	11.820957
165	0x411d337d	9.82507
166	0x40ad57dd	5.4169755
167	0x3fbf661c	1.4953036
168	0xbcca8ffc	-0.02472686
169	0x3f7068fb	0.9391019
170	0x403f5ef7	2.9901712
171	0x40c42627	6.1296573
172	0x411f3968	9.951515
173	0x413c5906	11.771734
174	0x414b06cc	12.689159
175	0x4151d57c	13.11462
176	0x415393e6	13.223608
177	0x41566292	13.399065
178	0x4156e88e	13.431776
179	0x415795d1	13.474076
180	0x41567ffe	13.406248
181	0x4157a75d	13.47836
182	0x4157d3c2	13.489199
183	0x41582699	13.509423
184	0x415832e9	13.512429
185	0x4157849d	13.469876
186	0x4157e148	13.4925
187	0x41586f44	13.527164
188	0x41566672	13.400011
189	0x415572e4	13.340549
190	0x4152c3d4	13.17281
191	0x414f21d9	12.945764
192	0x4147b1c4	12.4809
193	0x41316ba2	11.088778
194	0x40f14177	7.5392413
195	0x4023431f	2.5509717
196	0x3f0003a9	0.50005585
197	0x401bb54d	2.4329407
198	0x4096d672	4.7136774
199	0x4109be67	8.608985
200	0x4136f356	11.434408
201	0x4147ccea	12.487528
202	0x4150c0a5	13.047032
203	0x4153a6af	13.228194
204	0x4155b62d	13.3569765
205	0x4155b6aa	13.357096
206	0x4157df6a	13.492044
207	0x4158cf66	13.550634
208	0x41576f70	13.464706
209	0x415804a0	13.501129
210	0x4159044c	13.563549
211	0x4156cdf0	13.425278
212	0x4157c093	13.484515
213	0x4157081e	13.439482
214	0x4157fb13	13.498797
215	0x41570ffa	13.441401
216	0x41578b68	13.471535
217	0x41560ee3	13.378634
218	0x4153e4d2	13.243364
219	0x41514079	13.07824
220	0x414a7f1b	12.656032
221	0x41390c05	11.565434
222	0x41045b59	8.272302
223	0x4024f858	2.5776577
224	0x3f4a7c51	0.7909594
225	0x4045b10c	3.088931
226	0x40e12aa8	7.036457
227	0x41241abf	10.25653
228	0x41404da5	12.018956
229	0x414cbde5	12.796361
230	0x4152d009	13.17579
231	0x415578e0	13.3420105
232	0x41561187	13.379279
233	0x4157c300	13.485107
234	0x4156f132	13.433886
235	0x41586f4b	13.527171
236	0x41573b3c	13.4519615
237	0x4157d021	13.488313
238	0x4158ffbd	13.562436
239	0x4158f25d	13.559171
240	0x415875cf	13.528762
241	0x41584f05	13.519292
242	0x4157f7eb	13.498027
243	0x41577b5e	13.467619
244	0x41577ff2	13.468737
245	0x4154de7c	13.304317
246	0x4154819e	13.281645
247	0x41504363	13.016452
248	0x414adb07	12.678473
249	0x4137f8cb	11.49824
250	0x40fba4af	7.863853
251	0x40117fed	2.273433
252	0x3f8f8212	1.1211569
253	0x405efdf8	3.484251
254	0x40fec251	7.9612203
255	0x41292980	10.572632

encoder/0/b f4 [15]
0	0x3d68a805	0.05680086
1	0xbc89d306	-0.016824257
2	0x3d0c73d3	0.034290146
3	0x3d297e1a	0.041380025
4	0x3d1a3d22	0.037655957
5	0x3d10d7cb	0.035362046
6	0x3d24a45a	0.0401958
7	0x3d5110bd	0.051041353
8	0x3d1a68b5	0.037697513
9	0x3d267bed	0.04064553
10	0x3d1db1af	0.03849953
11	0xbb44dc92	-0.0030038697
12	0x3d757379	0.059924576
13	0x3d0b7877	0.03405043
14	0x3cd375e8	0.025813058

decoder/0/W f4 [784, 15]
0	0x3ea571d0	0.32313395
1	0xbcc18354	-0.023622192
2	0x3d4cdec9	0.050017152
3	0xbdae5671	-0.08512581
4	0x3da83efa	0.08215137
5	0xbe950da3	-0.29111966
6	0x3e81a403	0.25320444
7	0x3e00746f	0.12544416
8	0xbd2231d6	-0.03959831
9	0x3d401627	0.046896126
10	0xbebc0e94	-0.36729872
11	0x3d81b930	0.0633415
12	0xba59094b	-0.0008279278
13	0xbdd49481	-0.10379887
14	0xbefa0d1c	-0.48838127
15	0xbf06ca89	-0.52652794
16	0xbe9a6c6a	-0.30160838
17	0x3decb3c0	0.11557722
18	0x3e3f6b84	0.18693358
19	0xbe6e703f	-0.23285006
20	0xbeb1d326	-0.34731406
21	0xbd7077ea	-0.05870811
22	0xbe844d06	-0.25840014
23	0xbd56d1b2	-0.052446075
24	0xbe132dd0	-0.14372945
25	0x3e16a0fd	0.1470985
26	0xbdaf406d	-0.0855721
27	0x3e37b57e	0.17940328
28	0x3d9ba1de	0.07599233
29	0x3e18b51e	0.1491284
30	0x412943c5	10.579045
31	0x41278969	10.471047
32	0x4128080c	10.501965
33	0x4132d38c	11.176647
34	0x41299d09	10.600839
35	0x412c5241	10.7700815
36	0x41298c1f	10.596709
37	0x4128431c	10.516384
38	0x4136a875	11.416127
39	0x4131192f	11.068648
40	0x412beb83	10.744998
41	0x41293be7	10.577125
42	0x41319550	11.098953
43	0x412def92	10.870989
44	0x411fda3f	9.990783
45	0x412a197a	10.63122
46	0x4124ce4a	10.300364
47	0x4129d17d	10.613645
48	0x412e3a10	10.889175
49	0x4125c1c5	10.359807
50	0x41277303	10.465579
51	0x412b874f	10.720534
52	0x41337660	11.2164
53	0x4126f54b	10.434886
54	0x412ca077	10.789176
55	0x41306f1e	11.027128
56	0x41241157	10.254233
57	0x41288884	10.533329
58	0x412646d6	10.392294
59	0x4126ef4f	10.433425
60	0xbc6910dd	-0.014225212
61	0x3dadfacf	0.084951036
62	0xbd209184	-0.039201275
63	0xbde927f5	-0.11384574
64	0x3e8dc56d	0.27689686
65	0x3e5a3e2f	0.21312784
66	0x3c8747d8	0.01651375
67	0xbed16872	-0.40899998
68	0xbe942043	-0.28930864
69	0x3de88f74	0.113554865
70	0xbdc399fa	-0.09550853
71	0xbebb22ef	-0.3655009
72	0x3ee4ee03	0.4471284
73	0xbe17cc5a	-0.14824048
74	0xbe9cb1fa	-0.30604535
75	0x3ddec06b	0.108765446
76	0xbeaa6d42	-0.33286482
77	0xbd00c409	-0.031436954
78	0xbe0dd303	-0.13850026
79	0xbc719926	-0.014745986
80	0x3e698ae4	0.22806889
81	0x3eab495d	0.3345441
82	0xbec96931	-0.39338067
83	0xbeba731c	-0.36415946
84	0xbcc2b557	-0.02376811
85	0xbd90a597	-0.07062834
86	0xbeabec68	-0.335788
87	0xbdcd0499	-0.100106426
88	0xbdeb2c9e	-0.114831194
89	0x3ec6b3e0	0.3880911
90	0x3c6954e5	0.014241432
91	0x3e472319	0.19446982
92	0xbeb326bc	-0.3499049
93	0xbbe40383	-0.0069584264
94	0x3ea4ca63	0.3218566
95	0xbdd78f42	-0.10525371
96	0x3e790e19	0.24321784
97	0x3a6acebd	0.0008957198
98	0xbd1c4503	-0.038151752
99	0xbdbe4c8a	-0.092919424
100	0xbd955c02	-0.0729294
101	0xbe899632	-0.26872402
102	0xbc3564ce	-0.011071397
103	0x3cd30aa3	0.025761908
104	0xbdd6adb9	-0.10482354
105	0x412d50ca	10.832224
106	0x41299c87	10.600715
107	0x41289aab	10.537761
108	0x412d519c	10.832424
109	0x412840cc	10.51582
110	0x41296e34	10.589405
111	0x412dfe55	10.874593
112	0x4129ceac	10.612957
113	0x41264352	10.391436
114	0x412fdab4	10.990894
115	0x412d244c	10.821362
116	0x412b9e33	10.726123
117	0x412546c4	10.329777
118	0x412a255e	10.634123
119	0x412ea7da	10.915979
120	0x3df9bb99	0.121939845
121	0xbefad62a	-0.4899152
122	0xbe9eebe6	-0.3103935
123	0x3c6c381d	0.014417675
124	0xbdc67067	-0.09689408
125	0x3e28b34a	0.16474643
126	0x3da93714	0.082624584
127	0x3e8d3b58	0.27584338
128	0x3c1e39ea	0.0096573625
129	0x3d0f7ea3	0.03503288
130	0x3e963b3a	0.2934206
131	0xbf3798bb	-0.71717423
132	0x3e11f80e	0.14254782
133	0x3de8799b	0.113513194
134	0xbed7237d	-0.42019263
135	0x3ea189df	0.315505
136	0xbe450e22	-0.19243672
137	0xbe155c21	-0.14585926
138	0x3e27bf86	0.16381654
139	0xbea7d2ae	-0.32777923
140	0xbd69ac11	-0.05704886
141	0x3e192d8b	0.1495878
142	0x3d2e85be	0.042608015
143	0x3e0513a7	0.12995778
144	0x3eaba47f	0.33523938
145	0xbe0f9c9b	-0.14024584
146	0xbe70ab93	-0.2350295
147	0xbdec2ec4	-0.11532357
148	0xbeb2c85c	-0.34918487
149	0x3e2c96b3	0.16854362
150	0x4129ad1b	10.604762
151	0x41244a25	10.268102
152	0x412be890	10.744278
153	0x412c2843	10.7598295
154	0x41272f72	10.449083
155	0x412caeec	10.792706
156	0x41294be7	10.581031
157	0x412ce45c	10.805752
158	0x4130c779	11.048699
159	0x412c2683	10.759402
160	0x41278636	10.470266
161	0x4130b48f	11.044082
162	0x412d7cfd	10.843015
163	0x412becc4	10.745304
164	0x412dba60	10.858002
165	0x412fb665	10.98203
166	0x4129761e	10.591337
167	0x412a1d30	10.632126
168	0x41272478	10.4464035
169	0x412b87b8	10.720634
170	0x412e65a8	10.899818
171	0x412904d1	10.563676
172	0x412bd1aa	10.7386875
173	0x412d6b55	10.838704
174	0x41323f69	11.140481
175	0x4131a5b2	11.102953
176	0x41261b77	10.381705
177	0x412da030	10.851608
178	0x412bb7ec	10.732403
179	0x4128c025	10.54691
180	0xbcd1f38f	-0.025628833
181	0xbebe2162	-0.37134844
182	0xbecaafb0	-0.39587164
183	0xbc1195c7	-0.008885807
184	0x3e0a194c	0.13486212
185	0x3e7c2b0d	0.24625798
186	0x3e8d54da	0.276038
187	0xbe8f80f6	-0.28028077
188	0xbec1443e	-0.37747377
189	0xbd20a8d4	-0.039223507
190	0x3e8f03fd	0.2793273
191	0x3d7326e7	0.059363272
192	0xbe4ffbfa	-0.20310965
193	0x3b8ec8e0	0.0043574423
194	0x3e9f2283	0.31081018
195	0x3de39a0c	0.111133665
196	0xbe538ea3	-0.2065988
197	0x3e0387f2	0.12844828
198	0x3e824f53	0.25451145
199	0xbd851758	-0.06498593
200	0xbdca75c8	-0.09885746
201	0x3eb83132	0.35975033
202	0xbc9fab13	-0.019490754
203	0xbe4d9426	-0.20076045
204	0xbe6bd075	-0.23028739
205	0xbdcf1a3f	-0.10112428
206	0x3e39bf62	0.18139413
207	0xbe590644	-0.21193796
208	0xbf0510b3	-0.51978606
209	0x3ea3ac03	0.31967172
210	0x4129bf1a	10.609156
211	0x41283981	10.514039
212	0x4129ebe2	10.620089
213	0x412d5f83	10.835818
214	0x412e83dd	10.907193
215	0x41294b17	10.5808325
216	0x412f81c4	10.969181
217	0x4122c68b	10.173472
218	0x412c47af	10.767501
219	0x4127c7f9	10.486321
220	0x413022c9	11.008492
221	0x4126bc77	10.421012
222	0x412e57ab	10.896403
223	0x412846e6	10.517309
224	0x412d6061	10.83603
225	0x3c981233	0.018563366
226	0xbd87102c	-0.065948814
227	0xbdf8b014	-0.12142959
228	0xbe95dcbf	-0.29269978
229	0xbe0152bc	-0.12629217
230	0xbe64f94e	-0.22360727
231	0x3db6ada5	0.08919839
232	0xbd7c6c24	-0.06162657
233	0x3daacba8	0.083396256
234	0xbec7c60a	-0.3901828
235	0x3e05f57d	0.13081928
236	0x3e38419f	0.17993782
237	0xbe950b3e	-0.2911014
238	0xbd12349b	-0.0356947
239	0xbd15abfc	-0.03654097
240	0xbf10fec7	-0.5663876
241	0x3e735b68	0.23765337
242	0xbe9200c5	-0.28516212
243	0xbe8b43e6	-0.2720024
244	0x3e9ce613	0.30644283
245	0xbdd29280	-0.10281849
246	0xbe62d9bb	-0.2215337
247	0x3e1dace2	0.15397981
248	0x3db347d9	0.08753938
249	0x3da15a5e	0.07878564
250	0x3e19ff43	0.15038781
251	0x3d8cb583	0.06870558
252	0x3e3122f3	0.17298488
253	0xbee5b766	-0.44866484
254	0xbde84923	-0.11342075
255	0x412ddd12	10.866472

decoder/0/b f4 [784]
0	0x3bf81123	0.007570402
1	0x3c91eace	0.017812159
2	0x4106ddec	8.42918
3	0x4105130e	8.317152
4	0x3b6fca0e	0.003658894
5	0xba3fd1a8	-0.0007317313
6	0xbd88aa5c	-0.066731185
7	0x41073102	8.449465
8	0xbbd499e6	-0.0064880727
9	0xbcff0b92	-0.031133447
10	0x41068cb5	8.409352
11	0x41067bda	8.405237
12	0xbd9a7c41	-0.07543231
13	0xbad97c8b	-0.0016592903
14	0x4106a35d	8.414884
15	0x3c808a42	0.015690926
16	0x3c9e430e	0.019319084
17	0x410667f8	8.400383
18	0x41068504	8.4074745
19	0xbd61c879	-0.055122826
20	0x4106d78b	8.427623
21	0x3b0befe5	0.0021352705
22	0x41068392	8.407122
23	0xbcc62020	-0.02418524
24	0x3c8dba69	0.017300801
25	0xbc450837	-0.012025884
26	0x3c1828a3	0.009287032
27	0x3ba2da77	0.0049698907
28	0x41066825	8.400426
29	0x4106dc51	8.428788
30	0xbb91baad	-0.0044473023
31	0x3c31b151	0.010845498
32	0x41067fc6	8.406195
33	0x3c7eaecb	0.015544604
34	0x41067a70	8.404892
35	0x41067ba8	8.4051895
36	0x41069fd7	8.414023
37	0x3c17fe83	0.009276989
38	0x3c8dfa31	0.017331215
39	0x4106a48d	8.415174
40	0x4106cd70	8.425156
41	0x410751da	8.457483
42	0x3c69f7d5	0.014280279
43	0xbc0d382a	-0.008619348
44	0x3c25305b	0.01008233
45	0x3b62ec9f	0.00346259
46	0x41069806	8.412115
47	0x3bc03d6b	0.0058666966
48	0x4106d6ce	8.427443
49	0x3c5423e5	0.012948011
50	0x4106bb85	8.420781
51	0x41067d9a	8.405664
52	0xbcb802c8	-0.022462264
53	0x410696ef	8.411849
54	0x4106fe1c	8.437038
55	0x3c9b7025	0.018974373
56	0x410680a9	8.406411
57	0x4106ebcf	8.43257
58	0x3c72b6b5	0.014814069
59	0x4106a106	8.414312
60	0x3c589675	0.0132194655
61	0x410672c9	8.403024
62	0xbcf36817	-0.02971272
63	0x3c5ad50a	0.0133564565
64	0x41066f28	8.402138
65	0x41067982	8.404665
66	0xbd01f644	-0.031728998
67	0x3b04b4aa	0.0020249286
68	0x410679fb	8.40478
69	0xbcbf2460	-0.023332775
70	0x4107110e	8.441664
71	0xbd9b303d	-0.0757756
72	0xbd9a675c	-0.075392455
73	0x4106c981	8.424195
74	0x410730ce	8.449415
75	0x41067e4b	8.405833
76	0x3c55097f	0.013002752
77	0xbd7686f2	-0.060187288
78	0x3c05d015	0.008167286
79	0x3c86a6d7	0.016436977
80	0x410454ee	8.270735
81	0xba23b900	-0.00062455237
82	0x4106762a	8.403849
83	0x41068a87	8.40882
84	0xbd074d57	-0.03303274
85	0x410673ca	8.403269
86	0x3c71c48c	0.014756333
87	0x4106c314	8.4226265
88	0xba2d2262	-0.00066045497
89	0x41068a70	8.408798
90	0xbce09474	-0.027414538
91	0x3c88863a	0.016665567
92	0xbb8d368e	-0.004309482
93	0x41073a50	8.451736
94	0x41069ab3	8.412768
95	0x4106881f	8.408233
96	0x410674c9	8.403512
97	0xba9c13f2	-0.00119078
98	0x41069911	8.41237
99	0xbd3f3abf	-0.046686884
100	0x4106f11a	8.433863
101	0x3c353e65	0.011062239
102	0x4106d9da	8.428186
103	0x3c7c802d	0.015411419
104	0x3c7833ac	0.015149038
105	0xbc93d79c	-0.018047146
106	0x4106b60d	8.419446
107	0x41066bcd	8.401319
108	0x410705d4	8.438923
109	0x410766f6	8.462637
110	0x41067369	8.403176
111	0x4106767e	8.403929
112	0x4107152f	8.442672
113	0x4106b0b1	8.418138
114	0x3c0e752e	0.00869493
115	0xbb0f6590	-0.0021880604
116	0x4106e47f	8.430785
117	0x3c64ed81	0.013972641
118	0x4106708a	8.402475
119	0xbc1704f2	-0.009217488
120	0x3be167a3	0.0068788095
121	0xbb88daf9	-0.004176494
122	0xbc5100e0	-0.012756556
123	0x41066ff0	8.4023285
124	0x3c84b3d7	0.016199036
125	0xbcf3f0d9	-0.029777931
126	0x3c7ddd3f	0.015494644
127	0xbd4677b2	-0.048453994
128	0x3c17b762	0.00926003
129	0x4106a95d	8.416348
130	0xbb643b22	-0.0034825285
131	0xbc4d71d9	-0.01253935
132	0x4106e989	8.432015
133	0x410680b0	8.406418
134	0x4106b8f6	8.4201565
135	0x41069ced	8.413312
136	0xbca6593c	-0.020306222
137	0x3c969bcb	0.018384835
138	0x41073497	8.450339
139	0x4106de88	8.429329
140	0xbd19cb7b	-0.03754757
141	0x4106837a	8.407099
142	0x3bc6a06d	0.0060616047
143	0xbc0e794b	-0.008695911
144	0xbb270375	-0.0025484238
145	0x4107d08b	8.488414
146	0x4106df8a	8.429575
147	0xbd1af29b	-0.037829023
148	0x41067b74	8.40514
149	0x3c6b97be	0.01437944
150	0xbcdebac0	-0.027188659
151	0x4106a2ae	8.414717
152	0x3c2884f2	0.010285603
153	0x3bc179c9	0.0059044105
154	0x410742e0	8.453827
155	0x3c9cf28f	0.01915863
156	0x4106e275	8.430287
157	0xbc80eed6	-0.015738886
158	0x41069b5d	8.4129305
159	0xbaed308f	-0.0018096137
160	0x41077c53	8.467853
161	0x410669f7	8.40087
162	0xbd2dec48	-0.042461663
163	0x41071d4b	8.444652
164	0x3bbad5c3	0.005701752
165	0x41069e56	8.413656
166	0x41071b78	8.444206
167	0x410699ee	8.4125805
168	0x41068829	8.408242
169	0x410672ed	8.403058
170	0x41063f5a	8.390467
171	0xbcb6d321	-0.022317471
172	0x41064c84	8.393681
173	0x4107165a	8.442957
174	0x41013242	8.07477
175	0x41067e00	8.405762
176	0x4106a384	8.414921
177	0x41067d4d	8.405591
178	0x4106174c	8.380688
179	0x41069815	8.412129
180	0x41068c24	8.409214
181	0x3c711189	0.014713653
182	0x4106ae73	8.41759
183	0x4107c60f	8.485854
184	0x4106a0d0	8.414261
185	0x3c58eef7	0.013240567
186	0x3c31bd5b	0.0108483685
187	0x41070ffe	8.441404
188	0x4106f980	8.435913
189	0x4105b212	8.355974
190	0x3c1a5e89	0.009421953
191	0x40f5862c	7.6726284
192	0x4106a05c	8.41415
193	0x4105efa8	8.37101
194	0x4106e25f	8.430266
195	0x3c957d08	0.018248096
196	0x4107163d	8.442929
197	0x41070421	8.438508
198	0x3c4dfcd7	0.012572489
199	0x4106ec40	8.432678
200	0x3c84a7d0	0.0161933
201	0x3a4091cb	0.00073459436
202	0xbd8ab04b	-0.067719065
203	0x4106bac6	8.420599
204	0x410730ca	8.449411
205	0x41068b5e	8.409025
206	0xbd3a4e65	-0.04548492
207	0x3c5607b5	0.013063361
208	0x41071234	8.441944
209	0x3c9ecc38	0.019384488
210	0x4106aebc	8.41766
211	0x410676ab	8.403972
212	0x410727f8	8.447258
213	0x41075c2e	8.460005
214	0xbda148cc	-0.07875213
215	0x41069d0c	8.4133415
216	0x41071a87	8.443976
217	0x3bc4c9d5	0.0060055056
218	0xbceb7412	-0.02874187
219	0x41069665	8.411717
220	0x41071b66	8.444189
221	0x41068f47	8.40998
222	0x3a5690fd	0.0008185057
223	0x4106ad70	8.417343
224	0x4106d325	8.426549
225	0xba0e4e29	-0.0005428517
226	0x410727ff	8.447265
227	0x3bc4c9da	0.006005508
228	0x410733e0	8.450165
229	0xbd194021	-0.037414674
230	0x4106f67e	8.435179
231	0x4106f53a	8.43487
232	0x3c8a0579	0.016848313
233	0x41059d68	8.350929
234	0x4106cfc9	8.425729
235	0x3c9967bf	0.018726228
236	0x410779f0	8.46727
237	0x4106f837	8.435599
238	0x4106ca00	8.424316
239	0x4106a146	8.414373
240	0x4106d879	8.42785
241	0x3c48a536	0.012246421
242	0xbbf076cb	-0.00733838
243	0x3c139958	0.009008728
244	0x3bd77758	0.006575506
245	0x3c802a50	0.015645176
246	0xbcfe4d3c	-0.031042688
247	0xbd912fc8	-0.07089192
248	0xbd186112	-0.03720195
249	0x410666c7	8.400092
250	0x4107197f	8.443725
251	0x3ca8e0b7	0.020614965
252	0x410685f1	8.407701
253	0xbb7a18cf	-0.003816176
254	0xbd5c300f	-0.05375677
255	0x3c8f7254	0.01751057

encoder/0/W f4 [15, 784]
0	0x3ca8fe22	0.020628992
1	0x3b8eb639	0.0043552187
2	0x3d076e6d	0.033064295
3	0x3c748552	0.014924364
4	0x3cf563d8	0.029954836
5	0xbb324c2d	-0.0027206049
6	0xbd24ccf8	-0.040234536
7	0xba99a367	-0.0011721671
8	0x3c2541ad	0.010086459
9	0x3d13d82a	0.036094822
10	0xbdb3efb5	-0.08785955
11	0x3d88386b	0.06651386
12	0xbd6e3c33	-0.05816288
13	0xbd67d182	-0.056596287
14	0x3c885f2f	0.01664695
15	0xbd743d96	-0.059629045
16	0x3c791f79	0.015205258
17	0xbcccc0b6	-0.024994235
18	0xbc215027	-0.00984577
19	0x3bafdd6f	0.005366973
20	0x3c915da9	0.017744856
21	0xbd9def94	-0.077117115
22	0xbd326e89	-0.043562446
23	0x3d148b21	0.036265496
24	0x3bda2abd	0.006657927
25	0x3cb5e03b	0.022201648
26	0xbd8aee6f	-0.06783759
27	0xbc577419	-0.013150238
28	0xbb3c06b8	-0.0028690528
29	0xbd548d8a	-0.051892795
30	0xbcb37b13	-0.021909272
31	0x3b92daba	0.0044816406
32	0x3da065dd	0.07831929
33	0x3ded1bdd	0.1157758
34	0xbc00dbf3	-0.00786494
35	0x3e3fc4d0	0.18727422
36	0x3e0ead68	0.13933337
37	0xbd93ad29	-0.07210762
38	0x3c910e47	0.017707003
39	0xbe363f6e	-0.17797634
40	0xbeabe396	-0.33572072
41	0x3ba851f9	0.005136725
42	0x3d800ed0	0.06252825
43	0x3ea3ecab	0.320165
44	0x3e5313b8	0.20612991
45	0x3df049f8	0.117328584
46	0xbd8d1a75	-0.06889812
47	0x3d0d6601	0.034521107
48	0x3e8dc0f6	0.2768628
49	0x3e5c7458	0.21528757
50	0x3e288aad	0.1645915
51	0x3dd0767c	0.10178849
52	0xbd0eb712	-0.03484256
53	0xbc39efc9	-0.011348673
54	0x3c70f8e7	0.01470778
55	0xbc982cb3	-0.018576002
56	0x3a9671ae	0.0011477971
57	0x3c6eb0ac	0.014568489
58	0xbd51f2d8	-0.051256984
59	0xbcd9ce96	-0.026587766
60	0x3e0b0387	0.13575564
61	0x3d8783ef	0.06616961
62	0x3d75bd64	0.05999507
63	0x3e638b39	0.22221078
64	0x3e35452e	0.17702171
65	0xbcb35137	-0.021889312
66	0xbde0fd08	-0.10985762
67	0x3e278d8f	0.16362594
68	0x3e0d4cf8	0.13798892
69	0xbb9a90b0	-0.004716955
70	0xbc374dba	-0.011187965
71	0x3e57759f	0.21040963
72	0x3e6c7e8e	0.23095152
73	0x3e0f5dc5	0.14000614
74	0x3d8744de	0.06604932
75	0x3df75099	0.1207592
76	0x3e17e4d8	0.1483339
77	0x3db1917e	0.086703286
78	0x3e494a6e	0.19657299
79	0x3e2bcbc2	0.16776946
80	0x3e308380	0.17237663
81	0x3e14900a	0.14508072
82	0x3d0e51dd	0.03474604
83	0x3c0bb9fe	0.008528231
84	0x3c4f4c91	0.012652532
85	0x3c9e2311	0.01930383
86	0xbd7104f3	-0.05884261
87	0xbd40f4f8	-0.04710862
88	0xbde201ff	-0.11035537
89	0xbd48121e	-0.048845403
90	0x3e64e369	0.22352375
91	0x3de97567	0.11399346
92	0x3e2bed39	0.16789712
93	0x3d55bf94	0.052184656
94	0x3dadaaf1	0.0847987
95	0x3d96a9b3	0.07356586
96	0x3c940e46	0.018073212
97	0x3da03029	0.07821686
98	0x3d6d4beb	0.05793373
99	0x3d73a6bd	0.059485186
100	0x3df50753	0.119642876
101	0x3e3e9a7e	0.18613622
102	0x3dfe5f80	0.12420559
103	0x3dc57cfc	0.096429795
104	0x3dfc0cd5	0.12307135
105	0x3e6465a7	0.22304402
106	0x3e4471a2	0.19183972
107	0x3c772f31	0.015086935
108	0x3b40a0db	0.0029392752
109	0x3de1a3a6	0.110175416
110	0x3dcbb494	0.09946552
111	0xbc188cb2	-0.009310888
112	0x3c13450a	0.008988628
113	0xbcf15617	-0.029459996
114	0xbda81427	-0.08206969
115	0xbcc0efa7	-0.023551775
116	0xbe394c1d	-0.18095441
117	0x3d4fee11	0.050764147
118	0xbd11595f	-0.03548562
119	0xbd647bba	-0.055782057
120	0xbdb2b944	-0.08726743
121	0xbd7420f4	-0.05960174
122	0xbd9f3dc1	-0.077754505
123	0xbc2f2c69	-0.010691741
124	0xbd6b3673	-0.057424974
125	0x3ce79298	0.028268144
126	0xbbd882c5	-0.006607386
127	0xbd2846f5	-0.041083295
128	0xbd054c62	-0.032543547
129	0xbcd8876b	-0.02643176
130	0x3b4f16a1	0.0031599181
131	0x3ca09d51	0.019606264
132	0x3e0670e5	0.13129003
133	0x3e2a11ef	0.16608404
134	0x3dbd7a30	0.09251821
135	0xbd23c130	-0.03997916
136	0xbd61fb74	-0.055171445
137	0x3d54adcc	0.051923558
138	0x3d615b58	0.055018753
139	0xbc27c627	-0.010240114
140	0xbd3d6c51	-0.046245877
141	0xbd75fbdf	-0.060054656
142	0x3e30fca5	0.17283876
143	0x3de0479c	0.109511584
144	0xbde1356a	-0.10996516
145	0xbcaa89df	-0.020817695
146	0xbd9d983c	-0.07695052
147	0xbdeaf1d9	-0.1147191
148	0xbddd4f60	-0.10806155
149	0xbdc6e8c0	-0.09712362
150	0xbd3797ae	-0.044822387
151	0xbc4f0810	-0.0126362
152	0xbdc0a4cd	-0.09406433
153	0xbd9bfc29	-0.07616455
154	0x3ca30e20	0.019904196
155	0xbd94bdc2	-0.07262756
156	0xbd3ccb81	-0.046092514
157	0xbd772cef	-0.060345586
158	0xbd314be3	-0.04328526
159	0xbce35f0e	-0.027755287
160	0x3cb8b198	0.02254562
161	0x3d0dfb12	0.034663267
162	0x3d9a0f60	0.07522464
163	0xbc803777	-0.015651448
164	0xbd011b8c	-0.03152041
165	0xbd0377a2	-0.032096513
166	0x3d9e7eb6	0.07739012
167	0xbdab00a7	-0.08349734
168	0x3ca52e21	0.020163598
169	0x3d34a5f1	0.044103567
170	0xbdba5875	-0.09098903
171	0x3cb205aa	0.021731216
172	0xbe00413b	-0.12524883
173	0xbdb3b888	-0.08775431
174	0xbdf7d132	-0.12100448
175	0xbd96f129	-0.073702164
176	0x3be66a80	0.0070317388
177	0xbd28b1a7	-0.041185047
178	0xbd61c79f	-0.055122014
179	0xbd6d4413	-0.05792625
180	0xbb09021b	-0.0020905796
181	0xbc9cf952	-0.019161854
182	0x3b40e877	0.0029435435
183	0xbd9ee465	-0.077584065
184	0xbc8ad040	-0.016945004
185	0x3d393462	0.04521597
186	0xbaac2677	-0.0013134022
187	0xbd13495f	-0.035958644
188	0xbc9fd4c4	-0.019510634
189	0xbde3e032	-0.11126746
190	0xbd3b03b7	-0.04565784
191	0x3d139773	0.036033105
192	0xbbf31547	-0.007418308
193	0xbdf2c9d5	-0.11854903
194	0xbe39dc95	-0.18150552
195	0xbe6f75fa	-0.23384848
196	0x3d10f423	0.035389077
197	0x3c90ca42	0.017674569
198	0xbdbc41da	-0.09192248
199	0xbe5e6bda	-0.2172083
200	0xbda861d2	-0.08221783
201	0x3c212d06	0.009837395
202	0xbd1e0f97	-0.038589086
203	0xbcf72da4	-0.03017313
204	0xbdb933dd	-0.09043095
205	0xbd5eec64	-0.05442466
206	0xbdcf9942	-0.101366535
207	0xbd6a5d74	-0.05721803
208	0xbd11477e	-0.03546857
209	0xbd45e8f3	-0.04831786
210	0xbd0e2f98	-0.034713358
211	0xbc538dd5	-0.012912233
212	0x3d59e0cf	0.05319291
213	0x3b11a83a	0.0022225515
214	0xbd75f7f1	-0.06005091
215	0xbc9026e4	-0.01759667
216	0xbd83ea10	-0.06441128
217	0xbd9e6643	-0.077343486
218	0xbe1d134d	-0.15339394
219	0xbd938be1	-0.07204414
220	0xbdc0cf30	-0.09414518
221	0xbbd57dd4	-0.006515244
222	0xbb50b286	-0.003184469
223	0xbe004510	-0.12526345
224	0x3d8f3fd2	0.06994595
225	0x3e8bb42c	0.27285898
226	0x3e55b630	0.2087028
227	0x3d973b70	0.07384384
228	0x3d769957	0.06020483
229	0xbd18dbc8	-0.037318975
230	0x3d308454	0.043094948
231	0xbd05b8d2	-0.03264696
232	0xbcfedf92	-0.031112466
233	0xbbcb84b6	-0.0062108887
234	0xbdc4ec4c	-0.096153826
235	0xbc04688c	-0.008081567
236	0xbc92f11b	-0.017937234
237	0x3b5dd455	0.0033848484
238	0x3c904c78	0.017614588
239	0x3b078525	0.0020678726
240	0xbd2ac9b7	-0.041696277
241	0x3c5e7591	0.013577835
242	0x3d8964f7	0.06708711
243	0xbcb6b67e	-0.022303816
244	0xbcc25175	-0.023720482
245	0xbd829b15	-0.06377236
246	0xbdca2eb7	-0.098721914
247	0xbc944573	-0.018099522
248	0xbd52656b	-0.05136625
249	0x3d0232ac	0.031786606
250	0x3e1df176	0.15424141
251	0xbdae9564	-0.08524588
252	0x3d8905da	0.06690569
253	0x3e5a66b7	0.21328245
254	0x3e5d7b98	0.21629179
255	0x3dcec719	0.100965686

decoder/1/b f4 [784]
0	0x4143c022	12.234407
1	0x3ca38597	0.019961162
2	0x3d157f05	0.03649809
3	0x3d9dc49a	0.077035144
4	0x414346db	12.204799
5	0x3c90bfcd	0.017669583
6	0x41431062	12.1915
7	0x3d33d767	0.043906596
8	0x41430640	12.189026
9	0x41431e51	12.194901
10	0x3ce845ac	0.028353535
11	0x3ca8224e	0.02052417
12	0x4142c65b	12.173427
13	0x41439811	12.224626
14	0x3ca0edfe	0.019644734
15	0x41437be8	12.217751
16	0x4143821d	12.219266
17	0x3c8686e6	0.016421746
18	0x3cce4036	0.025177103
19	0x414367c2	12.2128315
20	0x3d2a605f	0.041595813
21	0x4143d03e	12.23834
22	0x3c84ca45	0.01620973
23	0x41438cc8	12.22187
24	0x41443df8	12.265129
25	0x41438615	12.220235
26	0x41436900	12.213135
27	0x4144082a	12.251993
28	0x3cb27261	0.021783056
29	0x3c40a90c	0.011759054
30	0x4142c5c9	12.173287
31	0x41442518	12.259056
32	0x3cad9681	0.02118993
33	0x4143956f	12.223983
34	0x3ca41b91	0.020032676
35	0x3d2c47eb	0.042060774
36	0x3d1d0e2e	0.0383436
37	0x41444c53	12.268634
38	0x3c175201	0.00923586
39	0x3c81bbb5	0.015836576
40	0x3d7c50ec	0.06160061
41	0x3c5c304d	0.01343925
42	0x4142f897	12.185691
43	0x41443780	12.26355
44	0x4143464b	12.204661
45	0x41440931	12.252244
46	0x3c9defb2	0.019279335
47	0x4143c775	12.236196
48	0x3d4f5b4b	0.050624173
49	0x41435362	12.207857
50	0x3c6bf34b	0.014401267
51	0x3cfa70bf	0.03057134
52	0x414366e7	12.212623
53	0x3cdd08e2	0.026981775
54	0x3c394753	0.011308509
55	0x4143ed4b	12.245433
56	0x3caff254	0.021477856
57	0x3d33edb7	0.043927874
58	0x41444090	12.265762
59	0x3d29aa4c	0.041422173
60	0x414433a3	12.262607
61	0x3c701132	0.014652537
62	0x414319c6	12.193792
63	0x3c84004b	0.016113421
64	0x3c9382d8	0.018006727
65	0x3d0c4634	0.03424664
66	0x4143ed04	12.245365
67	0x4143b854	12.232502
68	0x3cbc0da3	0.022955721
69	0x41430fbb	12.19134
70	0x3c64f5ae	0.01397459
71	0x414333c6	12.20014
72	0x41432958	12.197594
73	0x3b733335	0.003710938
74	0x3c8bb3ff	0.017053602
75	0x3c65bf8b	0.014022718
76	0x41444bbd	12.268491
77	0x41437cd9	12.21798
78	0x4143ccb9	12.237481
79	0x3c821456	0.015878838
80	0x3d402a09	0.046915088
81	0x414438a2	12.263826
82	0x3c7e407a	0.015518302
83	0x3c0a475f	0.008439868
84	0x414323e9	12.196267
85	0x3c31cf8f	0.0108527085
86	0x4143bbe0	12.233368
87	0x3d03d666	0.03218689
88	0x414344ac	12.204266
89	0x3c950e61	0.018195333
90	0x4143e34e	12.242994
91	0x3c36de3b	0.011161382
92	0x41435d55	12.210286
93	0x3d82cc6e	0.06386648
94	0x3cf938c8	0.030422583
95	0x3c95361f	0.018214284
96	0x3cb70057	0.02233903
97	0x4143a78d	12.228406
98	0x3d642c41	0.055706266
99	0x41437464	12.215916
100	0x3d5702dc	0.05249296
101	0x41441a09	12.256356
102	0x3d28df7d	0.04122876
103	0x41442714	12.259541
104	0x3c458de2	0.012057753
105	0x41438fd1	12.222611
106	0x3d12a613	0.035802912
107	0x3cc21582	0.023691896
108	0x3c2e6be5	0.010645841
109	0x3cab9d62	0.02094907
110	0x3cc1a326	0.023637366
111	0x3cb1584b	0.021648547
112	0x3c2f542e	0.010701222
113	0x3c9ad649	0.018901007
114	0x414331d4	12.199665
115	0x4143ec9a	12.245264
116	0x3c4d96e3	0.012548181
117	0x4143a7c3	12.228457
118	0x3cc272bf	0.023736356
119	0x4144336b	12.262553
120	0x3c83256e	0.016009059
121	0x4143da8c	12.240856
122	0x41431fd9	12.195275
123	0xbb5f333d	-0.003405764
124	0x3c2e1f6b	0.010627608
125	0x41435a76	12.209585
126	0x41430f55	12.191243
127	0x41432868	12.197365
128	0x414333ed	12.200177
129	0x3c9a32bb	0.018823018
130	0x4143992b	12.224895
131	0x4143d799	12.240136
132	0x3d2113a3	0.039325368
133	0x3c87e57a	0.016588915
134	0x3bc8e2d4	0.0061305556
135	0x3ca03d93	0.01956061
136	0x4143e928	12.244423
137	0x4144472f	12.267379
138	0x3ca1d2ea	0.019753892
139	0x3d32f82b	0.043693703
140	0x41436d94	12.214252
141	0x3cb47425	0.022028038
142	0x41442e7c	12.261349
143	0x4143fce3	12.24924
144	0x414426a3	12.259433
145	0x3c518977	0.012789122
146	0x3ca24886	0.019809972
147	0x414394d4	12.223835
148	0x3cdcb586	0.026942026
149	0x4142ea10	12.182144
150	0x41437dd0	12.218216
151	0x3cf475aa	0.029841263
152	0x41439ade	12.225309
153	0x414392d1	12.223344
154	0xbc304527	-0.010758675
155	0xbc42b9e9	-0.011885145
156	0x3b17e64f	0.0023178046
157	0x4143d245	12.238835
158	0xbc5ce272	-0.013481723
159	0x4143eda4	12.245518
160	0x3d14ec41	0.03635812
161	0x3bf0df2e	0.007350824
162	0x41432f1a	12.198999
163	0x3ca422c4	0.020036109
164	0x4143d25f	12.23886
165	0x3d666d26	0.056256436
166	0x3c8ec47a	0.017427672
167	0x3c316235	0.010826637
168	0x3c648163	0.013946864
169	0x3c5d4329	0.013504782
170	0x3d0e1616	0.03468903
171	0x41440308	12.25074
172	0x3ca06f6d	0.019584382
173	0x3d377d10	0.044797003
174	0x3d0594c8	0.032612592
175	0x3caa9340	0.020822167
176	0x3cc63004	0.024192818
177	0xb9ad1b87	-0.0003301764
178	0x3d0aeb24	0.033915654
179	0x3c082f86	0.008312112
180	0x3b4aacaf	0.0030925681
181	0xbc94b1dd	-0.018151218
182	0xbc33c328	-0.010971822
183	0xbc9278ff	-0.017879961
184	0xbc6d6ff6	-0.014492026
185	0x41435269	12.20762
186	0x414372c5	12.21552
187	0xbc48b22f	-0.0122495135
188	0x3d08b600	0.033376694
189	0x3d118969	0.035531435
190	0x3c6d9ef6	0.014503231
191	0x3d8e36b1	0.06944025
192	0x3d2ddc0e	0.04244619
193	0x3d4cf2e8	0.05003634
194	0x3cf839ac	0.030300938
195	0x414402b1	12.250657
196	0x3c7ca200	0.015419483
197	0x3d66e223	0.056368005
198	0x4143d2d9	12.2389765
199	0x3c83e338	0.016099557
200	0x3cb560ae	0.022140827
201	0x4143f093	12.246234
202	0x41435d22	12.2102375
203	0x3ca7a93e	0.020466443
204	0x3d29eed3	0.041487526
205	0x3cdc4070	0.026886195
206	0x414349df	12.205535
207	0xbc61a596	-0.013772389
208	0xbc887207	-0.016655935
209	0xbc6abcf8	-0.01432728
210	0xbc537965	-0.012907361
211	0xbc6be961	-0.014398904
212	0xbb5a88a5	-0.0033345607
213	0xbc5f5835	-0.01363187
214	0x4142e755	12.181478
215	0xbbaec0c4	-0.005333038
216	0x3d1e56f5	0.038657147
217	0x4142d2a7	12.176429
218	0x4143cea2	12.237947
219	0x3cee89b0	0.029118389
220	0x3c18cd30	0.009326264
221	0x3cf407dd	0.029788906
222	0x4144187f	12.2559805
223	0x3c8df8f8	0.017330632
224	0x3d35da83	0.044397842
225	0x4143ccee	12.237532
226	0x3d20e03d	0.03927635
227	0x414443c1	12.2665415
228	0x3d4d5a1e	0.05013477
229	0x4142f696	12.185202
230	0x3d0c296d	0.034219194
231	0x3c77b385	0.015118484
232	0xbc958b0d	-0.018254781
233	0x3c92c7ff	0.017917631
234	0xbc0caacb	-0.008585642
235	0x414356c2	12.208681
236	0xbc682c80	-0.014170766
237	0xbbe63a3a	-0.007025984
238	0x3c34bbaf	0.011031075
239	0xbc57e310	-0.0131766945
240	0xbc66b00e	-0.014080061
241	0xbc80ea55	-0.015736738
242	0x4142d8cb	12.177928
243	0x414360d2	12.211138
244	0x414385a3	12.220126
245	0x414370d9	12.215051
246	0x4142f48b	12.184703
247	0x4142ffad	12.187421
248	0x41432c22	12.198275
249	0x3c52326a	0.012829402
250	0x3c76b527	0.0150578385
251	0x41442a45	12.26032
252	0x3d152aa5	0.036417622
253	0x414325ca	12.196726
254	0x4143696c	12.213238
255	0x414459f2	12.271959

decoder/1/W f4 [784, 15]
0	0x41554103	13.328372
1	0x41598313	13.594501
2	0x41578f97	13.472556
3	0x41569adc	13.412807
4	0x4156a724	13.415806
5	0x415316a6	13.193029
6	0x415bb721	13.732209
7	0x41614a07	14.080573
8	0x415dbcdb	13.858607
9	0x415566d3	13.337604
10	0x415b3bd4	13.702106
11	0x415add35	13.679006
12	0x4157d06b	13.488383
13	0x4154110e	13.254164
14	0x4159104c	13.566479
15	0xbe92778a	-0.28606826
16	0x3efd4c98	0.494725
17	0x3dc1c487	0.09461313
18	0xbe38d7b5	-0.18051036
19	0xbe369deb	-0.17833678
20	0x3e015ac8	0.12632287
21	0xbec42698	-0.38310695
22	0xbe386e28	-0.18010771
23	0x3e648e5d	0.22319932
24	0xbf007cc4	-0.5019038
25	0xbed030f8	-0.4066236
26	0xbe08cda1	-0.13359691
27	0x3e3fcedd	0.18731256
28	0xbec6689e	-0.38751692
29	0x3f0bca78	0.5460582
30	0x3dea23bf	0.11432599
31	0xbc40edc9	-0.011775442
32	0xbe62d582	-0.2215176
33	0x3ead5447	0.3385336
34	0xbe96799e	-0.29389662
35	0xbd807b5a	-0.062735274
36	0xbdeb0d23	-0.11477115
37	0x3dffa548	0.12482697
38	0x3ea1159a	0.31461793
39	0x3e11971f	0.14217804
40	0x3f5b9374	0.8577187
41	0x3ef55118	0.47913432
42	0xbed350ea	-0.4127267
43	0xbc48e002	-0.012260439
44	0x3e083c88	0.13304341
45	0x3ed0a552	0.4075113
46	0xbe94fc05	-0.29098526
47	0xbee1653f	-0.44022557
48	0xbd8b48f4	-0.06801024
49	0xbe44c563	-0.19215922
50	0x3f1994f4	0.5999291
51	0x3e5b119f	0.2139344
52	0xbec57af7	-0.38570377
53	0x3c5a7e93	0.013335842
54	0x3deaa924	0.11458042
55	0x3e6a0b8c	0.22855967
56	0x3e3b6b13	0.18302564
57	0xbe0128b0	-0.12613177
58	0x3f0ceaa7	0.5504555
59	0xbcb7943b	-0.022409549
60	0x41556e2f	13.3394
61	0x415dfb5e	13.873869
62	0x4158ed8e	13.557997
63	0x415940cc	13.57832
64	0x4159fa4c	13.623608
65	0x415c0005	13.750005
66	0x4159afe4	13.605442
67	0x41554dac	13.331463
68	0x415d9307	13.848395
69	0x4155c291	13.360002
70	0x415e9472	13.911242
71	0x41568609	13.407723
72	0x415b4d11	13.706315
73	0x415a6bdf	13.651336
74	0x414e9970	12.91246
75	0xbf642e06	-0.89132726
76	0xbe7dfae2	-0.24802735
77	0xbe2e5886	-0.17025957
78	0x3e966a0f	0.2937779
79	0x3eb37e14	0.35057127
80	0x3e996bf7	0.29965183
81	0x3e86d10c	0.26331365
82	0x3cbb07c7	0.022830857
83	0xbec4c6ec	-0.38433015
84	0xbf0f4a1e	-0.5597247
85	0xbe42ede7	-0.19036065
86	0x3d836902	0.06416513
87	0xbef049e2	-0.46931368
88	0xbe9ad987	-0.30244085
89	0xbd659b7e	-0.056056492
90	0x41595e62	13.585543
91	0x415a5593	13.645892
92	0x41566a36	13.40093
93	0x415bda50	13.740799
94	0x415ebdd2	13.921343
95	0x415af9c0	13.685974
96	0x4156b6a4	13.41959
97	0x4159c363	13.610202
98	0x415b48b1	13.705247
99	0x415b3530	13.700485
100	0x4156f7b4	13.435474
101	0x41593d22	13.577425
102	0x4159a254	13.602131
103	0x41574253	13.453692
104	0x415545a1	13.329499
105	0x3ee9fca2	0.45700556
106	0x3d2a32f7	0.04155251
107	0xbdd0f01e	-0.10202049
108	0x3e347a7e	0.17624852
109	0xbca57dbe	-0.02020156
110	0x3e34456e	0.1760461
111	0xbdf4d388	-0.11954409
112	0xb92568c9	-0.00015774662
113	0x3e9564f2	0.29178578
114	0xbe0356c0	-0.12826061
115	0x3dc2411d	0.094850756
116	0xbc9ce5d5	-0.019152561
117	0x3da51c2d	0.08062015
118	0xbd9e5d3d	-0.077326275
119	0x3f1e49f1	0.61831576
120	0x41535905	13.209233
121	0x4156f8a5	13.435704
122	0x4154822d	13.281781
123	0x415a3219	13.637231
124	0x41554971	13.33043
125	0x415f61d5	13.961385
126	0x415c2dca	13.761179
127	0x415b5b16	13.709738
128	0x415eba7e	13.92053
129	0x415b759a	13.716211
130	0x415a4fb1	13.644456
131	0x415bb6af	13.7321005
132	0x41558ad8	13.346397
133	0x4158cc68	13.549904
134	0x41584376	13.51647
135	0x415667de	13.400358
136	0x4155b43c	13.356503
137	0x4155dd2c	13.366497
138	0x4154baaf	13.295577
139	0x415d99ec	13.850079
140	0x41577bc2	13.467714
141	0x4159b349	13.606271
142	0x415ba26a	13.727152
143	0x4157faa2	13.49869
144	0x415c2276	13.758413
145	0x415c0fe7	13.753882
146	0x4156b10c	13.418224
147	0x415bb5cf	13.731887
148	0x415e43b1	13.891526
149	0x4158f15f	13.5589285
150	0xbec02da9	-0.37534836
151	0x3ea2e764	0.31817162
152	0xbe06e9c0	-0.13175106
153	0xbdc573f5	-0.09641258
154	0xbd6bcd55	-0.057568867
155	0x3e043cde	0.12913844
156	0x3cfb8daa	0.0307072
157	0x3dc63d5f	0.09679674
158	0x3e5d9614	0.21639282
159	0xbf07c3da	-0.5303322
160	0x3ec6d29b	0.38832554
161	0xbd7e3291	-0.062059943
162	0xbc99f1ff	-0.01879215
163	0x3d076324	0.033053532
164	0x3ef1275a	0.47100335
165	0x3eb4388b	0.3519939
166	0xbd70b0ac	-0.058762237
167	0xbe63a067	-0.22229157
168	0x3eab4e68	0.33458257
169	0x3e98921f	0.29798982
170	0xbe98e5e4	-0.29862893
171	0xbeab5d5f	-0.33469674
172	0xbed2d2d4	-0.41176474
173	0xbe3f5dfc	-0.18688196
174	0x3f1ab4b0	0.6043196
175	0xbe81c3bc	-0.25344646
176	0x3cb8b5fc	0.022547714
177	0xbeaf7b33	-0.3427368
178	0xbe524eee	-0.20537922
179	0x3e3f27e9	0.18667568
180	0x4160322f	14.012252
181	0x41569f82	13.413942
182	0x4153bc1c	13.233425
183	0x4154f7c6	13.310492
184	0x415cbf81	13.796754
185	0x4158db63	13.553561
186	0x415b8b75	13.721547
187	0x41575138	13.457329
188	0x415a3c3e	13.639708
189	0x415bcfe6	13.738256
190	0x41566bf3	13.401355
191	0x4158f5e4	13.560032
192	0x415e23a4	13.883701
193	0x4157311c	13.44949
194	0x4159ec53	13.620196
195	0x4153f766	13.2479
196	0x415c94f0	13.786362
197	0x41561684	13.380497
198	0x415509bf	13.314879
199	0x41550bc8	13.315376
200	0x415cabe4	13.7919655
201	0x415696b8	13.411797
202	0x4159f788	13.622932
203	0x415e767e	13.903929
204	0x415c1020	13.753937
205	0x415799b6	13.475027
206	0x415b170f	13.69313
207	0x4157b407	13.481452
208	0x415a2578	13.634148
209	0x4156cac9	13.424508
210	0x3c1f0657	0.009706101
211	0xbe005dd6	-0.12535796
212	0x3e1a56e9	0.15072216
213	0x3e9a5db1	0.30149606
214	0x3f050532	0.5196105
215	0xbebca1d1	-0.36842206
216	0x3cc6365b	0.02419584
217	0xbe6c7e17	-0.23094974
218	0xbe84272e	-0.25811142
219	0xbe25d413	-0.16194181
220	0xbe37c33e	-0.17945573
221	0xbe44adb3	-0.19206886
222	0xbdc45698	-0.09586829
223	0x3db46526	0.08808355
224	0x3e0389c0	0.12845516
225	0x41575a8d	13.459607
226	0x415711ea	13.441874
227	0x41551b17	13.319114
228	0x415d8858	13.845787
229	0x41577192	13.465227
230	0x4158ab26	13.541784
231	0x41567237	13.4028845
232	0x4156e1e3	13.430148
233	0x415b14cd	13.692578
234	0x4158100d	13.503919
235	0x41543d01	13.264894
236	0x415c538d	13.770398
237	0x41595dac	13.585369
238	0x415f6bb0	13.963791
239	0x415a4610	13.642105
240	0x4159ce52	13.612871
241	0x415e4dfa	13.894037
242	0x415571ff	13.340331
243	0x41534bfa	13.206049
244	0x4159784e	13.591871
245	0x4150bc08	13.045906
246	0x41593500	13.575439
247	0x4161b646	14.107
248	0x4155a64f	13.353103
249	0x41526c68	13.151466
250	0x41527749	13.154122
251	0x41588f5b	13.534999
252	0x415101e6	13.0629635
253	0x415979cc	13.592236
254	0x4155ab44	13.354313
255	0xbed4b287	-0.41542456

encoder/1/b f4 [15]
0	0x415869f4	13.525867
1	0x4158318f	13.512099
2	0x415866da	13.52511
3	0x4158571a	13.521265
4	0x415816aa	13.505533
5	0x415843b0	13.516525
6	0x415886c7	13.532905
7	0x41585693	13.521136
8	0x41583ef2	13.5153675
9	0x415826fd	13.509519
10	0x41587b66	13.530127
11	0x41581e3f	13.507384
12	0x4158590f	13.521743
13	0x41583754	13.513508
14	0x415865f7	13.524894
