NIPS_3/Models/Weights_166/1/weights.npz (npz, 178645 bytes, 8 tensors)

encoder/1/W f4 [15, 784]
00000000: 2d7c 3fbd b94e 253d 081a 9d3c 1348 b33b
00000010: 856d aebb 4d19 adbc 9604 573c ede5 51bd
00000020: d7db 933d 02b2 f43c a083 58bd 09e5 c7bc
00000030: 2e9e da3d a35a f43d e731 9f3d 4fb9 823d
00000040: f49e efbc cd62 683d 545b d53a c4c9 c7bc
00000050: ee6a 4cbc fa6e 043d a8d8 a7bc cd20 edbc
00000060: 5f12 d9bc a888 d13c 01bd 4bbc a12b 28bb
00000070: 3232 c5bc d798 8e3d 9001 0cbc dbdb 49bc
00000080: c563 963d 9dd5 ce3d b290 813e c487 893e
00000090: 9049 d03e e707 0b3f bd8b 363f 09b7 6a3f
000000a0: 3f77 803f d864 6c3f 1f0b 753f cfed 813f
000000b0: 517c 803f 0c50 563f 44af 383f c004 0e3f
000000c0: 8bec 063f b6c4 a23e 531a 6f3e fbe2 f63d
000000d0: 64e2 aa3c b233 d13c d67a aebb 08be a33c
000000e0: 5501 08bc 3b15 8cbd fd28 b03d e044 1e3e
000000f0: 030c a73e 64e9 b93e 008a e83e 7ac1 693f
00000100: 560b a03f 86ac d23f 39e6 0140 d8e1 1740
00000110: acf3 3340 8f7c 4240 2722 5040 368a 5940
00000120: 4790 5b40 8fd0 5440 a16c 4740 c009 3040
00000130: 6aa7 1340 17cc e83f 09b2 9f3f 4645 403f
00000140: e0d3 e93e 4ff5 dc3d eeb6 78bc c61a 6dbc
00000150: f4cc 0bbd d9ae 5b3c 67ea cb3d d7a6 c13d
00000160: 7175 c83e 229f 2b3f 8177 943f 7b5f de3f
00000170: 9d84 1740 fc04 3740 5114 5740 7fa1 6940
00000180: 9068 7740 ea64 8440 7478 8640 0ab8 8a40
00000190: ebf9 8940 a464 8840 8d09 8340 a434 7840
000001a0: 71dd 6140 a4c2 3a40 8760 1240 4d4d bd3f
000001b0: 5e9a 6f3f 17d4 c13e f9ea 8c3d 2ae9 1fbc
000001c0: 2f32 963c 676c 573d bb21 583e 9d20 e53e
000001d0: 4e94 473f 3183 d23f 08a2 1340 3c3e 4640
000001e0: cca5 6640 f9dc 8140 520c 8a40 83b5 8d40
000001f0: e70c 9340 07de 9740 811b 9740 4530 9940
00000200: 7f82 9640 c9e8 9640 43bf 9540 9041 9240
00000210: 52e0 8e40 8669 8140 6013 6b40 48f7 3d40
00000220: 433f 0940 b8a0 9b3f 3a73 da3e b290 ee3d
00000230: 8c79 ebbc 2eb9 c0bc 8b84 893e ec6e 2f3f
00000240: 929d d03f 2ba9 2940 cadb 5c40 984b 8040
00000250: 482f 8940 8d0f 9040 4e69 9640 7e27 9740
00000260: 7504 9940 976b 9b40 1e37 9c40 16e3 9a40
00000270: e0a4 9c40 bddf 9940 a081 9a40 f7a4 9940
00000280: e8bb 9640 e171 9140 7387 8940 27b1 7c40
00000290: 35f3 5340 bcdd 1240 519d 843f be2f 213e
000002a0: e183 d4ba 753b a83d 207c fb3e 4765 a33f
000002b0: 8908 1540 c16d 5740 74f4 8040 18fe 8b40
000002c0: 648f 9240 3473 9740 4ae6 9840 0715 9940
000002d0: ab9c 9b40 5910 9a40 e81b 9c40 a2e4 9b40
000002e0: 0d5f 9c40 d05d 9d40 84bd 9d40 01c2 9a40
000002f0: a861 9740 691b 9840 0b9f 9140 52eb 8940
00000300: 3179 7340 c73a 3840 3e43 c43f a1fd cf3e
00000310: 4716 603d 8e00 983e 93a5 553f 2920 ea3f
00000320: c5ad 3b40 ccea 7540 f5f3 8940 397d 9140
00000330: fe97 9540 f59b 9940 b68a 9b40 3331 9b40
00000340: 1d20 9940 6c67 9c40 4875 9a40 c567 9d40
00000350: b512 9d40 d912 9a40 c247 9b40 f263 9c40
00000360: f1f4 9a40 bef4 9640 3c55 9640 7246 8d40
00000370: a0c4 7b40 4d06 4d40 3e40 e33f 32e6 e23e
00000380: 798f b33d 8897 003f d518 b73f 0196 1c40
00000390: 1f49 5840 da48 8040 e8cd 8c40 1604 9540
000003a0: 82a0 9740 ea47 9840 4eb5 9b40 e8e3 9c40
000003b0: ca82 9940 48ef 9c40 f98f 9c40 ea3a 9b40
000003c0: e6e4 9d40 7e52 9a40 12a0 9b40 928b 9b40
000003d0: 0dad 9940 f934 9840 26d2 9540 fd09 8f40
000003e0: 922d 7f40 b096 4740 79e5 d23f 01f5 c43e
000003f0: 7fac 183e d046 193f 386f d53f a201 2440
-0.046749283 0.04035828 0.019177452 0.0054712384 -0.0053231143 -0.021130228 0.013123652 -0.051244665
0.072196655 0.029870037 -0.052859902 -0.024401205 0.10674702 0.1193135 0.0777319 0.06383001
-0.0292506 0.05673485 0.0016277828 -0.024388202 -0.012476666 0.032332398 -0.020489052 -0.028946305
-0.026498018 0.025577858 -0.012435199 -0.002566077 -0.024071787 0.06962746 -0.008545294 -0.012320484
0.07343248 0.10099337 0.25305706 0.26861393 0.40681124 0.54308933 0.71306974 0.9168554
1.0036391 0.92341375 0.95720094 1.0150698 1.0037938 0.8371589 0.72142434 0.55476
0.52704686 0.31790704 0.23349886 0.12055012 0.020859905 0.025537346 -0.005324702 0.019988075
-0.008301099 -0.06839987 0.08601568 0.15455961 0.32626352 0.36310875 0.45417786 0.91310847
1.250346 1.64589 2.0296767 2.3731594 2.8117476 3.0388525 3.2520845 3.3990607
3.430681 3.3252294 3.1160052 2.750595 2.3070931 1.8187283 1.2476207 0.751057
0.4566946 0.107889764 -0.015180333 -0.014471715 -0.034131005 0.013408386 0.09956818 0.0945565
0.391521 0.6703969 1.159897 1.7372888 2.367469 2.8596792 3.360615 3.650482
3.865757 4.1373186 4.2022038 4.3349657 4.3117576 4.262285 4.094916 3.878213
3.5291407 2.91813 2.2871416 1.4789215 0.9359492 0.37857124 0.06880755 -0.0097601805
0.018334476 0.052593615 0.21106617 0.44751444 0.7796067 1.6446286 2.3067646 3.0975485
3.6038694 4.058224 4.314004 4.428407 4.595325 4.745853 4.7221074 4.7871423
4.7034297 4.715916 4.6795974 4.570503 4.464883 4.0441313 3.6730576 2.9682178
2.1444862 1.2158422 0.42666036 0.11648692 -0.028744482 -0.0235258 0.26858935 0.6852863
1.6298087 2.6509502 3.4509149 4.0092278 4.2870216 4.5018983 4.7003546 4.723571
4.781794 4.8568835 4.881728 4.8402205 4.8951263 4.808562 4.8283234 4.8013873
4.710438 4.545151 4.2977843 3.9483125 3.3117192 2.2947836 1.0360509 0.15740868
-0.0016213619 0.082144655 0.49118137 1.2765282 2.328646 3.3660738 4.0298405 4.3747673
4.5800037 4.732813 4.7781115 4.783817 4.8628745 4.8144956 4.8784065 4.8716593
4.886603 4.9177017 4.929384 4.836182 4.730671 4.753346 4.5506644 4.3099756
3.804272 2.8785875 1.5333021 0.4062319 0.054708745 0.29687923 0.8345577 1.8291065
2.932481 3.8424559 4.31103 4.546536 4.6748037 4.8002877 4.8606825 4.849756
4.78517 4.8876247 4.8268166 4.918917 4.9085336 4.8148007 4.8525095 4.8872004
4.8424 4.7173758 4.6979046 4.4148493 3.933876 3.2035096 1.775398 0.4431625
0.087675996 0.5023122 1.4304453 2.4466555 3.379463 4.008893 4.400135 4.656749
4.7383432 4.7587786 4.865882 4.9028206 4.7972155 4.904209 4.892575 4.8509417
4.9341917 4.82257 4.86329 4.8607874 4.8023744 4.7564664 4.681903 4.4699693
3.9871564 3.1185722 1.647628 0.38468173 0.14909552 0.59873676 1.6674566 2.5625997

encoder/0/b f4 [15]
00000000: 1b25 40bc 1d9d e6bc 946d 87bc d7a3 96bc
00000010: 30cf a23b a8d6 d1bc 90a6 42bc 70f5 95bc
00000020: e4cb 5dbc e198 d4bb 636b a7bc 1fa7 05bd
00000030: 287c 03bd d063 15bd 154f 3fbc
-0.011727597 -0.02815109 -0.016531743 -0.018388672 0.0049685463 -0.025615051 -0.011880532 -0.01830551
-0.013537381 -0.006487951 -0.020436948 -0.032630082 -0.032100827 -0.03647214 -0.0116765695

decoder/0/W f4 [784, 15]
00000000: dbb1 6d40 9b5c 6e40 5ac2 5b40 ffcc 7440
00000010: f8c4 6840 e116 8740 1c33 6f40 1802 6f40
00000020: 6bd8 6240 a367 6840 23b9 5240 7ab6 7340
00000030: bb28 6b40 2b9a 4d40 d095 4c40 c07d 36bd
00000040: 4e20 a9be f971 71be ce94 a4be 41a7 62be
00000050: 0738 a2be b29e 1fbe d3b3 8ebd 4af4 a1bc
00000060: a7aa 98be 7f42 dabd 8957 453f 3405 093e
00000070: c16d 30be 7d0e 35be b0a9 6140 6a20 6240
00000080: 8c74 6840 875a 8140 6660 6c40 fd71 5c40
00000090: 4acf 7640 9bdc 6140 29bf 5b40 8b3a 5040
000000a0: b3bc 6340 03a1 7b40 7435 6240 5721 6040
000000b0: 7c6e 5d40 ace6 5240 a573 5a40 6a7c 7540
000000c0: c371 7740 205e 5940 252c 7440 1ae9 5e40
000000d0: 258b 6b40 3cbf 6f40 185c 8b40 9f3e 6140
000000e0: a4a2 7d40 b52f 7040 de55 8240 7eea 6440
000000f0: b0b0 6b3e 6942 a1bd f67f bcbe 6e31 0c3e
00000100: 02da 10be 1b92 a43d 10a7 12be c527 d2be
00000110: fea7 9dbe 3178 fa3d f3bd afbe 0267 98be
00000120: 6521 0bbf cb00 29be 4de4 bd3e bc7a 5f40
00000130: a6e2 6540 4064 7a40 4e83 5e40 b93f 4d40
00000140: f71c 5e40 0e16 7d40 8167 5640 2f2c 6c40
00000150: d2c6 5240 4f79 5b40 683d 5d40 a7e9 7a40
00000160: 74e5 6b40 aac3 6440 e341 d03e 72d3 f0be
00000170: a18a debd d212 07be ff54 0fbe b9b6 283d
00000180: 1a26 713e d9cb ad3d 6062 87be b0c9 003e
00000190: 3d9c 2abe b7ac 5a3e 166d 03bf 9e4d de3d
000001a0: ee6f b4be f133 8140 0b94 4940 7c70 5540
000001b0: b1c1 5a40 ca53 8140 8373 6640 ed09 6f40
000001c0: 7534 6840 717e 6c40 466d 6d40 110a 6a40
000001d0: b1f4 6d40 e26c 6240 4bf1 6840 1234 5f40
000001e0: d3e0 03be b001 eebd 833d 4ebe 42f7 78be
000001f0: 8a68 493d 8037 f33d d4c9 c33e fba5 513d
00000200: ed13 38be b656 4c3e c655 69bc 6719 c03d
00000210: 41a1 d3be 5dbf 8d3d 09d7 cbbe 5ff9 8140
00000220: aa44 4040 0b8d 7d40 1d85 6440 83e3 8540
00000230: e652 6c40 cc85 6640 f75f 4d40 dbe3 5240
00000240: 8bbf 6640 fecd 6240 9cdb 5840 339a 6b40
00000250: 0855 8040 328f 6f40 1ed6 d3be 8246 0a3f
00000260: fd94 9abd 164f d7bc ff93 ccbd a8fc 23bc
00000270: a916 f93d 187b 77be aa7c e4be e649 0abf
00000280: b083 8bbe 1c5f cdbc 89ee 61be 8a70 12be
00000290: 6845 a93e 1097 e6bd de6e bb3e e21e acbd
000002a0: 0f0c 333d 97ef 91be 7d61 943d 46ac d2be
000002b0: 7670 85be d281 51be 5bf8 b33e fe6b 5c3e
000002c0: 7671 353d 62b4 fdbe d9b8 2cbf 57a8 20be
000002d0: 9a76 5040 df76 8140 2c72 6e40 0569 7340
000002e0: 3891 6840 fdc9 5e40 4bed 5940 f73a 6840
000002f0: d114 6e40 cd5e 6e40 80d4 5440 db5c 6440
00000300: a445 8040 a9ad 6040 fb6d 7040 cc8c 3c3e
00000310: b0e9 683e e0c1 2ebe 1030 943d bca0 ca3c
00000320: afea ffbe 751b a9be b371 923d 2598 813e
00000330: 627d e5be 75ee f13d 3e8b 423e 6f54 923d
00000340: 8e91 68bd 652b eabe 9e07 6340 e7c0 5d40
00000350: b89d 4c40 817f 5c40 3353 6340 f45d 6540
00000360: 9876 6a40 6f39 5c40 986f 7a40 a060 5640
00000370: 85cc 6e40 a66c 4a40 cdf7 7940 9bfb 6d40
00000380: 0c9c 7b40 ddb7 75be 8da4 ca3c 93fd 1c3d
00000390: 13b6 f8bd 8980 d5bd 42e3 77be 55b1 153e
000003a0: 3652 bf3e 20dd 51be 487c 253d e6ca 83bd
000003b0: 138f 94be 8de9 5cbe c3fe a03e b194 05bb
000003c0: 6ac1 23bd 7471 40bd 4b8c 7dbe 237f 823e
000003d0: 781b 4ebe 02eb 193e 21ab 49be d987 7cbe
000003e0: 6ca5 b3be e4ff 90be e206 44be 1a15 193f
000003f0: 7e1e 6bbe eb14 eabd 9d49 653e a839 7540
3.7139804 3.7244022 3.4337373 3.825012 3.637022 4.221543 3.7374945 3.7345028
3.544459 3.6313255 3.2925498 3.8080125 3.674361 3.2125347 3.1966438 -0.04455352
-0.3303246 -0.23578633 -0.3214478 -0.22134115 -0.3168337 -0.15587881 -0.069678925 -0.019769806
-0.29817697 -0.106572144 0.77086693 0.13380891 -0.17229368 -0.17681308 3.525982 3.5332284
3.6321135 4.0423007 3.6933837 3.4444573 3.856402 3.5290897 3.4335425 3.2535732
3.5583923 3.9317024 3.5345125 3.502035 3.4598684 3.295329 3.4133084 3.8357186
3.8663185 3.39637 3.8151944 3.4829774 3.6803677 3.746047 4.354992 3.519447
3.9630518 3.7529118 4.072982 3.5768123 0.2301662 -0.07873995 -0.36816376 0.13690731
-0.14145663 0.0803568 -0.14321542 -0.41045967 -0.3079223 0.12229956 -0.34324607 -0.2976609
-0.5434783 -0.16504209 0.37088242 3.491866 3.5919585 3.9123688 3.4767642 3.2070143
3.4705179 3.954471 3.3500674 3.6901968 3.293385 3.429279 3.456873 3.920511
3.6858797 3.5744424 0.40675268 -0.4703632 -0.10866285 -0.13190773 -0.13997267 0.041189883
0.23549691 0.084861465 -0.26442242 0.12576938 -0.16661163 0.21354948 -0.51338327 0.10854648
-0.35241646 4.0375905 3.1496608 3.3349905 3.418072 4.041478 3.6008003 3.7349808
3.6282017 3.6952174 3.7097945 3.6568644 3.7180598 3.5378957 3.6397274 3.4875531
-0.12878732 -0.116214156 -0.20140652 -0.24313071 0.04917196 0.1187582 0.3823992 0.051183682
-0.17976351 0.19954953 -0.014241641 0.09379845 -0.41333964 0.06921265 -0.39812496 4.061691
3.004191 3.9617336 3.5706246 4.1840224 3.6925597 3.6019163 3.2089822 3.2951572
3.6054409 3.5438228 3.388404 3.6812866 4.01038 3.743115 -0.41374296 0.54013836
-0.075479485 -0.026282828 -0.099891655 -0.010008968 0.12162525 -0.2416805 -0.4462636 -0.5401901
-0.27248907 -0.025069766 -0.2206365 -0.14300743 0.33060765 -0.11259282 0.36608022 -0.08404328
0.04371267 -0.28503105 0.07245157 -0.4114706 -0.26062363 -0.20459679 0.35150418 0.21525571
0.044297658 -0.49551684 -0.67469555 -0.15689217 3.2572389 4.0457606 3.7257185 3.803285
3.6338634 3.4810784 3.4051082 3.628599 3.7200205 3.7245362 3.32547 3.5681674
4.008501 3.5105994 3.7567127 0.18413085 0.22745395 -0.17066145 0.0723573 0.024734847
-0.49983737 -0.3302876 0.07150593 0.2531139 -0.44822222 0.1181306 0.18998429 0.07145011
-0.056779437 -0.45736232 3.54734 3.4648988 3.1971264 3.4452822 3.551953 3.5838594
3.6634884 3.4410055 3.9130611 3.3496475 3.731233 3.1628814 3.9057496 3.7184818
3.9313993 -0.2399592 0.024736667 0.038327765 -0.12144103 -0.10424907 -0.24207786 0.14618428
0.3736741 -0.20494509 0.040401727 -0.06435184 -0.29015407 -0.21573468 0.31444368 -0.0020382816
-0.039979376 -0.046983197 -0.24760549 0.25487623 -0.20127666 0.15031055 -0.19694187 -0.24661197
-0.35087144 -0.2832023 -0.1914325 0.59797823 -0.2296085 -0.11429771 0.22391362 3.831644

decoder/0/b f4 [784]
00000000: 960a 1a40 40bd e03c 8af2 1a40 8f77 1a40
00000010: 9b7e 183c ccc0 1c40 524a 53bb 60d2 1a40
00000020: 1cd7 e43c 98c5 1a40 ea4e 573c d026 343c
00000030: 5890 1a40 74c1 103d fd44 1e40 1b64 f8ba
00000040: 59ed 10bc cb5c 1a40 6199 0d40 9ad2 1a40
00000050: 5969 1b40 71b4 523c 7c68 1a40 aeb5 423b
00000060: 412e 653c 061f 26bd 625d 1b40 c22a 1b40
00000070: dada 1a40 d256 1a40 73b0 e03f 7303 1f40
00000080: 2b0a 1a40 5f29 833c bac9 173c 0c2e c23c
00000090: 1242 1b40 352d e83b a70c 333b 8551 1c40
000000a0: 720f 1a40 0732 403c c844 1b40 52b0 42bd
000000b0: 4e0b 1a40 5802 973b 73cd 9ebb 866b 9d3b
000000c0: 5408 1a40 3878 66bc de76 6f3c 79b6 c5bc
000000d0: 6dfc 9dba e4d7 263c 50b5 f2bc 8a96 77bd
000000e0: 4bc2 1c40 63a8 1a40 c481 13bd b846 a5bc
000000f0: 3083 1b40 6310 1b40 4e51 1a40 5f35 e7bb
00000100: 3fcd 1940 ebde bbbc 811c 953c dd71 4dbc
00000110: ad19 9e3c 8b00 1c40 c16f 1dbc 7b34 1a40
00000120: c15f 373c 8256 1a40 4e79 1b40 f253 1c40
00000130: a16a 8a3c 3b36 39bd 6f09 8e3c a07e 0b40
00000140: 8302 1e40 ae2f 1a40 8599 1a40 b9e0 1b40
00000150: 63a9 1b40 827e 1a40 4aa1 1b40 f0c9 1a40
00000160: ce25 2b3c 26b2 99bd 0965 9838 b2e9 4e3c
00000170: 4ebf 1940 78c8 1440 4ca0 6d3c 0862 ca3c
00000180: 25cd 1940 66ad 1a40 a820 1b40 c4ad 1a40
00000190: 1509 eb3f e161 1b40 7e82 1a40 6485 55bd
000001a0: 5fe5 d3bb bc8c 1a40 1ae7 1840 8c92 64bb
000001b0: d5ad eebb 5766 1a40 562a 403c 8708 1a40
000001c0: d5d0 1940 d575 1a40 70d1 40bb c046 433c
000001d0: bdbc 42bc 29ba ccbb c92d 39bc cb32 853c
000001e0: 30f5 1a40 66dc 1cbd 2845 42bb d7d9 0940
000001f0: e837 5fbd b368 00bd a297 37bc ce89 1b40
00000200: 36b0 1b40 9e12 1b40 1e25 a43c 5b07 85bc
00000210: d22e db3c 63d4 33bc c2d7 2d3c f517 0bbd
00000220: 3116 1a40 8e98 4b3c 584e 1a40 7b4e 1b40
00000230: c886 653b 884e a9bb 86cf 1b40 8d4f 0d3d
00000240: a001 48bc 7106 1240 0b2f 1a40 bd8a 1a40
00000250: 0e7f 1a40 1f7e 8bbd e24a 813c 84ca 1c40
00000260: 71ec eebb 79bb 1b40 4d56 1a40 9593 1c40
00000270: 4237 1840 dd23 823c ab28 0f40 f13e 0240
00000280: 6ef7 1940 e410 1a40 d7f9 1a40 9e71 f8bb
00000290: bddf 2dbd f81a 3cbd a7a8 803c e04d 1d40
000002a0: ee19 1a40 0be8 243c 1bb5 0b3d 55dd 5c3c
000002b0: dabd bfbd 772d 1a40 1025 1b40 517e 1a40
000002c0: dd4c 1740 270d 1a40 502a 3f3c 8025 d03c
000002d0: 3e2c 1140 9ab5 1a40 030d 87b9 b40f 883c
000002e0: 5954 873c 11bc 1b40 ed12 1c40 cec8 bbbd
000002f0: 6865 1c40 8973 7a3c a55d 0b40 d90d 1b40
00000300: 7bea 11bd 24c9 1d40 6296 46bc 1cd4 0ebd
00000310: 868c 1940 180c 553c 5f88 8e3c 4a42 1a40
00000320: 127f 843c 1478 5fbd 6ca0 1c40 b618 1a40
00000330: 641d 1b40 d5c6 1a40 bc3f 1d40 7e2e 8dbd
00000340: d051 1b40 c123 1c40 cd5c 1f40 5655 953c
00000350: 9d00 1f40 95b1 a83c 7b90 4f3c da6b b43c
00000360: 1881 1a40 1dd5 72bc ef60 1a40 c34e 02bc
00000370: fa88 1a40 5b1d bfbc 7483 1b40 303a 5abd
00000380: 74cc 34bc f54e debc eb80 1c40 757d 1f40
00000390: 586b 1c40 09c9 883b c141 39bc 091b 95bd
000003a0: ba24 1b40 7467 bebc dde0 1b40 4b37 1d40
000003b0: 6120 e4bb 5a73 163c a1c2 20bd 0738 5a3c
000003c0: c0f3 1d40 b1d8 a9bd 63ac 1a40 9c8b c13f
000003d0: f225 1a40 e63f 1a40 01ef 1b3d 6e12 2cbd
000003e0: 1ac2 1a40 f02f 1b40 1bed 1940 a44b 843c
000003f0: d5f4 1b40 ec97 1c40 9b9c 1b40 0f2b 1a40
2.406896 0.027433991 2.4210534 2.4135473 0.009307529 2.4492674 -0.0032240343 2.4190903
0.027934603 2.4183102 0.013141373 0.010995582 2.41506 0.03534074 2.4729607 -0.0018950732
-0.008845651 2.4119136 2.2124865 2.419104 2.428305 0.012860403 2.4126272 0.002971034
0.013988079 -0.04055693 2.4275746 2.4244847 2.4196076 2.411549 1.7553848 2.4845855
2.4068706 0.016010938 0.009264404 0.023703597 2.4259076 0.007085467 0.0027320774 2.4424756
2.4071927 0.011730677 2.426073 -0.047531433 2.40694 0.0046084337 -0.004846269 0.0048040776
2.4067583 -0.014066748 0.0146157425 -0.024134861 -0.0012053378 0.010183308 -0.029627472 -0.0604463
2.4493587 2.4165275 -0.036012426 -0.020175323 2.429882 2.4228752 2.4112124 -0.007055923
2.4031522 -0.022933444 0.018202068 -0.012539354 0.019299353 2.4375331 -0.009609164 2.4094532
0.011192263 2.41153 2.4292789 2.4426236 0.016896548 -0.045217734 0.017338483 2.1796036
2.4689033 2.4091601 2.41562 2.435591 2.4322135 2.4139714 2.4317193 2.4185753
0.010446025 -0.07504682 7.266744e-05 0.0126289595 2.4023013 2.3247356 0.01450355 0.024704948
2.403146 2.4168334 2.4238682 2.4168558 1.8362147 2.427849 2.4142146 -0.052129164
-0.006466552 2.4148397 2.3891053 -0.0034877388 -0.007283906 2.4124963 0.011728844 2.4067705
2.403371 2.413442 -0.002942171 0.011918724 -0.011885819 -0.006247778 -0.01130242 0.016259572
2.421215 -0.038296126 -0.002964327 2.153921 -0.054496676 -0.03134985 -0.011205586 2.430286
2.43263 2.4230113 0.02003723 -0.016238859 0.026755724 -0.01097593 0.010610523 -0.033958394
2.4076045 0.012426509 2.4110317 2.426665 0.0035022963 -0.0051668324 2.4345412 0.034499694
-0.012207419 2.2816432 2.4091213 2.414718 2.4140048 -0.06811165 0.015782777 2.4498606
-0.0072913696 2.4333174 2.4115174 2.4465077 2.3783727 0.015886242 2.2368572 2.0350916
2.405727 2.407281 2.421499 -0.0075819036 -0.0424497 -0.045924157 0.01570542 2.457878
2.4078326 0.010065089 0.034108263 0.013480504 -0.09362383 2.409025 2.424137 2.4139597
2.3640664 2.4070528 0.011667803 0.025408506 2.2683253 2.417334 -0.000257589 0.01660905
0.016519712 2.4333537 2.4386551 -0.0916916 2.4436893 0.015286335 2.1775906 2.4227202
-0.03562401 2.4654016 -0.012120815 -0.034870252 2.3992019 0.013003372 0.017399011 2.410296
0.016173873 -0.054557875 2.4472914 2.4077582 2.4236689 2.4183857 2.457015 -0.06893633
2.4268684 2.4396822 2.490039 0.018229168 2.4844124 0.02059249 0.012668724 0.022024084
2.4141293 -0.014821318 2.4121664 -0.007953349 2.4146104 -0.023329427 2.4298983 -0.05327815
-0.011035074 -0.027137259 2.4453685 2.4920323 2.4440517 0.004174356 -0.011307181 -0.07280547
2.4241166 -0.02324269 2.4355996 2.4564998 -0.0069618677 0.009182775 -0.039248113 0.013319022
2.4680023 -0.08293284 2.4167717 1.512073 2.408566 2.41015 0.03806973 -0.042009763
2.418097 2.4248009 2.4050968 0.01614935 2.4368184 2.4467726 2.4314334 2.408878

encoder/0/W f4 [15, 784]
00000000: 1b1d d8bc a67b 4a3b 6fa4 c33c fda7 7bbb
00000010: 359b c0bc e414 8abc e74c 7a3c ddf6 403c
00000020: 57d7 093c 0bb9 07bd 7820 ddbc db23 81bd
00000030: 5932 553d 4ed2 12bb dfed 98bc 34af ffbc
00000040: cfa7 9dbc b6da 5f3d ee58 c73c 1f78 833d
00000050: f979 1a3c 58f6 ccbc 7f9e e5bd 97e7 57bd
00000060: 4972 0f3c 7122 a1bc 3a10 77bd 7d9d 07bc
00000070: 35e6 55bd e7fb acbc 5798 81bc b98d 6f3d
00000080: 56bf 213d f6a1 143d 2c7a 923d 1dd7 4d3d
00000090: 1eca 38bd 572e 983c 37a8 1f3c 200e e53a
000000a0: 47a5 26bd bb72 9dbc 354c 2f3c b21b 09bc
000000b0: 425d 7fbd fe15 f4bc 38b6 5f3c a2b1 0f3d
000000c0: 16ce 44bc 7b43 11bd c11d 323d da0b 9e3d
000000d0: 23d3 40bd 5f07 eabc 41d0 9dbc 7ecd 06bd
000000e0: 6264 54bb 0a6b 423d 5664 a53b 86e9 7fbb
000000f0: 30a6 8dbd 4e9e 25bd 20d5 f1bc d36b bcbd
00000100: 131c 103d 34a8 54bc 6d7e 45bd 64c6 b8bc
00000110: 1a90 153c 7df8 c53c 393e 38bd af67 86bc
00000120: 2160 8dbc 64b0 04bd 3526 9ebd 1c5a 19bd
00000130: 9f41 00bc d649 13bd 186b cfbc b4be dcbc
00000140: 470b 053d 68f6 c93b d0c4 d83c bdf8 0e3d
00000150: 1f3d 50bd 01a9 1a3c 508f 1abd 7be6 223c
00000160: ac7b 56bd e7b1 f6ba 9225 963a e4e9 cabc
00000170: e707 adbb 63fe 04bd 8b97 9abd a890 37bd
00000180: 9ca6 a2bd 6902 a73d 9a25 8abd aa3f bcbc
00000190: 5931 6abd fb85 c6bd e3cb 91bd f06d 45bd
000001a0: 6557 b43c 7d4d a1bc f4fc 33bd ce8b 5a3c
000001b0: 7198 813d dd08 aa3c 4a06 21bd 2e9f 153d
000001c0: 3056 99bc 7e5e 82bc ec38 34bc e5ae 81bd
000001d0: bac4 88bc f667 0bbd e74b c4bd 138e c1bd
000001e0: f3c8 d9bd 9e06 4cbd 8f9e 03bd 7d57 fabb
000001f0: 7a6e 98bc f4a0 97bc 131b 34bd c45a bebd
00000200: 7cf2 e53b 669d e03b 6b93 d8bc 8a34 cabd
00000210: 6e15 cc3c 602f 4bbc 9d50 173b a971 6cbc
00000220: ea76 913d 7298 c73c 7529 d8bc 54ce 643c
00000230: 36d3 0ebd 4c6e 0ebd b577 73bd bf27 aabc
00000240: b5e7 99bd c183 7abd 91b9 84bd b2f8 263d
00000250: 080a 8bbc 318b 27bd 9d01 0fbd 5fb1 023d
00000260: e586 c7bb 6b4b 80bd aadd 913c e9f8 4c3b
00000270: 75cf 75bd 4a54 ecbc 651f 30bc 1ac1 48bd
00000280: 32d3 47bd bfb0 37bd a6e3 b8bc 7bbc 1d3c
00000290: 10b0 e43c 91db 423d ac58 66bd 17f9 4cbc
000002a0: 8e85 32bd 0424 1bbb a6c6 e7bc 86cf 9abd
000002b0: faad 2dbc cf72 c13b b27e db3d fc57 c03d
000002c0: a146 a23d f95d 1c3d 5f55 0bbd ff15 593c
000002d0: b2a8 02bd d8ea 52bd 5d4f 4dbd 5d38 e0bc
000002e0: 9512 75bc cad4 2a3d cd60 8cbd cd74 73bc
000002f0: 54e0 76bd b0d0 fbbc d14d bbbd 7869 383d
00000300: 6f56 73bd 6919 b0bc 4c94 9cbc cc2d 203d
00000310: 4226 753a bd29 7dbd 7219 e03c 3620 babd
00000320: 1f13 1cbd f1b5 babd 5f0b 6d3c 73f5 913d
00000330: 71ba 94bb 6486 103d 6c18 bb3c ccb7 c3ba
00000340: c7b5 2bbc 7dce 25bd 472a fcbd d71b bcbd
00000350: 1446 e2bd c6fa 49bd 3419 eabd 37ea 06be
00000360: 4b29 ebbc c9db 30bd 767d 973d d6a8 18bd
00000370: 0d28 06bd 0c55 923c 0e68 0ebc 9c93 043b
00000380: 91fa 073c f4b4 4bbd 4a71 6cbd 7592 4e3d
00000390: 9f51 1ebd d0fc f5bd d7a1 193c 3d8f 08bd
000003a0: c9a0 98bc 8fd7 09bc ab4e 03bc 180a 033b
000003b0: 7020 98bd a117 803d c6e8 80bd 6e5c 9e3c
000003c0: 269c 5d3d 06cf b9bb 7cbb b0bd 653d 49bd
000003d0: 1c76 8fbd fdac fabd d5a4 f3bd adc7 aa3d
000003e0: dd6c 973c b4bd 17bd 8b87 8ebc 0a2a 31bc
000003f0: 6518 633c 8fd7 ffbc 95bf afbd d829 1f3c
-0.026381066 0.0030896454 0.023882119 -0.003839969 -0.023511508 -0.016855665 0.015277124 0.011777607
0.008413157 -0.033135455 -0.026993021 -0.06305667 0.05204997 -0.0022403183 -0.018668113 -0.031211473
-0.019245056 0.05465194 0.024334397 0.06419396 0.009428495 -0.02501981 -0.11211871 -0.052711096
0.008755275 -0.019669743 -0.06031821 -0.008277294 -0.052221496 -0.02111621 -0.015819712 0.058484767
0.039489113 0.03628727 0.07152209 0.050253976 -0.04511463 0.018576784 0.009744695 0.0017475523
-0.040684965 -0.019219747 0.0106993215 -0.0083684195 -0.062344797 -0.029795643 0.013654284 0.035081513
-0.012012025 -0.035464745 0.043485407 0.07717104 -0.047076356 -0.028567968 -0.019264342 -0.032910816
-0.0032408466 0.04746536 0.0050473614 -0.0039049103 -0.069164634 -0.040434174 -0.029520571 -0.09200253
0.035183024 -0.012979556 -0.048216272 -0.022555538 0.009128595 0.02416634 -0.044981215 -0.016406862
-0.017257752 -0.03239478 -0.07722131 -0.03743945 -0.007828145 -0.035959087 -0.025319621 -0.026946403
0.032481458 0.006163407 0.026461035 0.034905184 -0.05083954 0.009439708 -0.03773433 0.009942646
-0.052364036 -0.001882133 0.0011455289 -0.02476973 -0.005280483 -0.032469165 -0.07548436 -0.04481569
-0.079419345 0.081547566 -0.06745453 -0.022979576 -0.057175968 -0.096935235 -0.071189664 -0.048200548
0.02201433 -0.01969027 -0.043942407 0.013338996 0.06327904 0.02075618 -0.03931264 0.03652876
-0.018717855 -0.015914198 -0.010999899 -0.063321866 -0.016695369 -0.03403469 -0.0958479 -0.09450927
-0.10634031 -0.049811 -0.032133635 -0.007639824 -0.018607367 -0.018509366 -0.043971132 -0.09294656
0.007017432 0.006854701 -0.026437482 -0.09873302 0.024912562 -0.012401432 0.002308882 -0.014431396
0.07102759 0.024364684 -0.026386956 0.013965208 -0.034869395 -0.034773156 -0.059440333 -0.020770906
-0.07514898 -0.061160807 -0.064807065 0.040764518 -0.016972557 -0.040904228 -0.034913648 0.031907436
-0.0060890787 -0.06264385 0.017805893 0.0031276292 -0.0600123 -0.028848786 -0.010749673 -0.04901228
-0.048785396 -0.044846293 -0.022569489 0.009627457 0.027915984 0.047572676 -0.056236908 -0.0125105595
-0.0435844 -0.002367259 -0.028292965 -0.07559113 -0.010600561 0.005903579 0.107175246 0.09391782
0.07923628 0.038175557 -0.034016963 0.013249873 -0.03189916 -0.051493496 -0.050124515 -0.027370626
-0.014958044 0.041706838 -0.06854401 -0.01485939 -0.06027253 -0.030739158 -0.09145702 0.045022458
-0.0594086 -0.021496492 -0.019113682 0.039106175 0.0009351709 -0.061807383 0.027355883 -0.09088175
-0.038104173 -0.09116734 0.014468043 0.07126894 -0.004538827 0.035284415 0.022838794 -0.0014932095
-0.010480351 -0.040480126 -0.12312751 -0.091849975 -0.110485226 -0.04931142 -0.11430588 -0.13175283
-0.028706213 -0.043178353 0.07396977 -0.03727039 -0.03275304 0.01786282 -0.008691801 0.0020229584
0.008299486 -0.049733117 -0.05772523 0.05043264 -0.03865206 -0.12011111 0.0093769645 -0.033339728
-0.018631356 -0.00841321 -0.008014361 0.001999503 -0.07428062 0.06254507 -0.06294398 0.019331183
0.054103993 -0.005670431 -0.0862951 -0.049130816 -0.070049495 -0.12240026 -0.118966736 0.083388664
0.018484527 -0.03704615 -0.017398616 -0.010813246 0.013860797 -0.031230716 -0.08581463 0.009714566

decoder/1/b f4 [784]
00000000: 5657 df3c 5b7d 8b40 35c9 283d 056a f03c
00000010: 75fa 8b40 f654 a33c c388 8a40 bf17 3f3c
00000020: 7b8f 8b40 874e 8c3c a858 8b40 692c db3c
00000030: 3f50 0a3d 3e98 8b40 d4a5 863c e478 8a40
00000040: 19ad 8b40 fd30 c03c 457b 323d 80e0 a63c
00000050: 1c3e 4c3c 30b8 8c40 bda9 043d 976f 8a40
00000060: a75b 8b40 7611 8a40 48d9 4d3d f201 1b3d
00000070: 340a 6f3c c32f 103d c948 b53d 5265 943c
00000080: 00cf 433c c54b 8c40 586d 8b40 a04d 8b40
00000090: f41a 823c 9585 8b40 2436 8b40 8f13 533d
000000a0: 723c 2d3c 571e 8c40 2fa7 ba3c 117e 8a40
000000b0: 33f0 923c 0725 8a40 5675 8a40 5f1c 8c40
000000c0: 7bc4 173c 9912 8b40 4de7 8b40 ed5e 8c40
000000d0: 302e 8c40 682f 8b40 0498 8b40 eb61 8b40
000000e0: fe6b 293d 56d9 d63c 1af2 8a40 1d15 8b40
000000f0: 3b21 343d 0cb9 7f3c 4561 693d c376 8c40
00000100: 17e7 743c 61f3 8a40 b86b 8b40 8eb1 8b40
00000110: 1c82 8a40 8c3d 663d 6cc6 8b40 8893 333d
00000120: 3f79 8c40 4b27 053d ac10 1f3c 6a64 883c
00000130: 257d 8c40 75a8 8a40 daa8 8c40 2011 263d
00000140: 8692 563c 24e1 0e3d 273e 2a3d 20f1 2d3d
00000150: 8345 103c bfd4 433c 9637 553d 402f 693d
00000160: 0a25 8c40 fe13 8b40 796b 8a40 c870 8c40
00000170: f02f 6f3c 63a3 063d 9a2d 1a3d 565b 8c40
00000180: 2f69 903c 99ba a03c 43be 3c3d ecf6 043d
00000190: 1f94 4a3d 8c4d 2c3d 0e68 b43b e667 8a40
000001a0: 2328 8c40 079c a23c 31b1 593d a72b 8c40
000001b0: de26 8a40 7bd9 0c3d 470d 8a40 bbfc 813c
000001c0: e1c9 b13c 4d41 243d 8278 8b40 1c22 8c40
000001d0: ce8f 8c40 16e2 8a40 138c 8b40 5ff6 6e3c
000001e0: c770 5d3d b280 8940 d01a 8b40 83e5 493d
000001f0: 1ced 8940 0974 8c40 cd3e 8c40 71cc 5dbc
00000200: d0d7 d6b9 ebbd 1f3d d296 8c40 ba0d 8c40
00000210: 1a37 8b40 eee9 8b40 0bfa 8a40 e86a 8a40
00000220: 3eb3 333d 2551 cb3b 4830 183d b5cf 133d
00000230: 21a4 8c40 2c74 8940 75ca cd3c 095a 8b40
00000240: 87dc 8b40 ec52 803d 57ee b03c 3487 7a3c
00000250: 3e1c 2b3d 8760 8b40 242e 8c40 47b3 493c
00000260: cf55 8b40 78c9 ab3c 8ec8 143c 369f 44bb
00000270: fc6e 643c 7257 8b40 9b7b 863d f66e 133d
00000280: 4d8e 983c c602 0b3c d7ff 853c 655f 8c40
00000290: 7128 8b40 52ce 8a40 07cf 623d fbfb fd3c
000002a0: 2fc7 763c b223 8a40 c8db 8b40 3362 8b40
000002b0: b759 8a40 d7b3 403c f6c7 2c3d d4bf db3c
000002c0: d947 813d 94a3 133c 19b2 8a40 1ea7 8bbc
000002d0: 3d7b 563d bcce 4cbc adab 8b40 85aa 80bc
000002e0: dfaf bebc 36ec 0d3d 0e53 68bc 1cd3 8a40
000002f0: 9d2a fe3c fc52 8c40 aeee 073d 1627 2e3d
00000300: 93ad 8940 f9f0 423d 9fe7 8b40 65c8 8940
00000310: 1b72 8b3d 9884 193c 24a0 283c 80ff 953c
00000320: 31b8 8b40 054c 8b40 fdc3 b83c c45f d83c
00000330: 691a 343d a95e e53c 9db0 f83c 3566 8940
00000340: 709a 83bc 7581 203c 38f0 87bc e2a4 8a40
00000350: ea7f 43bc 43ff 8a40 6d22 8b40 eb3c 8a40
00000360: cfb8 06bc c462 8c40 20e7 853b 22b8 8c40
00000370: 5445 803d 639f 8c40 7c09 033c 4754 8a40
00000380: 95b9 8b40 117e 8c40 5b27 263d 88b3 933c
00000390: 0213 503c c0e3 8b40 a9f3 8a40 5a85 8b40
000003a0: e177 043d 4f0e 8a40 1035 d8bb 1aff 64bc
000003b0: 1b9b 8a40 0e7b 8a40 6a2f 8a40 a964 8a3c
000003c0: dc4e 5fbc 4ce8 8940 52a2 8bbc 488d 8c3d
000003d0: 0d57 333c 2385 723c 7951 8b40 aaa3 8b40
000003e0: ffae 793c b526 a63c e583 4b3c 80f2 8a40
000003f0: a29d e03c eff8 8b3c be60 7f3c 79c8 613c
0.027263325 4.359052 0.04120751 0.029347429 4.3743234 0.019937973 4.3291945 0.011663376
4.3612647 0.017127289 4.3545723 0.026754575 0.033767935 4.3623343 0.016436495 4.327257
4.36488 0.02346086 0.04357459 0.020370722 0.01246598 4.397484 0.032388438 4.326122
4.354938 4.3146315 0.050256044 0.037843652 0.014589835 0.0352018 0.08851773 0.01811472
0.011951208 4.384249 4.3570976 4.3532257 0.015881993 4.3600564 4.350359 0.051532324
0.010573493 4.3787036 0.022784797 4.327889 0.017936802 4.31702 4.326823 4.3784633
0.009263153 4.34602 4.371985 4.3865876 4.380638 4.349537 4.3623066 4.355703
0.041362755 0.02622668 4.3420534 4.3463273 0.043977004 0.015608083 0.05697753 4.3894973
0.014947674 4.3422093 4.3568993 4.365424 4.3283825 0.05621104 4.3679714 0.04384187
4.3898005 0.032508176 0.009708565 0.016649444 4.3902764 4.3330636 4.395612 0.040543675
0.013096457 0.03488268 0.04156318 0.042466283 0.008805635 0.011952578 0.052054964 0.056929827
4.3795214 4.3461905 4.325619 4.3887672 0.014598832 0.03287066 0.037641145 4.3861494
0.01762828 0.019620227 0.046079885 0.032462046 0.049457666 0.042066142 0.0055055683 4.325183
4.3798995 0.01984979 0.0531475 4.3803287 4.3172445 0.034387093 4.314121 0.015867582
0.021702709 0.04010134 4.3584604 4.3791637 4.3925543 4.3400984 4.360849 0.014585107
0.05406263 4.29696 4.347023 0.049291145 4.310194 4.3891644 4.382666 -0.013537512
-0.00040978054 0.03899948 4.3934107 4.3766756 4.3504763 4.372306 4.343023 4.32555
0.04387211 0.0062047415 0.03715542 0.036086757 4.3950353 4.295431 0.025120953 4.3547406
4.37067 0.06265816 0.021598024 0.015291024 0.04177498 4.355533 4.3806324 0.012310809
4.3542247 0.020970091 0.009081019 -0.0030002124 0.013942476 4.3544245 0.065665446 0.035994492
0.018622542 0.008484548 0.016357346 4.386645 4.3486867 4.3376856 0.055373218 0.031003943
0.0150621375 4.3168573 4.370579 4.355737 4.3234515 0.011761627 0.042182885 0.02682487
0.06312532 0.009011168 4.3342404 -0.017047461 0.052363623 -0.012500461 4.3647065 -0.01570631
-0.023277221 0.034649096 -0.014179958 4.33827 0.031026179 4.38513 0.033186607 0.042517744
4.3024383 0.04759309 4.372024 4.305712 0.06808873 0.009369992 0.010292087 0.018310308
4.3662343 4.3530297 0.022554392 0.026412852 0.0439705 0.027999239 0.030357653 4.2937264
-0.016064852 0.00979649 -0.016594037 4.3326273 -0.011932353 4.34366 4.3479524 4.3199363
-0.008222773 4.3870564 0.00408639 4.397477 0.06263223 4.3944564 0.007997867 4.322788
4.366404 4.390389 0.040564876 0.018029943 0.012699844 4.3715515 4.3422437 4.3600283
0.032340888 4.3142467 -0.0065981224 -0.013976837 4.331434 4.3275213 4.318288 0.016893702
-0.013629641 4.3096066 -0.017045174 0.06862885 0.0109460475 0.01480225 4.3536954 4.3637285
0.015239476 0.020282129 0.012421583 4.342102 0.027418915 0.017086474 0.01558703 0.013780707

decoder/1/W f4 [784, 15]
00000000: 0edd 033f 2d55 e33e 027c 15be 7dc7 b53e
00000010: 6e1d aa3d 895b 083d 77de a9bd a478 8f3d
00000020: 2243 6c3d c28e 123d d236 923d 19d3 d1be
00000030: a201 e2be 62f4 7abe 78b0 5a3e d610 a040
00000040: 2735 a540 a8bc a440 d54d 9440 8d25 a740
00000050: 8244 a640 5d3d 9940 7157 8c40 6f97 9d40
00000060: 30ae 9740 a4b1 9d40 ebc8 9840 f484 a040
00000070: 539e 9f40 988f 9f40 4db7 4cbe b052 6dbe
00000080: 6ede 3a3f 5fec f43a 255e 2cbd d9e7 acbc
00000090: b32c 87be f9d5 23bd 2cf9 8c3e cfe2 adbe
000000a0: f336 c43d 6346 57be ef03 053f 50f6 893e
000000b0: 6380 adbe 35d4 0cbe 0335 bc3e 7832 42bc
000000c0: 82a1 e4bc 78a0 babe 4bd5 943e dc47 d7bd
000000d0: aed0 cfbd 5f65 cbbd 99e0 bb3d 6b42 293e
000000e0: 3399 863e 1ef7 04be a39e 4c3e 1784 f63e
000000f0: df46 9640 926f a640 c335 a340 6b0b 9740
00000100: a3ee 9640 9815 a240 58be 9540 ad61 af40
00000110: 016d 9140 40c3 9940 a8e1 9f40 9250 9c40
00000120: f9d5 a740 27f2 9840 e4b8 9640 d833 b23e
00000130: e05f 69be a6e4 693e d143 7cbe 392e 8fbd
00000140: 32e0 d63d a0ab 95bd cb34 25be f836 ab3e
00000150: 8539 b1bd 2edf b9be 4005 d9bd 80f4 b0bd
00000160: ad68 293e 6bd2 9c3e df9b 9640 df8e 9e40
00000170: 18c5 a640 5aa4 a640 b788 ad40 cf07 9e40
00000180: b6a7 a640 c4ee 9640 b105 a640 9f96 a040
00000190: 757c 9940 6bb9 a140 ebe9 a440 5f85 8840
000001a0: e16f 9840 412d 563e 9001 99be a929 9ebd
000001b0: 5b0c babd 4b60 1cbe 5278 30be 6bc5 ecbd
000001c0: 85c4 36be 4647 99bd 9fae 073f 7ab6 b8bc
000001d0: c72d 1bbf 0241 43bd 36cb d8be 4f8a 9c3d
000001e0: b300 a140 3976 9c40 9cb4 8c40 e749 9240
000001f0: a9d1 9640 6181 9c40 c564 9b40 d604 9f40
00000200: f298 a040 5b7e a040 5d6b a240 520e 9440
00000210: 4ae1 9140 93bc b540 1dbb 9d40 1af3 35be
00000220: 8eb3 01bf ee00 4c3e 0bad d83d ed31 7ebe
00000230: b762 3abe 0d5d 2abe 379f ef3d c0b9 9bbd
00000240: d8e0 3e3e 4f38 2a3e 59d3 babe 6016 dc3e
00000250: f3e0 11bf 0501 a83d 03d4 a040 d2a7 9f40
00000260: 8fd8 9840 11ce 8e40 aa2c 9d40 08c7 a440
00000270: 16ca a040 80c1 a340 dc27 a840 1fd3 a940
00000280: a477 a640 6f88 9f40 8afd 9a40 78b1 9f40
00000290: e899 8740 998d cfbe 3112 a3bd fbba 8b3c
000002a0: 6981 00be ac94 5c3e 1590 aebe 90d2 1f3e
000002b0: 5bfd 853c 9649 92bb 55fb 7bbe 8c34 7abe
000002c0: 207e 893c 2064 82be 23af a8be 7483 7abe
000002d0: 1645 c5bd 4fd9 7b3e 48f6 16be 6716 6ebe
000002e0: e1c2 03bf d267 873e 9746 783e d114 9ebe
000002f0: b093 a1be 277e 8f3d 1709 a13e 7385 2c3e
00000300: a86c da3d b6e3 b23b 7ba4 7bbe d4ea ac40
00000310: e8c2 8e40 d09e 9d40 87ff 9d40 753a 9c40
00000320: 9a93 9c40 61ff 9a40 8831 9c40 cc54 9540
00000330: 9ec2 a140 2eed a140 65f0 9840 1f03 9d40
00000340: fbac 9d40 e456 a440 1e11 013c d322 983e
00000350: e8ee d7be f6e8 373d 3967 273e 465b 23be
00000360: f697 153e 8867 e2be 7d10 a6be bb3d 6abe
00000370: 79cc 013f a316 a1be 6f5d 58be 921b 053f
00000380: c872 e13d 5926 9340 3a8e a340 5e4a 9240
00000390: c5a7 9a40 3130 9d40 3a8e ad40 2581 a440
000003a0: ec92 9e40 4e06 9940 758b a540 aa01 a540
000003b0: b330 9940 0b96 9740 c62c ac40 a50a 9e40
000003c0: 0642 a640 28f2 a240 60d3 9040 75eb 9840
000003d0: c00e a840 c997 9140 dc44 9c40 295e 9c40
000003e0: 061f 9940 4668 a640 7713 a040 4fee 9a40
000003f0: a6a4 a240 babe 9840 9591 9840 17ee e3bd
0.5150918 0.4440092 -0.14598086 0.3550376 0.083063945 0.03329042 -0.08294385 0.07005432
0.05768121 0.035780676 0.071393624 -0.40981367 -0.4414187 -0.24507287 0.2135638 5.002055
5.1627383 5.1480293 4.634501 5.223334 5.195863 4.7887406 4.385674 4.9247355
4.740013 4.9279346 4.774526 5.0162296 4.9880767 4.9862785 -0.19991799 -0.23176074
0.7299565 0.0018686167 -0.04208197 -0.021106647 -0.2640129 -0.039998982 0.27533853 -0.33962104
0.09580793 -0.21022944 0.5195913 0.26945734 -0.33887014 -0.13752826 0.36759195 -0.011852853
-0.027909044 -0.36450553 0.2906898 -0.10511753 -0.10147224 -0.099314444 0.09173698 0.16529243
0.26288757 -0.12984893 0.1998239 0.48147652 4.6961513 5.2011194 5.1003127 4.720144
4.7166305 5.065136 4.6794853 5.4806733 4.544556 4.805084 4.996296 4.8848352
5.2448697 4.7795596 4.7100697 0.3480518 -0.2279048 0.22841129 -0.24635245 -0.06991238
0.104919806 -0.073081255 -0.1613342 0.33440375 -0.08653549 -0.36303085 -0.105967045 -0.08640385
0.16543837 0.30629286 4.706527 4.9549403 5.2115593 5.2075624 5.422939 4.938453
5.2079725 4.716646 5.1881948 5.0183864 4.7964425 5.053884 5.1535544 4.2662807
4.763657 0.209157 -0.29884005 -0.0772279 -0.09084388 -0.15271108 -0.17233399 -0.11561092
-0.17848404 -0.074842975 0.53000826 -0.02254795 -0.60616726 -0.04766942 -0.42342538 0.07643568
5.0313354 4.8894315 4.397047 4.5715213 4.7130933 4.8907933 4.856051 4.9693403
5.01867 5.0154243 5.075606 4.626748 4.558751 5.6792693 4.929091 -0.17768517
-0.50664604 0.1992223 0.1057988 -0.24823733 -0.18201719 -0.16637059 0.1170029 -0.076037884
0.18640459 0.16623043 -0.3648937 0.4298582 -0.5698387 0.082033195 5.0258803 4.989236
4.7764354 4.4626546 4.911702 5.149296 5.0246687 5.1173706 5.2548656 5.3070216
5.2021046 4.9854045 4.8434496 4.9904137 4.2375374 -0.40537718 -0.07962454 0.017056933
-0.12549366 0.21541089 -0.340943 0.15607667 0.01635616 -0.0044643385 -0.24607594 -0.24434108
0.016783774 -0.25467014 -0.3294612 -0.24464208 -0.09632318 0.24594615 -0.14742386 -0.23250733
-0.51469237 0.26446396 0.24245678 -0.30875257 -0.3155799 0.070064835 0.31452248 0.16847782
0.10665256 0.005459274 -0.24574463 5.4036655 4.4612923 4.9256363 4.9374423 4.882136
4.893018 4.843674 4.8810463 4.666601 5.055007 5.0602026 4.779345 4.906631
4.927366 5.135607 0.007877616 0.2971407 -0.42174459 0.044899903 0.1634797 -0.15952787
0.1460875 -0.44219613 -0.32434455 -0.22875111 0.50702626 -0.31462583 -0.21129392 0.51995194
0.11008221 4.598431 5.1111116 4.571578 4.8329797 4.9121327 5.4236116 5.1407647
4.955435 4.7820196 5.1732736 5.156453 4.7871947 4.737066 5.3804655 4.9387994
5.1955595 5.09206 4.5258026 4.7787423 5.2518005 4.5497785 4.8834057 4.886494
4.785037 5.2002287 5.002376 4.8415904 5.0825987 4.773282 4.7677712 -0.111293964

encoder/1/b f4 [15]
00000000: acbe 9d40 0a22 9e40 fadc 9d40 bf15 9e40
00000010: 28eb 9d40 e3ae 9d40 afdc 9d40 2d0e 9e40
00000020: 18bf 9b40 ecf8 9c40 62bc 9d40 d839 9e40
00000030: dbfb 9d40 5bb0 9d40 7614 9d40
4.9295254 4.941655 4.9332247 4.9401546 4.9349556 4.9275985 4.933189 4.9392304
4.867077 4.905386 4.929246 4.944561 4.936994 4.927778 4.9087477
