NIPS_3/Models/Weights_190/0/weights.npz (npz, 592029 bytes, 8 tensors)

encoder/1/W f4 [50, 784]
00000000: 968a 44bd 90ac 77bd 4154 0fbd 31d1 d0bb
00000010: a01b b3bc da9a 5a3c 1443 2c3b a1b1 273b
00000020: 2588 7dbd a4c5 20bc 4b3d 31bc 7a4d ff3c
00000030: 9264 9bbb 516a b53b 711d 3c3b 1ea7 82bd
00000040: 4ac3 cd3a 80fd d3bc 3c5f 37bd b997 27bc
00000050: 4254 803c 8a07 393d 489a 17bd 7b92 e5ba
00000060: dc46 993c 3de6 113d ba2b 52ba 78ef 123c
00000070: b655 2e3d b262 a93b cc42 6e3d f558 a7bd
00000080: 08bd 133b dc72 75bd 3542 143d 1d40 613d
00000090: 500e 093d 6b00 e33d ad9c 7e3d ade9 b43c
000000a0: 6702 31bd 2da4 033d 6bad a139 8ca6 dd3b
000000b0: 5aca adbc 1db3 6fbc 27e8 a5bb 15f2 d43d
000000c0: e078 81bd b661 88bd b01c 5c3c bd16 75bc
000000d0: 5eae 8bbc ff64 203d 7a62 d0bc ba9a 753b
000000e0: 7c83 13bc d17b 8d3d 5ab3 37bd e99b 5f3c
000000f0: 44cf c5bc 88c8 55bd 35cb 80bd 5f55 d7bb
00000100: 8561 213d ad26 08b9 3918 03bd 8de2 be3b
00000110: bfed 48bc defc 343c 670b 413d 9c71 6cbb
00000120: ee70 aabb 174e 46ba cca0 10bc 6550 60bd
00000130: 66a7 15bc 723e 04bd a2ff 003c 0891 afbc
00000140: f4b2 adba 63d2 fcbc e30e 2bbd 0477 c7bc
00000150: 7f66 dd3b 5c61 2d3c 232e c5bc a624 2d3d
00000160: dd37 313a 9a9f c0bc adcb 5ebd 8ecc 92bd
00000170: 5b0f f23c ff99 8bbc 4cd0 67bd 6eaf efbc
00000180: e16a 06bd 307b a53c a197 7abc 7066 6cbc
00000190: 2d6c 3a3d 57df dabc f2f9 e43c 78de b03b
000001a0: c640 f4ba c3d5 3dbd 9c63 6c3d e660 753d
000001b0: 2589 32bc 8343 bebd d4a2 eebc f5e0 123d
000001c0: 945e 3c3d 882a 653d 0985 cbbc 2974 c0bc
000001d0: e3dd 26bd e9ab 1b3c 677f 013d 5043 08bd
000001e0: 684b 903c 8ed6 363c d860 bdbc 2cb5 a43c
000001f0: 1780 eb3c 3b7b ebbc 04a1 673c 085b 0bbd
00000200: d0ff 0dba 875f 37bb 6155 09bd 5c0c d23c
00000210: 5f22 d2bc 089c 2bbd 0536 fe3d 4926 6ebc
00000220: 87b4 7bbb 374b b9bc affc 82bb c1e5 fe3a
00000230: ca35 8f3b ca2e d93c 91dd d8bc d6c4 f0bb
00000240: f6e0 3fbd 7dde a5ba 141d bbbd 069d 67bd
00000250: 24d2 09bd b52f 93bc a6bd 9a3c 41e1 10bc
00000260: 0101 f73c 904e 0a3c bba6 46bd 3d56 c23d
00000270: 409b d53c 29c7 d13c 91ba 283d e588 013d
00000280: 5966 5dbd d6ce ea3c 9fa8 433c 44c0 9b3b
00000290: 61e0 d2bc 966c 92ba 0a8d 9ebc 08f5 42bc
000002a0: a088 32bd 277a 703c f420 243d 314b 263d
000002b0: b21c acbc a4c8 b8bc bddb 503d e88d 583d
000002c0: fce9 a7ba 691d aebc 381d b03c 05ef 2f3d
000002d0: 7a07 d8bc 82c8 a33d cdfe aa3c 8a1f 5e3d
000002e0: 1cbf 7c3d dc9e 29bc fadf 11bc c854 f03c
000002f0: ac5e 6b3c 40c4 1cbb a8b6 b2bd 4451 953d
00000300: 16d6 52bd 373c 02bd 09a6 7fbd 3ecb 553d
00000310: 4aa7 7ebd f43e 70bd faab 933d 6f34 53bb
00000320: c0f3 4f3c 9a21 cdbc d00b b93c 5cf9 e7bc
00000330: 9f5f 75bc a407 a63c 4295 27bd 4f33 36bd
00000340: 3592 093d 63b4 133d 2ae8 ba3a 68fb bd3c
00000350: bd28 113d 05a6 1e3c b708 95bc cd20 7dbc
00000360: 1145 83b9 9103 343b ba62 123d 074d 8b3c
00000370: 33af 6c3c 8625 d1bc dcd2 613d 949e 1bbd
00000380: 319f 76bd d9ff f33c 196c 273c ba62 92bb
00000390: 0ed6 443d f0bf 0e3c ba6f 2cbd 6c88 1fbc
000003a0: b99d dc3c c508 6cbd 7db6 743d ebec e03a
000003b0: 38f8 ccbc d809 7b3b 27f3 9dbc a0c3 c8ba
000003c0: dedf e73b c77f 7c3d ae40 df3b e1ee 02bd
000003d0: 5e6e 94bc bd86 c6bb 3353 0c3c 6a15 8c3c
000003e0: e5c8 3a3d 9129 aa3c 5d9d a3bc 80c9 1bba
000003f0: 65ef 84bc 8f63 9bbc b3bf 433d d3fa 0dbc
-0.04798373 -0.060467303 -0.03499246 -0.006372594 -0.021863759 0.013342584 0.00262851 0.0025588053
-0.061897416 -0.009812746 -0.010817836 0.031164873 -0.0047422135 0.0055363555 0.0028704072 -0.06379531
0.001569846 -0.025877714 -0.044768557 -0.010229045 0.015665177 0.045173205 -0.03701237 -0.0017514968
0.018710546 0.035619963 -0.000801738 0.008968227 0.04256221 0.005169236 0.05816917 -0.08171264
0.0022543091 -0.05992399 0.036195952 0.054992784 0.033460915 0.11084064 0.062161136 0.022084082
-0.04321518 0.032138992 0.0003083752 0.0067642387 -0.021214653 -0.014630106 -0.005063075 0.10397736
-0.06321883 -0.06659262 0.013434574 -0.0149590345 -0.017050918 0.039158817 -0.025437582 0.0037476257
-0.009003516 0.06908382 -0.044848777 0.013648012 -0.024146684 -0.052193195 -0.06288759 -0.0065714563
0.039399642 -0.00012984379 -0.032005522 0.005825347 -0.012263714 0.011046616 0.047130015 -0.0036078459
-0.0052014505 -0.0007564737 -0.008827399 -0.05476417 -0.009134149 -0.032286115 0.007873448 -0.021431461
-0.0013252185 -0.030862039 -0.041762244 -0.024348743 0.0067566033 0.010582294 -0.024069851 0.04227128
0.00067603384 -0.023513604 -0.05439346 -0.07167922 0.029548338 -0.017041204 -0.05659513 -0.029258456
-0.03281677 0.020200342 -0.01529494 -0.01442872 0.04551332 -0.026717825 0.027951214 0.005397614
-0.0018635027 -0.046346437 0.057712182 0.059906863 -0.010896956 -0.092902206 -0.029130377 0.035859067
0.045988634 0.055948764 -0.02484371 -0.02349289 -0.04073895 0.009501436 0.03161564 -0.03326732
0.017614082 0.011159552 -0.023117468 0.02010592 0.028747601 -0.028745284 0.01413751 -0.03402236
-0.0005416842 -0.0027980523 -0.03352869 0.025640659 -0.025651155 -0.04189685 0.12412647 -0.014535495
-0.0038407163 -0.022618873 -0.0039974074 0.0019447134 0.004370426 0.026511569 -0.026472839 -0.0073476834
-0.0468454 -0.0012654808 -0.091364056 -0.056546234 -0.03364767 -0.017967084 0.01888926 -0.008842767
0.030151846 0.008441582 -0.04849885 0.09489105 0.026075006 0.025607662 0.04119355 0.031624693
-0.054052684 0.02866308 0.011942058 0.0047531445 -0.025741758 -0.0011171277 -0.019354362 -0.01189924
-0.043587327 0.014677561 0.04007049 0.040599052 -0.021009777 -0.02255661 0.05099081 0.052869707
-0.0012810822 -0.021254258 0.021498308 0.042952556 -0.026370753 0.07997228 0.020873452 0.054229297
0.061705694 -0.010352816 -0.008903498 0.029337302 0.014365833 -0.0023920685 -0.08726245 0.07290891
-0.0514737 -0.031795707 -0.062414203 0.05219578 -0.062171258 -0.058653787 0.07210536 -0.0032227298
0.012692392 -0.025040437 0.02258864 -0.028317146 -0.014976411 0.020267315 -0.040913828 -0.044482525
0.0335867 0.036060702 0.0014259864 0.023191169 0.03543924 0.009683137 -0.018192632 -0.015449715
-0.00025037726 0.0027467946 0.035738684 0.017004503 0.014446068 -0.025530588 0.05513273 -0.03799303
-0.06021041 0.029785084 0.010218644 -0.0044673355 0.0480557 0.008712754 -0.04209874 -0.009737115
0.026930677 -0.05762555 0.059744347 0.0017160451 -0.025020704 0.0038305428 -0.019280983 -0.001531709
0.0070762476 0.061645295 0.0068131303 -0.031966094 -0.018119033 -0.0060585425 0.008564758 0.017100055
0.045601744 0.020771774 -0.019972498 -0.00059428066 -0.016227433 -0.018968372 0.04779024 -0.008665758

encoder/0/b f4 [50]
00000000: b5ed 41bc a3e8 67bc 9e20 81bc 3556 31bc
00000010: 3a4c 86bc 0380 3fbc 9df2 4cbc 71b5 46bc
00000020: 36bb 42bc 3c85 4bbc ed3f 5dbc 9609 4fbc
00000030: 67e5 56bc 0bc0 41bc 0e4b 3dbc 4a88 2fbc
00000040: d359 58bc 29c4 32bc f835 5bbc 85bb 3bbc
00000050: ef37 59bc a417 64bc 6cab 28bc 886c 60bc
00000060: 483a bebc 7a39 68bc 120e 37bc 30ba 53bc
00000070: f801 64bc 6a2e 56bc 6d71 19bc b1a1 52bc
00000080: ffb6 5ebc a819 41bc f189 56bc 2d99 51bc
00000090: 82a3 52bc 0d65 6fbc 2fa7 6cbc 4a11 47bc
000000a0: 3268 18bc e729 4dbc 3c4c 1ebc b4ab 5fbc
000000b0: ee13 66bc 3a7d 3abc 0947 7abc fbaf 85bc
000000c0: 9889 3fbc 8215 63bc
-0.011836459 -0.014154586 -0.015762623 -0.010823776 -0.01639377 -0.011688235 -0.012509015 -0.01212822
-0.011885455 -0.012421902 -0.013504011 -0.012636563 -0.013116217 -0.011825572 -0.011553539 -0.010713646
-0.0132050095 -0.010911026 -0.013379566 -0.011458282 -0.0132579645 -0.013921652 -0.010294776 -0.013697751
-0.02322115 -0.01417386 -0.011172788 -0.0129228085 -0.013916485 -0.013072589 -0.009365422 -0.012855933
-0.013593434 -0.011785902 -0.013094411 -0.012792868 -0.012856366 -0.014611495 -0.014444157 -0.012150118
-0.009302186 -0.012522197 -0.00966173 -0.013651777 -0.014042838 -0.011382395 -0.015275725 -0.016319266
-0.01169052 -0.013860108

decoder/0/W f4 [784, 50]
00000000: 1222 50be f693 9ebd 1aca a4bc 81ac d73b
00000010: 1869 0cbe e8c0 023e ebe7 923d c3f9 3bbc
00000020: e273 183a 04ac 01bd 58ad 013c f03b 70bd
00000030: 787b 1ebc 183a 55be 048d d93c 8747 22be
00000040: e2c5 0bbe 03fe d33c 22d9 d73b 0ed4 83bc
00000050: be4d 0b3d d8ff e5bc 8126 edbd b058 343c
00000060: b07e 30b8 9dd1 4ebe e124 fe3b e331 33be
00000070: bebc 52bc 900a 913d 1f8c bd3c 6f85 b4bc
00000080: 114a 83be d40c afbd cdf4 cebd e16e de3c
00000090: 2afa 86bc a2ff b43b 8151 853c 6b70 64be
000000a0: 5dde d93c 7918 96bd 6f28 2d3d 9262 f7bc
000000b0: 8819 25be 03a5 cdbd 8beb 193d a3dd 14bd
000000c0: cdb7 893c 31b2 72bc e615 53be 3cb1 4abe
000000d0: 3e26 aebc 31df 85bc 402e 56be a2e5 38bd
000000e0: 2c64 04bd 54b1 1c3c 7ae4 093d 3267 adbb
000000f0: 45c4 d7bb b2f3 c03b 7672 8a3d 92f6 01be
00000100: 1490 ce3b b36e 6ebe e9d3 373d 53ea a73c
00000110: 84bd 87be 5a67 81bd d25b d1bc df92 81bc
00000120: 4633 98bc 8693 8d3b ed5f 6e3c 6fef 11be
00000130: ea55 563b 2a64 78be c70d 3abc bdfc fe3c
00000140: 41d9 8e3d f0d8 c13c 03ac d6bd c9da 74bd
00000150: e622 e5bd 8b85 073d 3011 8bba db13 253d
00000160: 108f 2ebc 757a 97be b4ca 3ebd 0f8f 56be
00000170: 7dc8 97bc e470 14bd b508 d4bd 471f eebd
00000180: ec97 f93c 6c53 1a3d 7f84 d83d 0742 f23c
00000190: 8b45 eebd f811 85be 0048 2c38 6103 e0bb
000001a0: 542b 4bbd 0382 473c 202c 2c3c 6928 d839
000001b0: 4b01 943c 860b 0d3d 2f33 cdbb 04e6 b9bb
000001c0: 8c6c 36bd 0d1e 05be 8d60 79bc 1b4a 4fbd
000001d0: 5588 8dbd fa14 953a 4576 36be 50de 8f3c
000001e0: 96e0 28bc d5ab d1bc ab3c 2bbc d2d0 7c3c
000001f0: 4803 e43d 8202 d4bd d9c4 8dba 35f4 43be
00000200: 3e73 6d3b bcca 753d 5a6b b5b8 391b 89bc
00000210: 7bef a6bd 189f f5bd 3d91 84bd b470 61bc
00000220: 5654 2a3c f061 e0bc 464d a33a efac 08be
00000230: 93b4 7abd 578e d3bd a9ca d33b 9b98 893c
00000240: baf1 92bd 523b c83d 9000 14bd 622f 1c3d
00000250: 8a1b 123c ab08 b23c e2df 03be 7e53 dabd
00000260: 24b0 fabc 432e 49bc a153 83be ad93 db3a
00000270: 0e22 c0bb 7aca 593b 3f70 6fbd d5ac d3ba
00000280: aa19 19bd 29d2 71bd 4249 b9ba a453 0cbe
00000290: 5803 8a3c 5cb6 793d 032c d7bd 9cd5 e4bc
000002a0: ebe4 43be b15d 41b9 a994 52bd 7f3b af3d
000002b0: 2615 093c 10de 743c 667d c33b 4dd1 7fbd
000002c0: 86f7 93bb 3e37 11be 9e7c 563c ad53 a63c
000002d0: bb15 8ebb 45f2 093b 5d6b 55be 57ea 30be
000002e0: 18d7 68bd c31c d03b 0487 343c d63d f43c
000002f0: 77c7 34bd f499 45bd 9e70 debc f0db aebd
00000300: 027a e03a c7b8 1938 db3d 4bbe 3a05 20be
00000310: 57af 1fbc 0d42 10bc 8a28 d93c 3759 13bc
00000320: efba 28be 0598 60be c3b7 5ebd c60c f9bb
00000330: 489b 72be a667 ff3c 9f26 a0bc a04a 673d
00000340: 889c 2d38 1d74 0f3d 0c82 833b 8d78 05bc
00000350: 1bf1 dbbb 8087 e9bd 0e1f 443c e65d 41be
00000360: b950 32be 6aa5 bdbb 865b 3bbd 1079 4bbc
00000370: 525e 233d 5f2a ca3c a8d5 b8bc 0498 e03c
00000380: 3358 29bc ad63 123e 278e ea3c b2de 40be
00000390: e54e 3abb c21c bebb a3a8 afbb fb3d babd
000003a0: 5615 13be f843 f3bd 5e3f f2bd 577f 7f3c
000003b0: f138 bf3c b7f8 623c 5e7d 1c3c 7743 1fbd
000003c0: 630f 77bc c47a 3fbe 5e33 21bb 29ce 96ba
000003d0: aee2 59bd aedf fabd 244c 8abc e7d7 583c
000003e0: b1db f93b 4703 173c eeed 22be 9615 98bd
000003f0: 8833 d83d 0c0b b7bb e07e 0dbe dd5f d9bb
-0.20325497 -0.07743065 -0.0201159 0.0065818434 -0.13711965 0.127689 0.07173141 -0.011473122
0.0005815608 -0.031658188 0.0079148635 -0.05865091 -0.009672992 -0.20822942 0.0265565 -0.15847598
-0.13649705 0.025877958 0.0065871635 -0.016092326 0.034009688 -0.028076097 -0.1157961 0.011007473
-4.2079657e-05 -0.20197149 0.007755861 -0.17499499 -0.012862382 0.07082093 0.023138104 -0.022036282
-0.25642446 -0.08547369 -0.10105286 0.02715248 -0.01647671 0.005523638 0.016274216 -0.22308509
0.026595289 -0.073288865 0.04227489 -0.03019837 -0.1612302 -0.10041239 0.037578147 -0.03634418
0.016811276 -0.014812992 -0.20613822 -0.19794172 -0.02125847 -0.016341778 -0.2091608 -0.04514087
-0.032322094 0.009563763 0.033665158 -0.005291843 -0.0065846764 0.0058884257 0.06760113 -0.12691715
0.0063037965 -0.23284416 0.044879828 0.020497477 -0.26511776 -0.06318541 -0.025556479 -0.015817104
-0.018579137 0.0043205647 0.014549238 -0.14251493 0.0032705017 -0.2425696 -0.011355824 0.031126374
0.06975032 0.023663014 -0.104820274 -0.059778962 -0.11188297 0.03308634 -0.0010609981 0.04030214
-0.010654226 -0.29585615 -0.04658003 -0.2095301 -0.018528217 -0.036240473 -0.10353223 -0.116270594
0.03046795 0.037677214 0.105721466 0.0295725 -0.11634358 -0.25990272 4.107505e-05 -0.0068363403
-0.049601868 0.012176993 0.010508567 0.00041228838 0.018067023 0.034434818 -0.006262205 -0.005673172
-0.044537112 -0.12999745 -0.015220773 -0.05060778 -0.06910769 0.0011374049 -0.17818554 0.017562062
-0.010307452 -0.025594631 -0.010451476 0.015430646 0.11133438 -0.10352041 -0.0010816111 -0.19136126
0.003623202 0.060007796 -8.650748e-05 -0.016736614 -0.08151146 -0.11993235 -0.064730145 -0.013759781
0.010396084 -0.02739045 0.0012458942 -0.13347219 -0.061207365 -0.103298835 0.006463368 0.0167964
-0.07175012 0.097769395 -0.03613335 0.038131125 0.008917699 0.021732649 -0.12878373 -0.10660456
-0.030601569 -0.012279096 -0.2564974 0.0016752385 -0.0058634346 0.0033232258 -0.058456656 -0.001614953
-0.03737799 -0.059038315 -0.0014136212 -0.13703781 0.016847298 0.060964927 -0.105064414 -0.027933888
-0.19130294 -0.00018440817 -0.051411305 0.0855627 0.008366859 0.014945522 0.0059658764 -0.062455464
-0.004515591 -0.1418123 0.0130912345 0.020303572 -0.0043360866 0.0021048945 -0.20841737 -0.17276894
-0.056845754 0.006351085 0.011018518 0.029814642 -0.044135537 -0.048242524 -0.02715331 -0.085380435
0.0017126205 3.665013e-05 -0.19847815 -0.15626994 -0.009746394 -0.00880481 0.026508588 -0.008993438
-0.1647756 -0.21932991 -0.054374468 -0.0076003997 -0.23692048 0.031177353 -0.019549666 0.056467652
4.1392195e-05 0.035022844 0.0040133055 -0.008146417 -0.0067120916 -0.11402798 0.011970295 -0.18883476
-0.17413606 -0.005787541 -0.04574158 -0.012419 0.039884873 0.024678407 -0.022562817 0.027416237
-0.01033597 0.14295836 0.028632237 -0.18834952 -0.0028428372 -0.005801768 -0.0053606792 -0.09093853
-0.14363608 -0.118781984 -0.118284926 0.015594325 0.023342581 0.013853244 0.009551374 -0.0388827
-0.015079352 -0.18699175 -0.0024597268 -0.0011505532 -0.053194694 -0.12249695 -0.01688201 0.013235069
0.007625066 0.00921709 -0.15911075 -0.07425992 0.10556704 -0.0055860337 -0.1381793 -0.0066337422

decoder/0/b f4 [784]
00000000: fb74 61be ce7e 54be bd8f 78be 0ebb 5ebe
00000010: 4d56 62be 9739 3ebe 0095 4abe c1c0 57be
00000020: 820a 65be f398 68be 356d 7abe b17f 6bbe
00000030: d3f4 49be 0cec 71be 9a72 6abe abc1 68be
00000040: ed53 38be a7eb 51be a4e6 51be d5f7 43be
00000050: 79da 52be d43b 76be ac5b 4fbe 928f 70be
00000060: a0ab 4abe 8897 58be 5fd0 5dbe 6008 32be
00000070: 75d9 66be 48ff 52be 1b16 65be cc6a 5abe
00000080: 1f79 42be ab89 47be 44b2 4bbe 76ca 42be
00000090: 49f6 72be efe4 41be a108 5cbe 1821 5abe
000000a0: 5562 80be 40c4 55be 140c 3fbe 4599 3fbe
000000b0: 4b81 37be 200f 5bbe 3fe4 7ebe 8efd 59be
000000c0: bb2c 6cbe a20f 71be f4f6 86be d3bb 82be
000000d0: e89b 60be 2420 74be 3f52 47be f147 39be
000000e0: 39d3 51be b122 39be 516a 52be 08e3 57be
000000f0: 3324 54be ee1e 8abe 54eb 51be 964b 48be
00000100: e1d4 5ebe bd2d 55be e9ff 51be 8fa5 91be
00000110: ada3 6dbe 3e67 4cbe ef14 75be 543c 5abe
00000120: ca82 45be 231b 46be 8169 3dbe 412f 6cbe
00000130: cacd 81be 9a80 57be 5051 4abe 550d 5ebe
00000140: e196 6dbe 8687 66be 0e50 38be 70c0 86be
00000150: 6026 62be 5556 87be a7d7 4dbe 1b1a 3dbe
00000160: e39f 44be dfee 84be 3a9e 40be c9b9 69be
00000170: 14f0 70be b903 5cbe c30b 40be fbf0 43be
00000180: 3a70 47be cd50 63be 7278 6abe 2ea3 6ebe
00000190: 4396 6abe 501e 55be 970f 51be 6786 38be
000001a0: e2b7 5bbe 4150 7dbe 11e3 4abe fd48 54be
000001b0: 73ff 85be 7121 62be 51c0 88be caa7 48be
000001c0: eba8 82be b23e 7abe 3c67 68be d9db 4bbe
000001d0: 17d5 63be c27f 52be 38e9 4bbe 193f 77be
000001e0: 2845 69be 0024 2cbe 1254 56be 30d2 4ebe
000001f0: 2061 74be dccc 35be 46dc 56be 809b 27be
00000200: 5121 5dbe 0b2a 4bbe 8b55 5bbe 52b1 60be
00000210: 58f2 7bbe 0753 49be a0d9 4abe 3b70 54be
00000220: 4d87 6cbe 906f 3dbe 35f0 3abe 7b2b 82be
00000230: c682 4abe be50 53be afa5 4dbe 39fb 6abe
00000240: ab90 71be 7372 36be ef3a 4dbe 4711 6abe
00000250: 6dbb 6ebe a4b2 3bbe b3fb 62be 117a 38be
00000260: 6f29 3bbe 4144 70be bcc8 61be 2969 3abe
00000270: aa52 5ebe d160 3ebe 3194 81be 8425 59be
00000280: 7f23 51be 8d11 4abe 2140 7fbe e97a 44be
00000290: 7b66 5ebe fb64 5abe 4d2e 51be 0e03 62be
000002a0: e7bb 5ebe e31c 52be ce31 52be 7141 2cbe
000002b0: adb2 2cbe acd5 52be 98fd 58be f645 5cbe
000002c0: acc7 4dbe 9b6a 7bbe 797a 4cbe 5ee6 68be
000002d0: 717d 54be e45f 4dbe 8f80 64be 6bf4 5fbe
000002e0: 40c0 48be bb25 68be af61 63be d9e6 56be
000002f0: 3b31 22be 2ec4 6cbe 36dc 64be c78a 4abe
00000300: 443b 4dbe 4245 55be 070e 43be 70b1 60be
00000310: 287d 6bbe 38d1 42be 01c5 4dbe 649e 8dbe
00000320: 2e1c 81be 24f1 44be ba39 67be b658 68be
00000330: 34f1 59be ce7c 38be 480a 4abe c6bc 52be
00000340: 1608 45be f36c 70be 044d 68be c1d6 38be
00000350: 16bc 4bbe 23f2 57be bd4e 46be 47ed 49be
00000360: 2d2c 55be c67f 76be 2c2f 85be e470 5cbe
00000370: 9855 55be 8be8 81be e5cb 50be 884e 58be
00000380: aded 54be ada4 35be 55fa 3bbe d208 44be
00000390: 510e 6abe ec33 84be 0d80 4fbe 731b 3ebe
000003a0: ad75 46be 4fca 4abe da94 66be a169 49be
000003b0: 4751 5dbe 4f7a 80be ce0e 30be 2621 4ebe
000003c0: ccba 65be b810 4abe 68b9 43be 7a19 60be
000003d0: 6f3f 59be e4d6 34be 9fb3 68be f0fe 76be
000003e0: 1981 54be ed8d 4fbe 754a 66be 88c7 65be
000003f0: 8f48 41be c78d 3abe bffb 53be 8a10 5abe
-0.22017281 -0.20751497 -0.24273582 -0.21751043 -0.22103234 -0.18576656 -0.19783401 -0.21069624
-0.2236729 -0.22714595 -0.24455722 -0.22997929 -0.197223 -0.23625201 -0.2289528 -0.22730128
-0.18000765 -0.2050005 -0.20498139 -0.19137509 -0.20591153 -0.2404626 -0.20249814 -0.23492268
-0.19792032 -0.21151555 -0.21661519 -0.17386007 -0.22543891 -0.20605195 -0.22371714 -0.21329802
-0.18991517 -0.1948611 -0.19892222 -0.19022545 -0.23726763 -0.18934987 -0.21487667 -0.21301687
-0.2507502 -0.20875645 -0.18656951 -0.18710811 -0.17920415 -0.21392488 -0.24891756 -0.2128813
-0.23063938 -0.2354112 -0.26360285 -0.25533924 -0.21934474 -0.23840386 -0.19464968 -0.1809385
-0.20490731 -0.1807964 -0.20548369 -0.210827 -0.20716934 -0.26976722 -0.20499927 -0.19560084
-0.21760894 -0.20818229 -0.20507778 -0.28446624 -0.23206969 -0.19961259 -0.23933767 -0.21312076
-0.19288173 -0.1934629 -0.18497278 -0.23064901 -0.25352317 -0.21045151 -0.19757581 -0.21684773
-0.23202087 -0.22512636 -0.17999288 -0.26318693 -0.22084951 -0.26433054 -0.20101796 -0.1846699
-0.19201617 -0.25963494 -0.18810359 -0.22824778 -0.23529083 -0.21485795 -0.18754487 -0.19134896
-0.19476405 -0.22198792 -0.22897509 -0.23304436 -0.22908883 -0.20812345 -0.20416103 -0.1802002
-0.21456864 -0.24737646 -0.19813181 -0.20730968 -0.26171455 -0.2208307 -0.26709226 -0.19595256
-0.255195 -0.24437979 -0.22695631 -0.19908084 -0.22249256 -0.20556548 -0.19913185 -0.24145164
-0.22780287 -0.16810608 -0.20930508 -0.20197368 -0.23865175 -0.17753929 -0.20982465 -0.16367912
-0.2159474 -0.19840257 -0.21419351 -0.21942642 -0.24604166 -0.19660579 -0.1980958 -0.20745938
-0.23098488 -0.18499589 -0.18255694 -0.25423798 -0.19776449 -0.2063627 -0.20082735 -0.22947396
-0.23590343 -0.17817096 -0.20042013 -0.22858153 -0.23313685 -0.18329865 -0.22166328 -0.18015315
-0.18277524 -0.23463537 -0.2204923 -0.18204178 -0.21711221 -0.1859162 -0.25308374 -0.21205717
-0.20423697 -0.19733258 -0.24926807 -0.19187512 -0.2171878 -0.21327583 -0.20427819 -0.22071478
-0.21751367 -0.20518832 -0.20526811 -0.16821839 -0.16865034 -0.20589322 -0.21190488 -0.21511063
-0.200957 -0.24552386 -0.19968595 -0.22744128 -0.20750977 -0.2005611 -0.22314666 -0.21870582
-0.19604588 -0.22670643 -0.22205232 -0.20986499 -0.15839092 -0.23121712 -0.22349629 -0.19779502
-0.2004214 -0.20827201 -0.1904832 -0.21942687 -0.22996962 -0.19025123 -0.20094682 -0.27659905
-0.25216812 -0.19232613 -0.22580615 -0.2269009 -0.21283418 -0.18016359 -0.19730484 -0.20579824
-0.19241366 -0.23479061 -0.22685629 -0.18050672 -0.19895968 -0.21088462 -0.19365974 -0.1971942
-0.20817633 -0.24072179 -0.26012552 -0.2152744 -0.20833433 -0.2537273 -0.2039028 -0.21123707
-0.20793791 -0.177386 -0.18357213 -0.1914399 -0.22857024 -0.25820863 -0.20263691 -0.18565159
-0.19380827 -0.19803737 -0.2251772 -0.196692 -0.21613036 -0.25093314 -0.17193148 -0.20129833
-0.22434539 -0.1973294 -0.19113696 -0.21884719 -0.21215604 -0.176601 -0.2272477 -0.24120688
-0.20752372 -0.20268984 -0.2248934 -0.22439396 -0.18875335 -0.18218146 -0.20701502 -0.21295372

encoder/0/W f4 [50, 784]
00000000: 1cee 37bc 32c8 13bd e0cf 57bc fd66 1c3b
00000010: c1a1 203b 17d1 80bb 04df bf3c d748 443d
00000020: a7bd f5bb 195c 1bbd 8fcf 1bbc e7f3 913d
00000030: 7277 a43a 3a58 8b3c 799c 863d cf65 9cbd
00000040: edee 0c3c d708 223c 1775 3b3c 14db 5bbd
00000050: 87b1 a23c 67d4 bdbb 5a59 7e3d 7aaa b0bc
00000060: c0f7 eb3c 4977 d73d 835b ccbc a8de e1bc
00000070: 84aa ab3d 04d6 3bbd 2a94 b83c 754a 34bc
00000080: c776 43bd 3de0 93bd 0582 733d a239 9f3c
00000090: 6e18 013d f492 e93b 6e76 953c e295 d7bc
000000a0: 1690 c9bc 6d83 81bd 0d31 a83c af51 8f3c
000000b0: b0be 19bd 492c 81bc 6222 c8bc 0c9b 053c
000000c0: 137a 083d 4bfe 94bc aef8 533c 32a2 013c
000000d0: 3f15 ffbc f3a0 44bc 2fef ddba 9af2 e2bb
000000e0: 30c2 98bd 9694 483c 18c5 a63b 5436 93bc
000000f0: 7ccf 02bd 5687 e53c dbd3 933c e2ce 30bd
00000100: d50f d83c 2f90 663d ca29 4ebd 6556 c4bc
00000110: 8c2f d83c 7ee7 c43c 6026 513c c65a 60bd
00000120: 3441 a63c 8c6b 333d f031 e8bc c84c 07bb
00000130: 8f42 963b c347 773c de7f 843a 1719 2dbd
00000140: d4e7 7dbc dc8b ab3c ba90 2dbd 3182 b13b
00000150: 41c8 c23c 946e 37bd f258 f63c e3d5 953b
00000160: d693 a4bd dd55 703d fdcc b1bb 053d 60bc
00000170: e5ae 64bc 27b3 cebc 2a94 92bc 2c85 883d
00000180: 8e2c d1bb 05ba 643c c5dd 89bc 8feb 3ebc
00000190: 16f0 42bb 8dd0 c1bc 0778 723c 3b88 753d
000001a0: b2be 70bd ffd3 2dbd d86d 81bd 4485 84bd
000001b0: a94b 213d 0649 14bc c336 f03c 3175 3b3c
000001c0: 8507 843c 2c15 ab3b 927a 5e3d 1f43 44bc
000001d0: 0d70 e73c d057 08bd bfd1 00bd 1be7 05bd
000001e0: 1a8a 5d3d c913 9cbc a66e 35bc ba5c 99bc
000001f0: 64ef f23c 2298 2dbd 6a4a 333d b921 1bba
00000200: 4a5d 4e3c 3728 c4bb 18e0 603d cadd 283d
00000210: d3e1 203d 017b b03d e73b 00bd 5217 763a
00000220: 5d19 f7bc bc41 53bc 77ab 8fbc cff1 5ebd
00000230: 4d3c abbd 7b91 5abc f560 623d 83cb 61bc
00000240: c573 c6bc 4209 833a 43a2 10bc 3480 353d
00000250: 82a1 d83c 6571 143d 5dde f93c 03c1 d5bc
00000260: 610b 063d fd97 8e3c ec99 06bd f8e3 d9b9
00000270: fa57 a0bc 36c0 efbc 818a c7bc 9fa0 73bd
00000280: d581 a7bc c3cd 12bb 8bce d13c c649 d1bc
00000290: 0ffb 483d 9d05 44bc 58c2 81bd 5440 3a3d
000002a0: 1e08 0b3c ede4 f73c e431 ebbc a18b 3fbd
000002b0: c2a6 f5ba 1ffc b13c 26d5 b13c d416 9abc
000002c0: bf68 fdbc 2f60 e6bc 261f 123c cc4d 8e3b
000002d0: cdea 4d3c 9c80 2ebd c2c9 82bd 6e66 543b
000002e0: da62 45bd 6cee 08bd 789c 3bbd 8895 353d
000002f0: ac35 29bd 041e 8abd 293e 8cbd eb76 12bd
00000300: 85be 363d 5d64 403b b062 adbd 96dd 853a
00000310: f257 f0bd e114 66bd 392a 143d b336 1cbd
00000320: cbf4 f93c ae65 45bc 94a8 673d 0324 0c3d
00000330: e3dd 32bb 4f18 e03c b6f1 1e3d 2c0f 973a
00000340: 73ae 9dbc 7d36 acbc 5e5c 16bc 36ba 8cbc
00000350: ebd3 e2ba f8dd 573c fa52 fe3c 8903 a0bd
00000360: 889e 36bd be4b 62bd 00f5 d2ba bde9 c0bd
00000370: 74fc 7f3d c99f 20bd 1ba9 b2bc 5c08 bebd
00000380: 389e 95bd 1c59 e53c 4092 143d fea5 703d
00000390: c523 9abc 9e02 ae3b 7dd7 7b3c 1932 82bd
000003a0: 7549 54bd fdc3 6b3c ba85 c03a 530d 0dbc
000003b0: dcfe adbd 5455 aebd 7d56 8dbc 46c8 953c
000003c0: 1ea7 90bd d8ee 1dbc 3222 843c 6611 3ebd
000003d0: acdb e63c 85ed c2bc e6e8 93bc 1d80 8abc
000003e0: 559f 78bc 18b0 093c 17ff 313d 0dd9 4ebd
000003f0: 8925 023d a95e 61bc f0f3 bb3c d283 c53c
-0.011226203 -0.036079593 -0.01317212 0.0023865097 0.0024510475 -0.0039311755 0.023421772 0.047921028
-0.007499415 -0.037929628 -0.009509935 0.07126599 0.0012547805 0.017009843 0.065728135 -0.07636606
0.008601886 0.009889803 0.011441491 -0.053675726 0.019860042 -0.0057931426 0.06209693 -0.021565665
0.02880466 0.10520799 -0.02494598 -0.027571991 0.08382133 -0.045858398 0.022531588 -0.01100408
-0.047720697 -0.072205044 0.05945017 0.019436661 0.03151744 0.007128114 0.018244948 -0.026316587
-0.024604838 -0.063238956 0.020531202 0.017495004 -0.03753537 -0.015768187 -0.024430458 0.008154642
0.033319544 -0.018187663 0.012937708 0.0079122055 -0.03113806 -0.012001264 -0.0016932244 -0.006925893
-0.07458913 0.012242457 0.0050894134 -0.017970242 -0.031936154 0.028018635 0.018045356 -0.04316605
0.026374737 0.056289848 -0.050332822 -0.023966977 0.02638986 0.024036165 0.012765497 -0.05477407
0.020294763 0.043803737 -0.028344125 -0.002064513 0.004585571 0.015092793 0.0010108908 -0.042260256
-0.015497167 0.020940714 -0.04237435 0.0054171314 0.02377713 -0.04478319 0.03007171 0.0045726164
-0.0803601 0.058675636 -0.005426048 -0.013686423 -0.013957714 -0.02523191 -0.017892916 0.066660255
-0.006383485 0.013960366 -0.01682938 -0.011652841 -0.0029745153 -0.023659015 0.014799125 0.059944373
-0.05877561 -0.042438503 -0.06319779 -0.06470731 0.039378796 -0.009050613 0.029322987 0.011441515
0.016116867 0.0052210297 0.05431611 -0.011978894 0.028251672 -0.03328687 -0.03145003 -0.032691102
0.054086782 -0.019052403 -0.011073744 -0.018720973 0.029655166 -0.042381413 0.04377214 -0.0005917806
0.012595484 -0.0059862393 0.054901212 0.04122714 0.039277863 0.08617211 -0.031307127 0.000938763
-0.030163461 -0.01289409 -0.017537815 -0.054429825 -0.08361111 -0.013340349 0.055268247 -0.013781431
-0.024225125 0.0009997266 -0.008827749 0.044311717 0.0264442 0.036240954 0.030501539 -0.026093012
0.032725696 0.017406458 -0.032861635 -0.00041559315 -0.0195732 -0.029266458 -0.024358036 -0.059479352
-0.02044765 -0.0022400476 0.025611183 -0.025547873 0.049067553 -0.011964229 -0.06335896 0.045471504
0.008485822 0.030260528 -0.028710313 -0.04676402 -0.0018741714 0.021726666 0.021708082 -0.018809713
-0.030933736 -0.028122036 0.008918559 0.00434277 0.012568188 -0.04260312 -0.063861385 0.0032409686
-0.048189975 -0.0334305 -0.045803517 0.044332057 -0.04131095 -0.06744006 -0.068477936 -0.03575794
0.044615287 0.0029356696 -0.08466089 0.0010213132 -0.11735524 -0.056172255 0.03617308 -0.038138103
0.030512234 -0.012048168 0.056557253 0.03421403 -0.00272929 0.027355341 0.038804732 0.0011524907
-0.019248223 -0.021022076 -0.0091772955 -0.017178636 -0.0017305588 0.01317548 0.031045426 -0.07813174
-0.04458478 -0.055248015 -0.0016094744 -0.09419582 0.062496617 -0.039214883 -0.021809151 -0.09278938
-0.073055685 0.027996592 0.036272287 0.058752052 -0.018815884 0.0053103706 0.015371201 -0.063572116
-0.051827867 0.014389989 0.0014688291 -0.008609134 -0.08495876 -0.08512369 -0.017253155 0.018283974
-0.07063125 -0.009639464 0.016129587 -0.04640331 0.02818092 -0.023794899 -0.01805539 -0.016906792
-0.0151747065 0.0084038 0.043456163 -0.050499965 0.031774078 -0.013755479 0.022943467 0.024110708

decoder/1/b f4 [784]
00000000: 7ef3 3dbe 8914 22be bf6c 54be 27b3 1ebe
00000010: ef1e 27be 76fc 2abe 8414 0bbe 8488 30be
00000020: abd1 23be df68 35be 8906 2bbe f436 39be
00000030: 0e73 17be 9784 46be 82e8 21be 17b7 1dbe
00000040: 5c8a 24be 944e 32be 38fc 22be 259f 13be
00000050: 531d 13be 9958 30be 4596 40be dcd6 22be
00000060: 821a 3bbe a9e2 31be 530f 32be 4363 2dbe
00000070: 5fad 44be c024 28be 60e8 1ebe 8828 13be
00000080: 50e0 13be 3f29 0ebe 18dc 36be da92 0fbe
00000090: de15 47be cd19 45be 5b04 16be b49d 4abe
000000a0: 249c 4cbe 5f68 2dbe e1a1 14be 4cde 20be
000000b0: 5fbe 18be 8bcb 44be 3800 30be 2429 33be
000000c0: abeb 2dbe c43f 2cbe 7265 16be 2198 67be
000000d0: d553 35be 383e 20be 50b8 17be 8c8b 1abe
000000e0: e23c 44be 37f3 27be fa0c 2dbe 91bb 1dbe
000000f0: b09f 21be 158c 3dbe b8c1 2fbe 4a8b 26be
00000100: 12e6 1abe c2a6 28be f22f 44be d02a 47be
00000110: 2f4b 3ebe 7ac3 1fbe 2e41 37be eafe 1cbe
00000120: 6886 1dbe 4426 13be 3b8b 34be 61cc 4ebe
00000130: c77e 23be 112e 13be 4268 1dbe db04 1bbe
00000140: f5e7 1abe b6bd 23be 85db 20be 8882 40be
00000150: f811 37be bda2 37be 87fc 1fbe 6927 1ebe
00000160: 3119 21be 1a30 3dbe 0fb3 13be c283 0fbe
00000170: 370f 23be 81fb 4dbe 2b0e 34be 3a99 1dbe
00000180: b6cf f4bd 53bd 40be cda0 32be 08cb 46be
00000190: 5b38 2bbe fb40 12be 5000 2dbe e3bf 37be
000001a0: d17e 3bbe be75 1abe 1779 31be 5acd 1bbe
000001b0: cdef 3ebe 4f4c 53be c436 36be a536 10be
000001c0: 247b 24be 42b7 15be eda0 3dbe 0758 25be
000001d0: 1ed4 07be c44e 28be 641e 2fbe d146 40be
000001e0: db86 28be e674 2cbe 4192 32be 13fb 2fbe
000001f0: 6213 45be d3bd 2ebe d9be 17be b35b 04be
00000200: 4433 17be 3150 21be 6ee1 fdbd 8555 57be
00000210: 35b0 4ebe 7c74 24be b49d 26be f9f1 31be
00000220: c9c9 44be c724 1ebe 5d3f 17be 5395 52be
00000230: e44e 34be 3e18 42be c1d2 35be 3d63 ffbd
00000240: 1349 34be d91b 26be d496 35be 0c10 33be
00000250: dc8d 32be f64c 1abe 361f 19be 8aa0 27be
00000260: 26ac 24be 6dcd 02be 1ee4 85bd e27f df3d
00000270: c002 263e a4e3 e03d 65d8 16be b152 0dbe
00000280: 20b2 31be 0fd0 21be 7d8c 4cbe f91f 2dbe
00000290: 33ff 5fbe 44c5 11be 03b7 2abe 1a57 1bbe
000002a0: f886 37be d937 2dbe 2119 50be f2a6 1bbe
000002b0: 8811 2cbe f9b3 3bbe 4441 49be 9a5e 21be
000002c0: 40f2 35be f88b 3fbe 6ffa 1ebe b1df c5bd
000002d0: 231c 063e 01c3 30bd b738 763e 51a1 2f3e
000002e0: 4e37 603e 6272 3d3e 2446 073e af14 8e3d
000002f0: 4538 02be 0bd7 2abe 6208 2dbe efbf 19be
00000300: ffe2 1cbe 4ba2 32be 1599 20be 5a43 18be
00000310: 22a6 4cbe 2779 1abe c328 14be ab99 3fbe
00000320: 4514 39be c85c 12be 4f89 2ebe b90b 19be
00000330: 7cb6 2cbe 1648 efbd b594 d83d 9268 2f3e
00000340: f4f5 263e cfa6 6e3e bd9c 6a3e c8c9 8e3e
00000350: aa06 823e 0ac4 5e3e 7636 463e a1c9 323e
00000360: d2ce 0abe e4a4 0dbe 74b8 44be 07f6 45be
00000370: 4851 27be bc29 34be a4d6 4ebe 447c 34be
00000380: 1d3b 5ebe 28d9 03be b5aa 2abe e50c 25be
00000390: e2c5 4abe 9cae 3ebe 8516 24be 9900 1abe
000003a0: eaf9 07be d30a 05be 299b e73d b9e5 363e
000003b0: 679d 483e 7c82 5c3e 99c1 893e 5cb3 783e
000003c0: fd46 4b3e dfb5 7c3e 09b5 6c3e b881 f23d
000003d0: 8e05 22be 35cb 02be 9a47 42be a31f 50be
000003e0: ce45 2dbe b95d 15be 53e5 55be a168 18be
000003f0: 211a 27be 5a83 1ebe e406 22be 688f 2cbe
-0.18549916 -0.15828146 -0.20744608 -0.15498029 -0.16320394 -0.16697869 -0.13582045 -0.17239577
-0.1599795 -0.17715786 -0.16701712 -0.18087369 -0.14789984 -0.19386517 -0.15811351 -0.15401874
-0.16068405 -0.17412788 -0.15916526 -0.14416178 -0.14366655 -0.17221297 -0.18807323 -0.15902275
-0.1827183 -0.1737162 -0.17388658 -0.16932397 -0.19206761 -0.16420269 -0.15518332 -0.1437093
-0.14441037 -0.13882922 -0.17857397 -0.14020863 -0.19441935 -0.19248123 -0.14650099 -0.19786721
-0.19981438 -0.16934346 -0.14514877 -0.157098 -0.14916371 -0.1921827 -0.17187583 -0.17496163
-0.16984431 -0.168212 -0.14687136 -0.22616626 -0.1770776 -0.15648735 -0.14816403 -0.15092295
-0.1916385 -0.16401373 -0.16899481 -0.15403582 -0.15783572 -0.18510468 -0.17163742 -0.16264072
-0.15126827 -0.16469863 -0.19158915 -0.19449925 -0.18583368 -0.15601912 -0.17895958 -0.15331617
-0.15383303 -0.14370066 -0.17631237 -0.20195152 -0.1596633 -0.14373042 -0.15371802 -0.15138571
-0.15127547 -0.15990338 -0.1570874 -0.18799794 -0.17877948 -0.17933173 -0.15623675 -0.15444721
-0.15732266 -0.1847538 -0.14423774 -0.14015105 -0.15923773 -0.20115472 -0.1758353 -0.15390483
-0.1195368 -0.18822221 -0.17444153 -0.19413388 -0.16720717 -0.142826 -0.1689465 -0.17944293
-0.18310095 -0.15083978 -0.17331348 -0.15215054 -0.18646164 -0.20634578 -0.17794329 -0.14083345
-0.160626 -0.14620689 -0.1851842 -0.16146861 -0.1326451 -0.16436297 -0.17101437 -0.18777014
-0.16457693 -0.16841468 -0.17438604 -0.17185621 -0.19245675 -0.170646 -0.14818896 -0.12925605
-0.1476565 -0.15753247 -0.12396513 -0.21028717 -0.20184405 -0.1606006 -0.16271096 -0.17377461
-0.192176 -0.15443717 -0.14770265 -0.20564775 -0.1760822 -0.1895456 -0.17756177 -0.124701
-0.17606 -0.1622156 -0.17733318 -0.1748659 -0.17436928 -0.15068421 -0.14953312 -0.16369835
-0.16081294 -0.12773676 -0.065376505 0.109130636 0.16211987 0.10980919 -0.14730985 -0.13801076
-0.17353106 -0.15802024 -0.19975467 -0.16906728 -0.21874695 -0.14235407 -0.16671376 -0.15169945
-0.1792258 -0.16915835 -0.20322086 -0.15200403 -0.16803563 -0.18330373 -0.19653803 -0.15758744
-0.17768192 -0.18705738 -0.1552522 -0.096618064 0.13096671 -0.04315472 0.24045072 0.17151381
0.21896097 0.18500665 0.1321035 0.06937539 -0.12716778 -0.16683595 -0.16897729 -0.15014623
-0.15320967 -0.17444722 -0.15683396 -0.14869443 -0.1998525 -0.15085278 -0.14468674 -0.18710963
-0.18074138 -0.14293206 -0.17044567 -0.14945878 -0.16866487 -0.11683671 0.105752386 0.17129734
0.16304761 0.2330582 0.22911353 0.27888322 0.2539571 0.2175447 0.19356713 0.17459728
-0.13555458 -0.13832432 -0.19210988 -0.19332133 -0.163396 -0.17594045 -0.20199066 -0.17625529
-0.21702237 -0.12875807 -0.16666682 -0.161182 -0.19802049 -0.18621296 -0.16024216 -0.1503929
-0.13278928 -0.1299241 0.11308891 0.1786107 0.19591294 0.21534151 0.26905516 0.2428717
0.19851299 0.24678753 0.23115934 0.11841148 -0.15822431 -0.1277283 -0.18972626 -0.20324568
-0.1692116 -0.14586534 -0.20888261 -0.14883663 -0.16318561 -0.15479794 -0.15822941 -0.1685158

decoder/1/W f4 [784, 50]
00000000: 46cb 09be 4bea c4bc 495b 923c 0335 0fbd
00000010: 8cb1 75bd c703 78bd 882c d3bd 0b7e aa3d
00000020: c2c5 d13c ca65 b6bc 45a6 d0bc f0c9 a83c
00000030: 8a32 753b 5771 59be ab4d 1fbd ae38 99be
00000040: 47cd 62be 2591 0d3e bfac 34be 0b43 56bc
00000050: b5be c1bb 6f50 4d3d 9993 1e3c b0be 1f3d
00000060: 49be 2e3c 8fe3 023e 1f3c c7ba 9368 1bbe
00000070: 53b4 f8bc e706 b73c e6db 5c3c f5fc 0cbd
00000080: c513 23be e8d4 f8bd cbc6 1dbe c664 b23c
00000090: 1328 c8bd 1781 0cbd 0227 febc aa5f 87bd
000000a0: af80 45bd 3e42 4abe 6802 2c3c 7fdb 3b3d
000000b0: d661 b7bd c5c7 623c 6655 5cbd fe8b 03bc
000000c0: ca54 3d3b c6a3 52bc 3e98 3cbe 7cb0 16be
000000d0: d6c9 b33b 2940 71bd 5e15 11be 348b fc3d
000000e0: de2e 94ba 3f90 733c 6d64 2dbe e485 9bbc
000000f0: da7d 3339 25df 3e3d 3b5d 11bd 3b34 debd
00000100: 74d6 19bd 7934 36be 8fec c0bd ba3f 99bd
00000110: b790 32bd 9c22 b93c 47f7 dabd d371 bfbc
00000120: f68f d7bb 190c bf3b e2ec 603d 93ce 60bd
00000130: 8f32 e4bd 7123 6fbd 28df eeba 8c64 073c
00000140: f26c 84bd 47e3 24bd 6a3d 81be 8fcd 8fbd
00000150: afd5 b0bd 9bda 11bb c593 8abc 80f6 89bb
00000160: 6008 d5bc 8c23 97bd 33cc 97bb a0d3 9dbd
00000170: fb35 323d be60 8a3c 6bc0 febd eb07 29be
00000180: c649 91bb 6e63 773c f6c3 3c3d e162 f03c
00000190: 75cf 2dbe 349b a9be 3ad6 c73c 69cd 45bd
000001a0: 3709 1bbe 9f87 b8bb 0037 c33d d994 b5bd
000001b0: 5868 01bb fe10 a23d fd38 babc 8c3a 88ba
000001c0: cf63 9abd 2b81 05be 4788 5cbc b20d 2ebe
000001d0: ef58 5fbe 3340 26bc 61fe 39be 924c 3ebc
000001e0: 4a5d febc d9a8 96bd ec79 523c 10e4 893a
000001f0: 16ca b139 815f 873d 7eb8 a9bc c6f8 64be
00000200: c7da 21bd 9975 033d baa4 033e cf33 a6bc
00000210: b526 a53d 7534 5bbe 769e 93bd 0c94 bfbc
00000220: 7b45 babb fb2a 23bd a929 37be 54f5 3b3d
00000230: 63ca eabb 283a 19be a169 093b a3e9 cc3c
00000240: bf26 8abe 6db1 5abe 341b 00bd f335 213c
00000250: a6d0 013b 3712 09bd 48e1 da3b a082 0cbe
00000260: 9301 b1bc 4e92 4d3c fd68 17bd b1d3 c53a
00000270: 59e9 c13b d0d1 41bd eba3 fc3c 079c e1bb
00000280: db9c 6b3d d17f 81bc e289 4bbd 2fd4 a5bd
00000290: 0743 543d 6877 14be a20b ddbc 64be d13c
000002a0: 9ef5 0abe 69ca b13d 1ee3 ac3b 94df 0f3d
000002b0: 6b40 26bc 087d 813c 8665 5e3c 274d 27be
000002c0: 5daa aa3b e303 13bd 77d5 15bc a5ec 2c3c
000002d0: 844b f33a d2f9 bbbc 1df4 ecbd 444d b8bd
000002e0: d6fd 81bd aba3 a3bc ec73 d73b 41a6 743d
000002f0: 256a 7d3c 2970 04be ae4e 02be bcfd 14be
00000300: 9555 113d 491d 253c e032 7cbd 901f 12be
00000310: 4a1b 24bd 0247 8a3c 20f1 933c 17c1 abbd
00000320: 13f6 83bd db30 18be 4e39 c13c ca13 b73b
00000330: eaff 36be 0d8c 8a3c 62c8 d0bd aeff ccbc
00000340: ecee c43c 8a5f d93c fbbb 463c 1b62 1b3c
00000350: 2cfd 00bd 52dd 39be d5f8 9c3d b8d0 26be
00000360: ed1f 4cbe 696d e93c dd1e cdbd cf5c 9ebb
00000370: 0645 43bc 04df 363d 26d9 41bd 38b8 f3bc
00000380: f6da 5e3c 591a 4bbd 47f8 53bc 2d69 5ebe
00000390: 025f 21bc 27d2 bb3c 7950 a9bc 7ab6 853c
000003a0: 57d0 4b3a bde5 14be 4b34 afbd 7cd1 37bb
000003b0: aba2 053d e858 dfbc de53 1d3d ed8e cebc
000003c0: d6b6 243b 1065 5cbe 3e22 0dbc 0a2a 8dbd
000003d0: f354 8a3d c85f 13be cbb9 5dbb 6584 6a3c
000003e0: 29ec 9a3c 699f 50bc 8c8b 273b 3477 38be
000003f0: 4d90 2ebd f36b 1fbd 474d 47be 6a33 05bc
-0.13456449 -0.0240375 0.017865794 -0.034962665 -0.059983775 -0.060550477 -0.10311228 0.08324822
0.025606994 -0.022265334 -0.025469908 0.020604104 0.0037414157 -0.21234642 -0.03889243 -0.29926056
-0.2214862 0.138249 -0.17644022 -0.013077508 -0.0059126266 0.050125536 0.009678745 0.039000213
0.010665485 0.12782119 -0.0015200413 -0.1517661 -0.030359423 0.022342158 0.013480162 -0.034420926
-0.1592551 -0.12149984 -0.15407865 0.021776568 -0.097732686 -0.034302797 -0.03102446 -0.06610043
-0.048218425 -0.19751832 0.010498621 0.045863625 -0.089542076 0.013841574 -0.05379238 -0.008028982
0.002888965 -0.012856429 -0.18417451 -0.14715761 0.005486707 -0.05889908 -0.14168307 0.123312384
-0.0011305471 0.014865934 -0.1693284 -0.018984742 0.00017117654 0.046599526 -0.035489302 -0.10849806
-0.037558034 -0.17793454 -0.0942012 -0.07482858 -0.043595042 0.02259951 -0.10691696 -0.023369705
-0.006578441 0.0058302996 0.05491341 -0.054884505 -0.11142456 -0.05838341 -0.0018224465 0.008263718
-0.06466092 -0.04025581 -0.25242168 -0.07021629 -0.08634507 -0.0022255543 -0.016916165 -0.0042102933
-0.02600497 -0.07379827 -0.0046324967 -0.0770638 0.04350851 0.016891833 -0.124390446 -0.16506927
-0.0044338433 0.0150993895 0.04608532 0.029344024 -0.1697367 -0.33126223 0.024394143 -0.048291598
-0.15140234 -0.0056314017 0.09531975 -0.08866281 -0.0019746032 0.07913397 -0.022732252 -0.0010393425
-0.07538568 -0.13037555 -0.013460225 -0.16997412 -0.21811269 -0.010147142 -0.18163444 -0.0116149355
-0.031050343 -0.07356424 0.012846451 0.0010520238 0.00033910637 0.06610013 -0.020717856 -0.22360525
-0.039515283 0.03209457 0.12855807 -0.020288376 0.080640234 -0.2140673 -0.072079584 -0.023386024
-0.0056845522 -0.03983591 -0.17886986 0.04588826 -0.0071652397 -0.14963591 0.00209675 0.02501375
-0.26982686 -0.21356745 -0.031275943 0.009839523 0.0019808202 -0.033464637 0.0066796876 -0.13721704
-0.021607196 0.012547089 -0.03696536 0.0015092996 0.00591771 -0.047319233 0.03083988 -0.006885055
0.057522636 -0.015808018 -0.049692042 -0.080971114 0.051821735 -0.14498675 -0.026983086 0.02560348
-0.13570258 0.08681185 0.005276098 0.03512533 -0.010147194 0.01580669 0.01357401 -0.16338025
0.005208297 -0.03589238 -0.009145132 0.010554467 0.0018561934 -0.022946272 -0.115699984 -0.08999112
-0.063472435 -0.019975504 0.0065750983 0.059728865 0.015467201 -0.1293341 -0.12725326 -0.14549917
0.035482008 0.010077783 -0.061571956 -0.14269853 -0.040065087 0.016879562 0.018059313 -0.08386438
-0.06443419 -0.14862387 0.023586895 0.005587076 -0.17871061 0.016912485 -0.1019447 -0.025024261
0.024039708 0.026534814 0.012129779 0.009483839 -0.031491444 -0.18150833 0.076646484 -0.16290557
-0.19934054 0.028494554 -0.10015652 -0.004832841 -0.011918312 0.044646278 -0.04732623 -0.029750928
0.013602009 -0.049585674 -0.012937612 -0.21719809 -0.009849312 0.022927357 -0.020668255 0.016322363
0.00077748805 -0.14540763 -0.08554896 -0.0028048446 0.032625835 -0.027264073 0.03841006 -0.025214637
0.0025133393 -0.21522927 -0.008614121 -0.06892784 0.06754484 -0.14392006 -0.0033832665 0.014313792
0.018911438 -0.012733319 0.0025565354 -0.18014222 -0.042618085 -0.038921308 -0.19463073 -0.008129934

encoder/1/b f4 [50]
00000000: efda cc3e 53ca b73e b8d4 0fbc dcf1 29bc
00000010: 90f9 a33e 366e 25bc 0b51 54bc 2ea3 1abc
00000020: 4820 0cbc abd4 a8bb a6b9 76bc e04a 41bb
00000030: 5ebe 8ebc ea6c b63e a68a 34bc b179 ad3e
00000040: 336a ad3e 4674 26bc 3ec4 a33e 0799 1abc
00000050: b25e 66bc 6587 4ebc 0269 6bbc 4058 61bc
00000060: 65e9 47bc 12af 9d3e 1a6f 8abc 697f b53e
00000070: 3a92 50bc 4027 45bc bf23 efbb 581a 6abc
00000080: 6308 a73e 5d8f ba3e 4ea4 833e b488 71bc
00000090: 758f 04bb 2c88 3bbc 13e5 32bc a530 a53e
000000a0: 4001 d0bb 2192 b13e 48b0 36bc fd6c 52bc
000000b0: 63ef a63e 263b a83e 2d8b 74bc 2d58 4ebc
000000c0: e9a4 21bc 0d04 42bc
0.40010783 0.3589655 -0.008778743 -0.010372605 0.3202634 -0.010097077 -0.012958775 -0.009438319
-0.008552618 -0.005152305 -0.0150589105 -0.0029494092 -0.017424759 0.3562997 -0.0110193845 0.33881906
0.33870086 -0.010159558 0.31985658 -0.009435899 -0.014060663 -0.012605523 -0.0143682975 -0.013753951
-0.012201642 0.3079763 -0.01689868 0.3544877 -0.012730176 -0.012033284 -0.0072979624 -0.014288507
0.32623586 0.36437503 0.25711292 -0.014742065 -0.0020227109 -0.01144604 -0.010918873 0.32263675
-0.0063478053 0.346818 -0.011150427 -0.012843368 0.32604513 0.32857627 -0.01492576 -0.012594265
-0.009865978 -0.011841786
