NIPS_3/Models/Weights_166/0/weights.npz (npz, 180070 bytes, 8 tensors)

encoder/1/W f4 [15, 784]
-0.046749283 0.04035828 0.019177452 0.0054712384 -0.0053231143 -0.021130228 0.013123652 -0.051244665
0.072196655 0.029870037 -0.052859902 -0.024401205 0.063461736 0.06487048 0.049005084 0.035103194
-0.0292506 0.05673485 0.0016277828 -0.024388202 -0.012476666 0.032332398 -0.020489052 -0.028946305
-0.026498018 0.025577858 -0.012435199 -0.002566077 -0.024071787 0.06962746 -0.008545294 -0.012320484
0.044534586 0.060484402 0.13333142 0.09356235 0.20557858 0.27027223 0.33486763 0.47533545
0.5196032 0.45681745 0.5009365 0.56080866 0.51369745 0.41790283 0.382645 0.26839206
0.2913394 0.14292611 0.13533024 0.061660267 0.020859905 0.025537346 -0.005324702 0.019988075
-0.008301099 -0.06839987 0.055961024 0.10057655 0.17448477 0.18291037 0.18987288 0.48730195
0.6827318 0.8917561 1.0958658 1.2723441 1.5383463 1.6419684 1.782365 1.8377861
1.832121 1.7745062 1.6616437 1.4464059 1.2116809 0.9800892 0.6263939 0.37368062
0.26003012 0.026281593 -0.015180333 -0.014471715 -0.034131005 0.013408386 0.03970667 -0.008658633
0.2019341 0.35130203 0.63198996 0.938608 1.3018746 1.5489799 1.8574898 1.9650466
2.070542 2.2442782 2.2507327 2.3555336 2.3301904 2.2993236 2.2086818 2.0759842
1.8841728 1.5480324 1.2250054 0.75908875 0.47695497 0.1868466 0.020564873 -0.0097601805
0.018334476 0.02268453 0.11123538 0.24242862 0.43029597 0.8957244 1.2053365 1.6628267
1.9186188 2.1900718 2.3231237 2.360524 2.4748406 2.585285 2.5496 2.60473
2.5149002 2.538456 2.5352516 2.472697 2.4371543 2.141322 1.9730703 1.5791384
1.1432832 0.64624316 0.22927487 0.063752785 -0.028744482 -0.0235258 0.11118647 0.3782226
0.82990265 1.4061353 1.8552316 2.1636465 2.2834992 2.4124315 2.5508225 2.5372627
2.5702143 2.6301858 2.6439788 2.5962098 2.6488988 2.5701609 2.6050534 2.5986822
2.5450122 2.4401963 2.2883937 2.1103137 1.776479 1.2153774 0.54943216 0.051744837
-0.0016213619 0.025954694 0.23204784 0.70423603 1.2369312 1.8054048 2.1780195 2.3532197
2.4550266 2.5513449 2.5666692 2.5532858 2.6170542 2.56002 2.6159422 2.60689
2.6226144 2.6598356 2.6765125 2.5994174 2.5183465 2.5823362 2.4455035 2.3341322
2.0419445 1.5553304 0.8366486 0.17162 0.024999803 0.11085388 0.42415288 0.9687861
1.551083 2.073511 2.336029 2.4361494 2.488554 2.577537 2.6238294 2.6010306
2.5266871 2.6225183 2.5592659 2.6502886 2.6407752 2.5478077 2.5901604 2.6389472
2.6124725 2.518447 2.5563335 2.3698928 2.0889225 1.7341615 0.99357593 0.19068427
0.029499952 0.2686349 0.77431935 1.3197095 1.79853 2.1354828 2.3511162 2.5015283
2.5251875 2.5220747 2.6153064 2.6447341 2.532855 2.6415157 2.6311705 2.5865667
2.667744 2.555424 2.5979614 2.606316 2.564454 2.5485911 2.5299652 2.4189763
2.1546152 1.6489575 0.9189383 0.1985054 0.064788625 0.3177989 0.8979802 1.3485701
00000000: 2d7c 3fbd b94e 253d 081a 9d3c 1348 b33b
00000010: 856d aebb 4d19 adbc 9604 573c ede5 51bd
00000020: d7db 933d 02b2 f43c a083 58bd 09e5 c7bc
00000030: 3af8 813d d0da 843d 8eb9 483d 5ec8 0f3d
00000040: f49e efbc cd62 683d 545b d53a c4c9 c7bc
00000050: ee6a 4cbc fa6e 043d a8d8 a7bc cd20 edbc
00000060: 5f12 d9bc a888 d13c 01bd 4bbc a12b 28bb
00000070: 3232 c5bc d798 8e3d 9001 0cbc dbdb 49bc
00000080: e669 363d 7ebe 773d 0888 083e 9e9d bf3d
00000090: 3183 523e 1f61 8a3e c573 ab3e 2b5f f33e
000000a0: b704 053f fae3 e93e 603d 003f 2891 0f3f
000000b0: ad81 033f 5cf7 d53e 0cea c33e af6a 893e
000000c0: 702a 953e 395b 123e 0394 0a3e 7a8f 7c3d
000000d0: 64e2 aa3c b233 d13c d67a aebb 08be a33c
000000e0: 5501 08bc 3b15 8cbd 6337 653d 14fb cd3d
000000f0: 23ac 323e db4c 3b3e 096e 423e a47f f93e
00000100: 83c7 2e3f 214a 643f 5545 8c3f 2cdc a23f
00000110: 88e8 c43f 052c d23f 8924 e43f 933c eb3f
00000120: f182 ea3f 0523 e33f beb0 d43f d423 b93f
00000130: 5c18 9b3f 20e7 7a3f 5a5b 203f 1153 bf3e
00000140: ab22 853e 7f4c d73c eeb6 78bc c61a 6dbc
00000150: f4cc 0bbd d9ae 5b3c 76a3 223d f0dc 0dbc
00000160: d0c7 4e3e dcdd b33e 18ca 213f 9d48 703f
00000170: d4a3 a63f f944 c63f 3ac2 ed3f a686 fb3f
00000180: c383 0440 41a2 0f40 010c 1040 10c1 1640
00000190: d721 1540 1e28 1340 0b5b 0d40 eddc 0440
000001a0: 932c f13f ed25 c63f facc 9c3f a453 423f
000001b0: 7133 f43e b754 3f3e aa77 a83c 2ae9 1fbc
000001c0: 2f32 963c e8d4 b93c 60cf e33d 353f 783e
000001d0: c14f dc3e 324e 653f 7748 9a3f 81d7 d43f
000001e0: 4d95 f53f 232a 0c40 0fae 1440 d312 1740
000001f0: ca63 1e40 4f75 2540 a52c 2340 e5b3 2640
00000200: 20f4 2040 1076 2240 9041 2240 ab40 1e40
00000210: 56fa 1b40 6b0b 0940 918d fc3f 3521 ca3f
00000220: 1b57 923f 3170 253f 08c7 6a3e d290 823d
00000230: 8c79 ebbc 2eb9 c0bc bbb5 e33d 65a6 c13e
00000240: 8074 543f 3efc b33f 3b78 ed3f 2f79 0a40
00000250: da24 1240 4765 1a40 ad40 2340 8362 2240
00000260: 647e 2440 f754 2840 f336 2940 4d28 2640
00000270: 8f87 2940 847d 2440 32b9 2640 cf50 2640
00000280: 7be1 2240 2d2c 1c40 0b75 1240 610f 0740
00000290: aa63 e33f 7d91 9b3f 96a7 0c3f 65f2 533d
000002a0: e183 d4ba f09e d43c f39d 6d3e d048 343f
000002b0: c353 9e3f 8117 e73f ac64 0b40 279b 1640
000002c0: 281f 1d40 3c49 2340 4f44 2440 0969 2340
000002d0: d17d 2740 5ed7 2340 996b 2740 49d7 2640
000002e0: ead8 2740 bf3a 2a40 fb4b 2b40 db5c 2640
000002f0: 972c 2140 ff44 2540 2183 1c40 6c62 1540
00000300: 38af 0240 1115 c73f 9a2e 563f 27bd 2f3e
00000310: 63cc cc3c 5c07 e33d 912a d93e 5e02 783f
00000320: e389 c63f 67b4 0440 8081 1540 dfe9 1b40
00000330: 7844 1f40 5ef6 2440 d2ec 2740 4977 2640
00000340: 3eb5 2140 57d7 2740 03cb 2340 549e 2940
00000350: 7602 2940 480f 2340 30c5 2540 83e4 2840
00000360: c032 2740 3c2e 2140 f89a 2340 53ac 1740
00000370: e8b0 0540 01f9 dd3f fe5a 7e3f bd42 433e
00000380: e2a9 f13c 838a 893e cb39 463f 3eec a83f
00000390: 3b36 e63f c0ab 0840 b078 1640 0a19 2040
000003a0: ac9c 2140 ac69 2140 2e61 2740 5343 2940
000003b0: 4c1a 2240 980e 2940 1965 2840 4f8a 2540
000003c0: 51bc 2a40 118c 2340 0045 2640 e2cd 2640
000003d0: 0420 2440 1e1c 2340 f3ea 2140 82d0 1a40
000003e0: 37e5 0940 0a11 d33f 8a3f 6b3f 0045 4b3e
000003f0: e6af 843d 8ab6 a23e 08e2 653f f29d ac3f

encoder/0/b f4 [15]
-0.011916172 -0.009279807 -0.016531743 -0.013402508 0.09854368 -0.015637524 -0.011880532 -0.01830551
-0.008515607 -0.006487951 0.00027774624 -0.032630082 -0.032100827 -0.01036309 -0.0116765695
00000000: 0c3c 43bc 550a 18bc 946d 87bc 3196 5bbc
00000010: 45d1 c93d 441a 80bc 90a6 42bc 70f5 95bc
00000020: 0b85 0bbc e198 d4bb 789e 9139 1fa7 05bd
00000030: 287c 03bd f3c9 29bc 154f 3fbc

decoder/0/W f4 [784, 15]
2.026718 2.0380373 1.7473396 2.137527 1.9513892 2.5348902 2.0506456 2.049464
1.8420802 1.9370285 1.602095 2.123131 1.988677 1.525435 1.5053864 -0.04455352
-0.3303246 -0.23578633 -0.3214478 -0.22134115 -0.3168337 -0.15587881 -0.069678925 -0.019769806
-0.29817697 -0.106572144 0.77086693 0.13380891 -0.17229368 -0.17681308 1.83872 1.8468637
1.9457159 2.354816 2.0077515 1.7578012 2.169553 1.844052 1.7311618 1.5592778
1.8679385 2.2468207 1.8488284 1.8149359 1.7686117 1.6080667 1.7269429 2.1493208
2.1788335 1.7107363 2.1285393 1.7961287 1.9953285 2.0436685 2.6606977 1.8289925
2.27817 2.067228 2.3858821 1.8855549 0.2301662 -0.07873995 -0.36816376 0.13690731
-0.14145663 0.0803568 -0.14321542 -0.41045967 -0.3079223 0.12229956 -0.34324607 -0.2976609
-0.5434783 -0.16504209 0.37088242 1.8046044 1.9055928 2.2259705 1.7892786 1.5213805
1.7838616 2.267622 1.6650318 1.9878179 1.5990899 1.7388248 1.771991 2.2348273
1.9987795 1.8831849 0.40675268 -0.4703632 -0.10866285 -0.13190773 -0.13997267 0.041189883
0.23549691 0.084861465 -0.26442242 0.12576938 -0.16661163 0.21354948 -0.51338327 0.10854648
-0.35241646 2.3503282 1.4632938 1.6485909 1.7305874 2.3558464 1.9141456 2.048132
1.9431629 1.9928386 2.015497 1.966411 2.033178 1.8522115 1.9526278 1.7962961
-0.12878732 -0.116214156 -0.20140652 -0.24313071 0.04917196 0.1187582 0.3823992 0.051183682
-0.17976351 0.19954953 -0.014241641 0.09379845 -0.41333964 0.06921265 -0.39812496 2.3744285
1.3178229 2.275336 1.8831395 2.4983895 2.005905 1.9150678 1.5239462 1.5927786
1.9111437 1.8533689 1.703522 1.9956032 2.3232796 2.0518575 -0.41374296 0.54013836
-0.075479485 -0.026282828 -0.099891655 -0.010008968 0.12162525 -0.2416805 -0.4462636 -0.5401901
-0.27248907 -0.025069766 -0.2206365 -0.14300743 0.33060765 -0.11259282 0.36608022 -0.08404328
0.04371267 -0.28503105 0.07245157 -0.4114706 -0.26062363 -0.20459679 0.35150418 0.21525571
0.044297658 -0.49551684 -0.67469555 -0.15689217 1.5699763 2.3593957 2.039321 2.1158
1.9482304 1.7944227 1.718259 1.9435598 2.017642 2.0302389 1.635016 1.8832852
2.3228178 1.8235008 2.0654552 0.18413085 0.22745395 -0.17066145 0.0723573 0.024734847
-0.49983737 -0.3302876 0.07150593 0.2531139 -0.44822222 0.1181306 0.18998429 0.07145011
-0.056779437 -0.45736232 1.8600752 1.7785299 1.510722 1.7577963 1.8663164 1.897201
1.9766371 1.7559613 2.2106798 1.6553506 2.040778 1.4779896 2.22006 2.031379
2.2401404 -0.2399592 0.024736667 0.038327765 -0.12144103 -0.10424907 -0.24207786 0.14618428
0.3736741 -0.20494509 0.040401727 -0.06435184 -0.29015407 -0.21573468 0.31444368 -0.0020382816
-0.039979376 -0.046983197 -0.24760549 0.25487623 -0.20127666 0.15031055 -0.19694187 -0.24661197
-0.35087144 -0.2832023 -0.1914325 0.59797823 -0.2296085 -0.11429771 0.22391362 2.1443818
00000000: bfb5 0140 346f 0240 d3a8 df3f 3ecd 0840
00000010: 1fc7 f93f a43b 2240 c73d 0340 6b2a 0340
00000020: 49c9 eb3f 8df0 f73f 7311 cd3f 61e1 0740
00000030: f88c fe3f 7441 c33f 80b0 c03f c07d 36bd
00000040: 4e20 a9be f971 71be ce94 a4be 41a7 62be
00000050: 0738 a2be b29e 1fbe d3b3 8ebd 4af4 a1bc
00000060: a7aa 98be 7f42 dabd 8957 453f 3405 093e
00000070: c16d 30be 7d0e 35be 2d5b eb3f 0866 ec3f
00000080: 380d f93f 4eb5 1640 007f 0040 a1ff e03f
00000090: f5d9 0a40 e509 ec3f b696 dd3f 6a96 c73f
000000a0: 9c18 ef3f e9cb 0f40 69a6 ec3f d24f e83f
000000b0: de61 e23f 21d5 cd3f 770c dd3f 798e 0940
000000c0: 0272 0b40 68f9 da3f fd39 0840 8ce7 e53f
000000d0: ed66 ff3f 77cb 0240 df48 2a40 6d1c ea3f
000000e0: 8acd 1140 774d 0440 4bb2 1840 dd59 f13f
000000f0: b0b0 6b3e 6942 a1bd f67f bcbe 6e31 0c3e
00000100: 02da 10be 1b92 a43d 10a7 12be c527 d2be
00000110: fea7 9dbe 3178 fa3d f3bd afbe 0267 98be
00000120: 6521 0bbf cb00 29be 4de4 bd3e 47fd e63f
00000130: 77ea f33f 4d76 0e40 1507 e53f 99bc c23f
00000140: 9455 e43f b820 1140 c31f d53f d170 fe3f
00000150: faae cc3f d091 de3f 9ad0 e23f 6907 0f40
00000160: 02d8 ff3f 340c f13f e341 d03e 72d3 f0be
00000170: a18a debd d212 07be ff54 0fbe b9b6 283d
00000180: 1a26 713e d9cb ad3d 6062 87be b0c9 003e
00000190: 3d9c 2abe b7ac 5a3e 166d 03bf 9e4d de3d
000001a0: ee6f b4be c76b 1640 364d bb3f 0705 d33f
000001b0: e383 dd3f 30c6 1640 b902 f53f 9814 0340
000001c0: 90b9 f83f 5615 ff3f e7fd 0040 5bb3 fb3f
000001d0: 971f 0240 4415 ed3f b5ef f93f 08ed e53f
000001e0: d3e0 03be b001 eebd 833d 4ebe 42f7 78be
000001f0: 8a68 493d 8037 f33d d4c9 c33e fba5 513d
00000200: ed13 38be b656 4c3e c655 69bc 6719 c03d
00000210: 41a1 d3be 5dbf 8d3d 09d7 cbbe a3f6 1740
00000220: 6cae a83f 1b9f 1140 b70a f13f 9de5 1f40
00000230: bf60 0040 f120 f53f ab10 c33f 2be0 cb3f
00000240: 5ba0 f43f 313b ed3f 020d da3f ed6f ff3f
00000250: 9db0 1440 a251 0340 1ed6 d3be 8246 0a3f
00000260: fd94 9abd 164f d7bc ff93 ccbd a8fc 23bc
00000270: a916 f93d 187b 77be aa7c e4be e649 0abf
00000280: b083 8bbe 1c5f cdbc 89ee 61be 8a70 12be
00000290: 6845 a93e 1097 e6bd de6e bb3e e21e acbd
000002a0: 0f0c 333d 97ef 91be 7d61 943d 46ac d2be
000002b0: 7670 85be d281 51be 5bf8 b33e fe6b 5c3e
000002c0: 7671 353d 62b4 fdbe d9b8 2cbf 57a8 20be
000002d0: fcf4 c83f 5700 1740 3c84 0240 4469 0740
000002e0: 9d5f f93f a5af e53f e9ef db3f 91c6 f83f
000002f0: 0c21 0140 6fef 0140 3448 d13f 7d0f f13f
00000300: 0ca9 1440 7968 e93f 6b30 0440 cc8c 3c3e
00000310: b0e9 683e e0c1 2ebe 1030 943d bca0 ca3c
00000320: afea ffbe 751b a9be b371 923d 2598 813e
00000330: 627d e5be 75ee f13d 3e8b 423e 6f54 923d
00000340: 8e91 68bd 652b eabe f216 ee3f dea6 e33f
00000350: 575f c13f 78ff e03f 75e3 ee3f 7bd7 f23f
00000360: 7202 fd3f 57c3 e03f c77b 0d40 87e2 d33f
00000370: 1b9c 0240 c32e bd3f 7715 0e40 1d02 0240
00000380: 765e 0f40 ddb7 75be 8da4 ca3c 93fd 1c3d
00000390: 13b6 f8bd 8980 d5bd 42e3 77be 55b1 153e
000003a0: 3652 bf3e 20dd 51be 487c 253d e6ca 83bd
000003b0: 138f 94be 8de9 5cbe c3fe a03e b194 05bb
000003c0: 6ac1 23bd 7471 40bd 4b8c 7dbe 237f 823e
000003d0: 781b 4ebe 02eb 193e 21ab 49be d987 7cbe
000003e0: 6ca5 b3be e4ff 90be e206 44be 1a15 193f
000003f0: 7e1e 6bbe eb14 eabd 9d49 653e 8d3d 0940

decoder/0/b f4 [784]
1.2062287 0.027433991 1.2192734 1.2120017 0.009307529 1.2454474 -0.0032240343 1.2173631
0.027934603 1.2168777 0.013141373 0.010995582 1.2136967 0.03534074 1.2641801 -0.0018950732
-0.008845651 1.210846 1.0341256 1.2177019 1.224529 0.012860403 1.2112463 0.002971034
0.013988079 -0.04055693 1.2250469 1.2210325 1.2169263 1.2100079 0.6937752 1.2744669
1.206422 0.016010938 0.009264404 0.023703597 1.2240567 0.007085467 0.0027320774 1.2384077
1.2065938 0.011730677 1.2231296 -0.047531433 1.2063278 0.0046084337 -0.004846269 0.0048040776
1.2061614 -0.014066748 0.0146157425 -0.024134861 -0.0012053378 0.010183308 -0.029627472 -0.0604463
1.2443408 1.2153826 -0.036012426 -0.020175323 1.2266039 1.2194837 1.20826 -0.007055923
1.202917 -0.022933444 0.018202068 -0.012539354 0.019299353 1.2342513 -0.009609164 1.2079554
0.011192263 1.2106605 1.2257704 1.2381604 0.016896548 -0.045217734 0.017338483 1.0055104
1.2577243 1.2079284 1.2137268 1.2320367 1.2285553 1.2130104 1.2287897 1.2156321
0.010446025 -0.07504682 7.266744e-05 0.0126289595 1.2021039 1.1304237 0.01450355 0.024704948
1.2029066 1.2156459 1.2210025 1.2154665 0.7485573 1.2255256 1.212558 -0.052129164
-0.006466552 1.2134466 1.1883979 -0.0034877388 -0.007283906 1.2111849 0.011728844 1.2062566
1.2031176 1.2124026 -0.002942171 0.011918724 -0.011885819 -0.006247778 -0.01130242 0.016259572
1.2182227 -0.038296126 -0.002964327 0.9838974 -0.054496676 -0.03134985 -0.011205586 1.2281333
1.229189 1.2208146 0.02003723 -0.016238859 0.026755724 -0.01097593 0.010610523 -0.033958394
1.2062759 0.012426509 1.2101642 1.2243569 0.0035022963 -0.0051668324 1.2300885 0.034499694
-0.012207419 1.0903072 1.2083514 1.2137102 1.2127928 -0.06811165 0.015782777 1.2452822
-0.0072913696 1.2305928 1.2105892 1.2413063 1.1793915 0.015886242 1.0510235 0.89284575
1.2053198 1.2067587 1.2197585 -0.0075819036 -0.0424497 -0.045924157 0.01570542 1.2531385
1.2073199 0.010065089 0.034108263 0.013480504 -0.09362383 1.208394 1.2215648 1.2127916
1.1651721 1.2065116 0.011667803 0.025408506 1.0790266 1.2159282 -0.000257589 0.01660905
0.016519712 1.2299364 1.235712 -0.0916916 1.2390907 0.015286335 1.0024638 1.2200977
-0.03562401 1.2573643 -0.012120815 -0.034870252 1.1970103 0.013003372 0.017399011 1.2094955
0.016173873 -0.054557875 1.2416909 1.2071338 1.2214351 1.2167311 1.2514611 -0.06893633
1.2244195 1.2360858 1.2806103 0.018229168 1.2752193 0.02059249 0.012668724 0.022024084
1.2131623 -0.014821318 1.2111281 -0.007953349 1.2121964 -0.023329427 1.2277712 -0.05327815
-0.011035074 -0.027137259 1.2415103 1.2786698 1.2397274 0.004174356 -0.011307181 -0.07280547
1.2217656 -0.02324269 1.2313095 1.2504033 -0.0069618677 0.009182775 -0.039248113 0.013319022
1.2594775 -0.08293284 1.2154987 0.55578184 1.2079892 1.2093029 0.03806973 -0.042009763
1.2163897 1.2219101 1.2047379 0.01614935 1.2339872 1.2397426 1.2292843 1.2081617
00000000: b465 9a3f 40bd e03c 2711 9c3f df22 9b3f
00000010: 9b7e 183c d26a 9f3f 524a 53bb 8ed2 9b3f
00000020: 1cd7 e43c a6c2 9b3f ea4e 573c d026 343c
00000030: 6a5a 9b3f 74c1 103d a7d0 a13f 1b64 f8ba
00000040: 59ed 10bc 00fd 9a3f 3a5e 843f a8dd 9b3f
00000050: 5ebd 9c3f 71b4 523c 1e0a 9b3f aeb5 423b
00000060: 412e 653c 061f 26bd 56ce 9c3f cb4a 9c3f
00000070: 3ec4 9b3f 8ae1 9a3f 409b 313f bb21 a33f
00000080: 096c 9a3f 5f29 833c bac9 173c 0c2e c23c
00000090: e4ad 9c3f 352d e83b a70c 333b 2584 9e3f
000000a0: aa71 9a3f 0732 403c 838f 9c3f 52b0 42bd
000000b0: f368 9a3f 5802 973b 73cd 9ebb 866b 9d3b
000000c0: 7f63 9a3f 3878 66bc de76 6f3c 79b6 c5bc
000000d0: 6dfc 9dba e4d7 263c 50b5 f2bc 8a96 77bd
000000e0: 8f46 9f3f a891 9b3f c481 13bd b846 a5bc
000000f0: 5b01 9d3f 0b18 9c3f 44a8 9a3f 5f35 e7bb
00000100: 2ff9 993f ebde bbbc 811c 953c dd71 4dbc
00000110: ad19 9e3c f2fb 9d3f c16f 1dbc 489e 9a3f
00000120: c15f 373c ecf6 9a3f 0be6 9c3f 0a7c 9e3f
00000130: a16a 8a3c 3b36 39bd 6f09 8e3c 91b4 803f
00000140: 1cfd a03f 669d 9a3f 665b 9b3f 61b3 9d3f
00000150: 4d41 9d3f ed43 9b3f fb48 9d3f d599 9b3f
00000160: ce25 2b3c 26b2 99bd 0965 9838 b2e9 4e3c
00000170: 8ade 993f b9b1 903f 4ca0 6d3c 0862 ca3c
00000180: d8f8 993f 499a 9b3f cf49 9c3f 6894 9b3f
00000190: 74a1 3f3f 06de 9c3f 1a35 9b3f 6485 55bd
000001a0: 5fe5 d3bb 3852 9b3f 6c1d 983f 8c92 64bb
000001b0: d5ad eebb 1b08 9b3f 562a 403c 9e66 9a3f
000001c0: c2ff 993f 0230 9b3f 70d1 40bb c046 433c
000001d0: bdbc 42bc 29ba ccbb c92d 39bc cb32 853c
000001e0: b9ee 9b3f 66dc 1cbd 2845 42bb b3e0 7b3f
000001f0: e837 5fbd b368 00bd a297 37bc 7933 9d3f
00000200: 1156 9d3f a743 9c3f 1e25 a43c 5b07 85bc
00000210: d22e db3c 63d4 33bc c2d7 2d3c f517 0bbd
00000220: 4067 9a3f 8e98 4b3c a9e6 9a3f bab7 9c3f
00000230: c886 653b 884e a9bb 8a73 9d3f 8d4f 0d3d
00000240: a001 48bc 308f 8b3f 42ab 9a3f db5a 9b3f
00000250: cb3c 9b3f 1f7e 8bbd e24a 813c 6865 9f3f
00000260: 71ec eebb 1184 9d3f 96f4 9a3f 20e3 9e3f
00000270: 4df6 963f dd23 823c f087 863f 8a91 643f
00000280: eb47 9a3f 1277 9a3f 0c21 9c3f 9e71 f8bb
00000290: bddf 2dbd f81a 3cbd a7a8 803c d866 a03f
000002a0: 7589 9a3f 0be8 243c 1bb5 0b3d 55dd 5c3c
000002b0: dabd bfbd a8ac 9a3f 3c5c 9c3f c13c 9b3f
000002c0: 5c24 953f f96e 9a3f 502a 3f3c 8025 d03c
000002d0: 8b1d 8a3f 89a3 9b3f 030d 87b9 b40f 883c
000002e0: 5954 873c 8e6e 9d3f d02b 9e3f cec8 bbbd
000002f0: 869a 9e3f 8973 7a3c bc50 803f 292c 9c3f
00000300: 7bea 11bd 50f1 a03f 6296 46bc 1cd4 0ebd
00000310: a237 993f 180c 553c 5f88 8e3c c0d0 9a3f
00000320: 127f 843c 1478 5fbd baef 9e3f 5c83 9a3f
00000330: fc57 9c3f d8bd 9b3f e12f a03f 7e2e 8dbd
00000340: c7b9 9c3f 0f38 9e3f 0aeb a33f 5655 953c
00000350: 633a a33f 95b1 a83c 7b90 4f3c da6b b43c
00000360: e748 9b3f 1dd5 72bc 3f06 9b3f c34e 02bc
00000370: 4029 9b3f 5b1d bfbc 9b27 9d3f 303a 5abd
00000380: 74cc 34bc f54e debc cfe9 9e3f 74ab a33f
00000390: 63af 9e3f 09c9 883b c141 39bc 091b 95bd
000003a0: d162 9c3f 7467 bebc 8d9b 9d3f 370d a03f
000003b0: 6120 e4bb 5a73 163c a1c2 20bd 0738 5a3c
000003c0: 8f36 a13f b1d8 a9bd 7695 9b3f b847 0e3f
000003d0: 649f 9a3f 70ca 9a3f 01ef 1b3d 6e12 2cbd
000003e0: a8b2 9b3f 8d67 9c3f da34 9a3f a44b 843c
000003f0: 4bf3 9d3f e3af 9e3f 3059 9d3f 0ba5 9a3f

encoder/0/W f4 [15, 784]
-0.026381066 0.0030896454 0.023882119 -0.003839969 -0.023511508 -0.016855665 0.015277124 0.011777607
0.008413157 -0.033135455 -0.026993021 -0.06305667 0.05204997 -0.0022403183 -0.018668113 -0.031211473
-0.019245056 0.05465194 0.024334397 0.06419396 0.009428495 -0.02501981 -0.11211871 -0.052711096
0.008755275 -0.019669743 -0.06031821 -0.008277294 -0.052221496 -0.02111621 -0.015819712 0.058484767
0.039489113 0.03628727 0.07152209 0.050253976 -0.04511463 0.018576784 0.009744695 0.0017475523
-0.040684965 -0.019219747 0.0106993215 -0.0083684195 -0.062344797 -0.029795643 0.013654284 0.035081513
-0.012012025 -0.035464745 0.043485407 0.07717104 -0.047076356 -0.028567968 -0.019264342 -0.032910816
-0.0032408466 0.04746536 0.0050473614 -0.0039049103 -0.069164634 -0.040434174 -0.029520571 -0.09200253
0.035183024 -0.012979556 -0.048216272 -0.022555538 0.009128595 0.02416634 -0.044981215 -0.016406862
-0.017257752 -0.03239478 -0.07722131 -0.03743945 -0.007828145 -0.035959087 -0.025319621 -0.026946403
0.032481458 0.006163407 0.026461035 0.034905184 -0.05083954 0.009439708 -0.03773433 0.009942646
-0.052364036 -0.001882133 0.0011455289 -0.02476973 -0.005280483 -0.032469165 -0.07548436 -0.04481569
-0.079419345 0.081547566 -0.06745453 -0.022979576 -0.057175968 -0.096935235 -0.071189664 -0.048200548
0.02201433 -0.01969027 -0.043942407 0.013338996 0.06327904 0.02075618 -0.03931264 0.03652876
-0.018717855 -0.015914198 -0.010999899 -0.035098914 0.01153108 -0.005838223 -0.06891299 -0.09450927
-0.10634031 -0.049811 -0.032133635 -0.007639824 -0.018607367 -0.018509366 -0.043971132 -0.09294656
0.007017432 0.006854701 -0.026437482 -0.09873302 0.024912562 -0.012401432 0.002308882 -0.014431396
0.07102759 0.024364684 -0.026386956 0.013965208 -0.034869395 -0.034773156 -0.059440333 0.00745532
-0.046922676 -0.060373046 -0.08561932 -0.008753603 -0.065610595 -0.0779648 -0.059100363 0.02298905
-0.0071590743 -0.06264385 0.024605494 0.021931931 -0.03837899 -0.008863319 -0.010749673 -0.04901228
-0.048785396 -0.044846293 -0.022569489 0.009627457 0.027915984 0.047572676 -0.056236908 -0.0125105595
-0.0435844 -0.002367259 -0.028292965 -0.050902765 -0.035761043 -0.035817362 0.02302672 -0.0029602593
0.01905146 0.02462517 -0.049321186 0.013426776 -0.003066393 -0.041544303 -0.034391027 -0.010545441
-0.0013366397 0.050467066 -0.064311996 -0.01485939 -0.06027253 -0.030739158 -0.09145702 0.045022458
-0.0594086 -0.021496492 -0.019113682 0.039106175 0.0009351709 -0.061807383 0.027355883 -0.063464135
-0.039917275 -0.08376955 0.021965252 0.082176626 -0.017167957 0.013715743 0.007816841 0.0033448709
0.01901539 -0.001978821 -0.07530529 -0.04833355 -0.06906843 -0.022992823 -0.09362562 -0.11731958
-0.011020739 -0.0426539 0.07396977 -0.03727039 -0.03275304 0.01786282 -0.008691801 0.0020229584
0.008299486 -0.049733117 -0.05772523 0.056225628 -0.015977515 -0.09242361 0.04997546 -0.0065130834
0.003175594 -0.004845077 -0.009732641 -0.005766308 -0.079156645 0.06670594 -0.06244176 0.01595706
0.0559655 -0.011324931 -0.08278381 -0.048911415 -0.057311524 -0.10783113 -0.118966736 0.083388664
0.018484527 -0.03704615 -0.017398616 -0.010813246 0.013860797 -0.031230716 -0.08581463 -0.00962501
00000000: 1b1d d8bc a67b 4a3b 6fa4 c33c fda7 7bbb
00000010: 359b c0bc e414 8abc e74c 7a3c ddf6 403c
00000020: 57d7 093c 0bb9 07bd 7820 ddbc db23 81bd
00000030: 5932 553d 4ed2 12bb dfed 98bc 34af ffbc
00000040: cfa7 9dbc b6da 5f3d ee58 c73c 1f78 833d
00000050: f979 1a3c 58f6 ccbc 7f9e e5bd 97e7 57bd
00000060: 4972 0f3c 7122 a1bc 3a10 77bd 7d9d 07bc
00000070: 35e6 55bd e7fb acbc 5798 81bc b98d 6f3d
00000080: 56bf 213d f6a1 143d 2c7a 923d 1dd7 4d3d
00000090: 1eca 38bd 572e 983c 37a8 1f3c 200e e53a
000000a0: 47a5 26bd bb72 9dbc 354c 2f3c b21b 09bc
000000b0: 425d 7fbd fe15 f4bc 38b6 5f3c a2b1 0f3d
000000c0: 16ce 44bc 7b43 11bd c11d 323d da0b 9e3d
000000d0: 23d3 40bd 5f07 eabc 41d0 9dbc 7ecd 06bd
000000e0: 6264 54bb 0a6b 423d 5664 a53b 86e9 7fbb
000000f0: 30a6 8dbd 4e9e 25bd 20d5 f1bc d36b bcbd
00000100: 131c 103d 34a8 54bc 6d7e 45bd 64c6 b8bc
00000110: 1a90 153c 7df8 c53c 393e 38bd af67 86bc
00000120: 2160 8dbc 64b0 04bd 3526 9ebd 1c5a 19bd
00000130: 9f41 00bc d649 13bd 186b cfbc b4be dcbc
00000140: 470b 053d 68f6 c93b d0c4 d83c bdf8 0e3d
00000150: 1f3d 50bd 01a9 1a3c 508f 1abd 7be6 223c
00000160: ac7b 56bd e7b1 f6ba 9225 963a e4e9 cabc
00000170: e707 adbb 63fe 04bd 8b97 9abd a890 37bd
00000180: 9ca6 a2bd 6902 a73d 9a25 8abd aa3f bcbc
00000190: 5931 6abd fb85 c6bd e3cb 91bd f06d 45bd
000001a0: 6557 b43c 7d4d a1bc f4fc 33bd ce8b 5a3c
000001b0: 7198 813d dd08 aa3c 4a06 21bd 2e9f 153d
000001c0: 3056 99bc 7e5e 82bc ec38 34bc e1c3 0fbd
000001d0: dbec 3c3c 904e bfbb 4122 8dbd 138e c1bd
000001e0: f3c8 d9bd 9e06 4cbd 8f9e 03bd 7d57 fabb
000001f0: 7a6e 98bc f4a0 97bc 131b 34bd c45a bebd
00000200: 7cf2 e53b 669d e03b 6b93 d8bc 8a34 cabd
00000210: 6e15 cc3c 602f 4bbc 9d50 173b a971 6cbc
00000220: ea76 913d 7298 c73c 7529 d8bc 54ce 643c
00000230: 36d3 0ebd 4c6e 0ebd b577 73bd c24b f43b
00000240: fe31 40bd ba49 77bd 2f59 afbd 466b 0fbc
00000250: d95e 86bd 02ac 9fbd 3913 72bd 8853 bc3c
00000260: ab96 eabb 6b4b 80bd 7691 c93c 98aa b33c
00000270: 4a33 1dbd 7437 11bc 651f 30bc 1ac1 48bd
00000280: 32d3 47bd bfb0 37bd a6e3 b8bc 7bbc 1d3c
00000290: 10b0 e43c 91db 423d ac58 66bd 17f9 4cbc
000002a0: 8e85 32bd 0424 1bbb a6c6 e7bc 6b7f 50bd
000002b0: 2c7a 12bd 3ab5 12bd 88a2 bc3c e900 42bb
000002c0: cf11 9c3c b9ba c93c 0305 4abd fbfb 5b3c
000002d0: 8af5 48bb 5c2a 2abd 9bdd 0cbd c9c6 2cbc
000002e0: 3032 afba 8eb6 4e3d 02b6 83bd cd74 73bc
000002f0: 54e0 76bd b0d0 fbbc d14d bbbd 7869 383d
00000300: 6f56 73bd 6919 b0bc 4c94 9cbc cc2d 203d
00000310: 4226 753a bd29 7dbd 7219 e03c 7cf9 81bd
00000320: 4c80 23bd 5f8f abbd 79f0 b33c 384c a83d
00000330: d1a3 8cbc ffb7 603c 3512 003c 9f35 5b3b
00000340: 2ac6 9b3c 1baf 01bb a939 9abd 67f9 45bd
00000350: c073 8dbd 725b bcbc cabe bfbd 3f45 f0bd
00000360: 5490 34bc dbb5 2ebd 767d 973d d6a8 18bd
00000370: 0d28 06bd 0c55 923c 0e68 0ebc 9c93 043b
00000380: 91fa 073c f4b4 4bbd 4a71 6cbd d84c 663d
00000390: 47e3 82bc 9748 bdbd 11b3 4c3d b46b d5bb
000003a0: a01d 503b 74c3 9ebb a875 1fbc 4cf3 bcbb
000003b0: e11c a2bd 209d 883d eec2 7fbd 61b8 823c
000003c0: 153c 653d 348c 39bc 8f8a a9bd 5657 48bd
000003d0: 7dbf 6abd 91d6 dcbd d5a4 f3bd adc7 aa3d
000003e0: dd6c 973c b4bd 17bd 8b87 8ebc 0a2a 31bc
000003f0: 6518 633c 8fd7 ffbc 95bf afbd 38b2 1dbc

decoder/1/b f4 [784]
0.027263325 2.3402758 0.04120751 0.029347429 2.3536444 0.019937973 2.3159516 0.011663376
2.3367262 0.017127289 2.338643 0.026754575 0.033767935 2.3424296 0.016436495 2.3132405
2.3438234 0.02346086 0.04357459 0.020370722 0.01246598 2.3761466 0.032388438 2.313668
2.336048 2.3043416 0.050256044 0.037843652 0.014589835 0.0352018 0.08851773 0.01811472
0.011951208 2.3569453 2.3404398 2.3349168 0.015881993 2.3430955 2.3329387 0.051532324
0.010573493 2.3593118 0.022784797 2.3109524 0.017936802 2.3029222 2.3128536 2.3584766
0.009263153 2.328328 2.351084 2.3608754 2.3534513 2.3337932 2.3452222 2.3290339
0.041362755 0.02622668 2.3266647 2.329941 0.043977004 0.015608083 0.05697753 2.3620062
0.014947674 2.3273277 2.3362134 2.3484316 2.3098593 0.05621104 2.3504086 0.04384187
2.3698075 0.032508176 0.009708565 0.016649444 2.3671672 2.3155277 2.3657093 0.040543675
0.013096457 0.03488268 0.04156318 0.042466283 0.008805635 0.011952578 0.052054964 0.056929827
2.3595085 2.3305883 2.3111289 2.3586433 0.014598832 0.03287066 0.037641145 2.359561
0.01762828 0.019620227 0.046079885 0.032462046 0.049457666 0.042066142 0.0055055683 2.3115053
2.361014 0.01984979 0.0531475 2.3602097 2.3056746 0.034387093 2.3032436 0.015867582
0.021702709 0.04010134 2.3366606 2.3594651 2.3700187 2.3224332 2.3444424 0.014585107
0.05406263 2.2893085 2.3316548 0.049291145 2.302098 2.3647954 2.3580859 -0.013537512
-0.00040978054 0.03899948 2.369956 2.3567734 2.3341577 2.3504145 2.3282747 2.3108103
0.04387211 0.0062047415 0.03715542 0.036086757 2.3726768 2.263429 0.025120953 2.331854
2.3529096 0.06265816 0.021598024 0.015291024 0.04177498 2.3330145 2.3578544 0.012310809
2.3371449 0.020970091 0.009081019 -0.0030002124 0.013942476 2.337397 0.065665446 0.035994492
0.018622542 0.008484548 0.016357346 2.3636117 2.3330624 2.3220897 0.055373218 0.031003943
0.0150621375 2.3057442 2.3514056 2.3321724 2.2924836 0.011761627 0.042182885 0.02682487
0.06312532 0.009011168 2.3161407 -0.017047461 0.052363623 -0.012500461 2.3432138 -0.01570631
-0.023277221 0.034649096 -0.014179958 2.313229 0.031026179 2.36496 0.033186607 0.042517744
2.2941608 0.04759309 2.353045 2.2966475 0.06808873 0.009369992 0.010292087 0.018310308
2.345759 2.3354027 0.022554392 0.026412852 0.0439705 0.027999239 0.030357653 2.275874
-0.016064852 0.00979649 -0.016594037 2.3142042 -0.011932353 2.3241355 2.3277905 2.3051145
-0.008222773 2.3593717 0.00408639 2.3684492 0.06263223 2.3721638 0.007997867 2.3103852
2.3482542 2.3645415 0.040564876 0.018029943 0.012699844 2.3493452 2.3275073 2.341141
0.032340888 2.3014338 -0.0065981224 -0.013976837 2.3129504 2.306993 2.3050952 0.016893702
-0.013629641 2.2899666 -0.017045174 0.06862885 0.0109460475 0.01480225 2.3336961 2.3421857
0.015239476 0.020282129 0.012421583 2.326647 0.027418915 0.017086474 0.01558703 0.013780707
00000000: 5657 df3c 14c7 1540 35c9 283d 056a f03c
00000010: 1ca2 1640 f654 a33c 8d38 1440 bf17 3f3c
00000020: ec8c 1540 874e 8c3c 54ac 1540 692c db3c
00000030: 3f50 0a3d 5eea 1540 d4a5 863c 220c 1440
00000040: 3401 1640 fd30 c03c 457b 323d 80e0 a63c
00000050: 1c3e 4c3c c912 1840 bda9 043d 2313 1440
00000060: cf81 1540 557a 1340 48d9 4d3d f201 1b3d
00000070: 340a 6f3c c32f 103d c948 b53d 5265 943c
00000080: 00cf 433c 31d8 1640 c4c9 1540 476f 1540
00000090: f41a 823c 47f5 1540 de4e 1540 8f13 533d
000000a0: 723c 2d3c f7fe 1640 2fa7 ba3c a5e6 1340
000000b0: 33f0 923c 1463 1340 cb05 1440 48f1 1640
000000c0: 7bc4 173c 5303 1540 2978 1640 9518 1740
000000d0: f29e 1640 de5c 1540 1f18 1640 e40e 1540
000000e0: fe6b 293d 56d9 d63c 13e8 1440 c11d 1540
000000f0: 3b21 343d 0cb9 7f3c 4561 693d 1c2b 1740
00000100: 17e7 743c f0f2 1440 8584 1540 b44c 1640
00000110: bcd4 1340 8c3d 663d 186d 1640 8893 333d
00000120: edaa 1740 4b27 053d ac10 1f3c 6a64 883c
00000130: ab7f 1740 9b31 1440 c867 1740 2011 263d
00000140: 8692 563c 24e1 0e3d 273e 2a3d 20f1 2d3d
00000150: 8345 103c bfd4 433c 9637 553d 402f 693d
00000160: 3002 1740 5c28 1540 89e9 1340 03f4 1640
00000170: f02f 6f3c 63a3 063d 9a2d 1a3d 0c03 1740
00000180: 2f69 903c 99ba a03c 43be 3c3d ecf6 043d
00000190: 1f94 4a3d 8c4d 2c3d 0e68 b43b b4ef 1340
000001a0: da1a 1740 079c a23c 31b1 593d ad0d 1740
000001b0: 2c90 1340 7bd9 0c3d 5868 1340 bbfc 813c
000001c0: e1c9 b13c 4d41 243d d98b 1540 7a01 1740
000001d0: 63ae 1740 bfa2 1440 580b 1640 5ff6 6e3c
000001e0: c770 5d3d 0884 1240 d539 1540 83e5 493d
000001f0: 9355 1340 cf58 1740 e1ea 1640 71cc 5dbc
00000200: d0d7 d6b9 ebbd 1f3d 5cad 1740 60d5 1640
00000210: d762 1540 316d 1640 7402 1540 51e4 1340
00000220: 3eb3 333d 2551 cb3b 4830 183d b5cf 133d
00000230: f0d9 1740 05dc 1040 75ca cd3c 193d 1540
00000240: 1296 1640 ec52 803d 57ee b03c 3487 7a3c
00000250: 3e1c 2b3d 1c50 1540 16e7 1640 47b3 493c
00000260: c893 1540 78c9 ab3c 8ec8 143c 369f 44bb
00000270: fc6e 643c ea97 1540 9b7b 863d f66e 133d
00000280: 4d8e 983c c602 0b3c d7ff 853c 6a45 1740
00000290: e550 1540 1e9d 1440 07cf 623d fbfb fd3c
000002a0: 2fc7 763c 5091 1340 6e7d 1640 5042 1540
000002b0: 0db8 1240 d7b3 403c f6c7 2c3d d4bf db3c
000002c0: d947 813d 94a3 133c a63b 1440 1ea7 8bbc
000002d0: 3d7b 563d bcce 4cbc 37f7 1540 85aa 80bc
000002e0: dfaf bebc 36ec 0d3d 0e53 68bc f20b 1440
000002f0: 9d2a fe3c 815b 1740 aeee 073d 1627 2e3d
00000300: 88d3 1240 f9f0 423d 4a98 1640 46fc 1240
00000310: 1b72 8b3d 9884 193c 24a0 283c 80ff 953c
00000320: ea20 1640 3d77 1540 fdc3 b83c c45f d83c
00000330: 691a 343d a95e e53c 9db0 f83c eba7 1140
00000340: 709a 83bc 7581 203c 38f0 87bc ec1b 1440
00000350: ea7f 43bc a3be 1440 85fa 1440 ff86 1340
00000360: cfb8 06bc f2ff 1640 20e7 853b ac94 1740
00000370: 5445 803d 88d1 1740 7c09 033c 5add 1340
00000380: cc49 1640 a654 1740 5b27 263d 88b3 933c
00000390: 0213 503c ac5b 1640 e1f5 1440 41d5 1540
000003a0: e177 043d b14a 1340 1035 d8bb 1aff 64bc
000003b0: 6107 1440 c6a5 1340 ae86 1340 a964 8a3c
000003c0: dc4e 5fbc d08e 1240 52a2 8bbc 488d 8c3d
000003d0: 0d57 333c 2385 723c 475b 1540 5fe6 1540
000003e0: ffae 793c b526 a63c e583 4b3c c9e7 1440
000003f0: a29d e03c eff8 8b3c be60 7f3c 79c8 613c

decoder/1/W f4 [784, 15]
0.5150918 0.4440092 -0.14598086 0.3550376 0.083063945 0.03329042 -0.08294385 0.07005432
0.05768121 0.035780676 0.071393624 -0.40981367 -0.4414187 -0.24507287 0.2135638 2.7218833
2.883098 2.868286 2.3543003 2.9445286 2.9159465 2.5087793 2.1066709 2.6365988
2.4562235 2.6461816 2.4956183 2.736884 2.7079384 2.70394 -0.19991799 -0.23176074
0.7299565 0.0018686167 -0.04208197 -0.021106647 -0.2640129 -0.039998982 0.27533853 -0.33962104
0.09580793 -0.21022944 0.5195913 0.26945734 -0.33887014 -0.13752826 0.36759195 -0.011852853
-0.027909044 -0.36450553 0.2906898 -0.10511753 -0.10147224 -0.099314444 0.09173698 0.16529243
0.26288757 -0.12984893 0.1998239 0.48147652 2.4144332 2.9199426 2.8190327 2.4384065
2.4362798 2.783684 2.3979845 3.2001317 2.2549021 2.5197642 2.7130148 2.6043901
2.963973 2.497885 2.4262002 0.3480518 -0.2279048 0.22841129 -0.24635245 -0.06991238
0.104919806 -0.073081255 -0.1613342 0.33440375 -0.08653549 -0.36303085 -0.105967045 -0.08640385
0.16543837 0.30629286 2.4307623 2.6797159 2.936221 2.9317753 3.148549 2.6629477
2.9324293 2.442052 2.904438 2.7389994 2.519094 2.7793934 2.8786247 1.9905578
2.4857233 0.209157 -0.29884005 -0.0772279 -0.09084388 -0.15271108 -0.17233399 -0.11561092
-0.17848404 -0.074842975 0.53000826 -0.02254795 -0.60616726 -0.04766942 -0.42342538 0.07643568
2.746592 2.6052217 2.1127334 2.2867541 2.42971 2.606308 2.571519 2.6857605
2.7260065 2.72709 2.7892942 2.343271 2.274834 3.3945668 2.6421943 -0.17768517
-0.50664604 0.1992223 0.1057988 -0.24823733 -0.18201719 -0.16637059 0.1170029 -0.076037884
0.18640459 0.16623043 -0.3648937 0.4298582 -0.5698387 0.082033195 2.7479808 2.7118766
2.4989772 2.1847374 2.6351726 2.8716638 2.7469895 2.840648 2.9689996 3.0255086
2.9226332 2.7087848 2.5663884 2.7125583 1.9574717 -0.40537718 -0.07962454 0.017056933
-0.12549366 0.21541089 -0.340943 0.15607667 0.01635616 -0.0044643385 -0.24607594 -0.24434108
0.016783774 -0.25467014 -0.3294612 -0.24464208 -0.09632318 0.24594615 -0.14742386 -0.23250733
-0.51469237 0.26446396 0.24245678 -0.30875257 -0.3155799 0.070064835 0.31452248 0.16847782
0.10665256 0.005459274 -0.24574463 3.1225905 2.1807525 2.6450005 2.6563447 2.6024175
2.6122046 2.562819 2.601148 2.37758 2.7703311 2.77756 2.4995408 2.6263876
2.6463323 2.852374 0.007877616 0.2971407 -0.42174459 0.044899903 0.1634797 -0.15952787
0.1460875 -0.44219613 -0.32434455 -0.22875111 0.50702626 -0.31462583 -0.21129392 0.51995194
0.11008221 2.3220499 2.8352659 2.2956233 2.5565696 2.6371145 3.147494 2.8645918
2.6802218 2.4976542 2.8932655 2.878484 2.5120826 2.4615142 3.1041238 2.6602433
2.91357 2.8106084 2.2442503 2.496725 2.9711833 2.2680495 2.6016304 2.6056762
2.4951093 2.9146364 2.7188196 2.560871 2.8014362 2.4913359 2.4836175 -0.111293964
00000000: 0edd 033f 2d55 e33e 027c 15be 7dc7 b53e
00000010: 6e1d aa3d 895b 083d 77de a9bd a478 8f3d
00000020: 2243 6c3d c28e 123d d236 923d 19d3 d1be
00000030: a201 e2be 62f4 7abe 78b0 5a3e 5633 2e40
00000040: ad84 3840 ff91 3740 dbac 1640 2873 3c40
00000050: de9e 3a40 d78f 2040 b2d3 0640 09be 2840
00000060: c432 1d40 0a5b 2940 36b8 1f40 1c29 2f40
00000070: dd4e 2d40 5a0d 2d40 4db7 4cbe b052 6dbe
00000080: 6ede 3a3f 5fec f43a 255e 2cbd d9e7 acbc
00000090: b32c 87be f9d5 23bd 2cf9 8c3e cfe2 adbe
000000a0: f336 c43d 6346 57be ef03 053f 50f6 893e
000000b0: 6380 adbe 35d4 0cbe 0335 bc3e 7832 42bc
000000c0: 82a1 e4bc 78a0 babe 4bd5 943e dc47 d7bd
000000d0: aed0 cfbd 5f65 cbbd 99e0 bb3d 6b42 293e
000000e0: 3399 863e 1ef7 04be a39e 4c3e 1784 f63e
000000f0: 1386 1a40 57e0 3a40 086b 3440 da0e 1c40
00000100: 02ec 1b40 e127 3240 9478 1940 f5ce 4c40
00000110: 5150 1040 d143 2140 09a2 2d40 54ae 2640
00000120: bcb1 3d40 59dd 1f40 dd46 1b40 d833 b23e
00000130: e05f 69be a6e4 693e d143 7cbe 392e 8fbd
00000140: 32e0 d63d a0ab 95bd cb34 25be f836 ab3e
00000150: 8539 b1bd 2edf b9be 4005 d9bd 80f4 b0bd
00000160: ad68 293e 6bd2 9c3e 9c91 1b40 7780 2b40
00000170: 0beb 3b40 35a2 3b40 d481 4940 bc6d 2a40
00000180: ecac 3b40 944a 1c40 50e2 3940 c44b 2f40
00000190: d638 2140 95e1 3140 633b 3840 99ca fe3f
000001a0: 1716 1f40 412d 563e 9001 99be a929 9ebd
000001b0: 5b0c babd 4b60 1cbe 5278 30be 6bc5 ecbd
000001c0: 85c4 36be 4647 99bd 9fae 073f 7ab6 b8bc
000001d0: c72d 1bbf 0241 43bd 36cb d8be 4f8a 9c3d
000001e0: 2ac8 2f40 f4bb 2640 0637 0740 2e5a 1240
000001f0: 5e80 1b40 c0cd 2640 c493 2440 80e3 2b40
00000200: e476 2e40 a488 2e40 cc83 3240 27f8 1540
00000210: e196 1140 9540 5940 b619 2940 1af3 35be
00000220: 8eb3 01bf ee00 4c3e 0bad d83d ed31 7ebe
00000230: b762 3abe 0d5d 2abe 379f ef3d c0b9 9bbd
00000240: d8e0 3e3e 4f38 2a3e 59d3 babe 6016 dc3e
00000250: f3e0 11bf 0501 a83d ebde 2f40 638f 2d40
00000260: 3eef 1f40 bdd2 0b40 aba6 2840 57c9 3740
00000270: adce 2f40 2dcd 3540 1704 3e40 efa1 4140
00000280: 6c0c 3b40 bb5c 2d40 b53f 2440 8e9a 2d40
00000290: 6f8e fa3f 998d cfbe 3112 a3bd fbba 8b3c
000002a0: 6981 00be ac94 5c3e 1590 aebe 90d2 1f3e
000002b0: 5bfd 853c 9649 92bb 55fb 7bbe 8c34 7abe
000002c0: 207e 893c 2064 82be 23af a8be 7483 7abe
000002d0: 1645 c5bd 4fd9 7b3e 48f6 16be 6716 6ebe
000002e0: e1c2 03bf d267 873e 9746 783e d114 9ebe
000002f0: b093 a1be 277e 8f3d 1709 a13e 7385 2c3e
00000300: a86c da3d b6e3 b23b 7ba4 7bbe 86d8 4740
00000310: 7391 0b40 b047 2940 8d01 2a40 028e 2640
00000320: 5c2e 2740 3a05 2440 3579 2640 452a 1840
00000330: 1b4d 3140 8bc3 3140 7af8 1f40 bc16 2840
00000340: 825d 2940 4c8d 3640 1e11 013c d322 983e
00000350: e8ee d7be f6e8 373d 3967 273e 465b 23be
00000360: f697 153e 8867 e2be 7d10 a6be bb3d 6abe
00000370: 79cc 013f a316 a1be 6f5d 58be 921b 053f
00000380: c872 e13d 779c 1440 ff74 3540 7eeb 1240
00000390: d69e 2340 7cc6 2840 8b70 4940 7955 3740
000003a0: c188 2b40 91d9 1f40 432b 3940 1539 3840
000003b0: f6c5 2040 7389 1d40 f7a9 4640 6d41 2a40
000003c0: ee77 3a40 02e1 3340 cca1 0f40 58ca 1f40
000003d0: de27 3e40 b927 1140 1d81 2640 66c3 2640
000003e0: dfaf 1f40 6789 3a40 2401 2e40 4fe5 2340
000003f0: bb4a 3340 0c72 1f40 97f3 1e40 17ee e3bd

encoder/1/b f4 [15]
2.6437194 2.6532402 2.647312 2.6499486 2.6477625 2.6436906 2.6459332 2.6532662
2.5673523 2.610723 2.635612 2.6579654 2.6514523 2.6421406 2.6197796
00000000: b332 2940 b0ce 2940 8f6d 2940 c298 2940
00000010: f174 2940 3a32 2940 f856 2940 1dcf 2940
00000020: 804f 2440 1616 2740 dead 2840 1b1c 2a40
00000030: 65b1 2940 d518 2940 78aa 2740
