NIPS_3/Models/Weights_167/66/weights.npz (npz, 175927 bytes, 8 tensors)

encoder/1/W f4 [15, 784]
0	0x3d30e2a2	0.043184884
1	0xbc9942c7	-0.0187086
2	0x3d9dcd37	0.07705157
3	0xbd56f775	-0.052482087
4	0x3ddd3887	0.10801797
5	0xbd23aefc	-0.0399618
6	0x3c789e7d	0.015174505
7	0xbce63c04	-0.02810479
8	0x3cb98021	0.022644104
9	0xbb00fa59	-0.0019680469
10	0x3bf4e3f3	0.0074734627
11	0x3c50abbb	0.012736256
12	0x3fb98bbf	1.4495772
13	0x3ffb1af5	1.9617602
14	0x3fa6f0a9	1.3042194
15	0x3fad081d	1.3518101
16	0xbda31d4c	-0.07964572
17	0xbd30cfa2	-0.043166764
18	0xbcb94059	-0.022613691
19	0xbd65b1cd	-0.056077767
20	0x3d15e469	0.036594782
21	0x3ba9bec0	0.00518021
22	0xbd38b668	-0.04509583
23	0xbc0073cc	-0.007840108
24	0xbc7b4069	-0.015335181
25	0xbcc95d77	-0.0245807
26	0x3cd9b4b1	0.026575418
27	0x3cf480d5	0.029846588
28	0x3d801d1e	0.06255554
29	0x3ced2e20	0.028952658
30	0x3ce9480c	0.028476737
31	0xbc88b400	-0.016687393
32	0x3fa5b444	1.2945638
33	0x3fcdfe6d	1.609327
34	0x404d884e	3.2114444
35	0x408b42ba	4.3518953
36	0x40ab14e2	5.346299
37	0x40d80860	6.7510223
38	0x410af2c1	8.684266
39	0x412033f4	10.012684
40	0x412a9882	10.662233
41	0x41296ce5	10.589086
42	0x412e7b39	10.905084
43	0x4126040b	10.375987
44	0x412afcfd	10.686765
45	0x411d8bf3	9.846667
46	0x4101ef43	8.1209135
47	0x40dca5ae	6.8952246
48	0x40c47df9	6.1403775
49	0x406f34b8	3.7375927
50	0x403fd4cb	2.9973629
51	0x3fbcbb7f	1.4744719
52	0xbb71069e	-0.0036777626
53	0xbbbe88fe	-0.0058146706
54	0x3cbb8868	0.022892192
55	0xbc2dbfe9	-0.010604837
56	0x3c3bdb24	0.011465821
57	0x3c714558	0.0147260055
58	0x3fa5ef50	1.2963657
59	0x3fdf5ca1	1.7450143
60	0x4042557f	3.0364683
61	0x408838c1	4.256928
62	0x40ca4f66	6.322192
63	0x411b7379	9.715692
64	0x4144c1e8	12.29734
65	0x417a4680	15.642212
66	0x4192b4f1	18.33835
67	0x41a34fa3	20.413885
68	0x41af7ccc	21.935936
69	0x41b7d088	22.976822
70	0x41bddcf0	23.73288
71	0x41c03e64	24.030464
72	0x41c0535e	24.040707
73	0x41be9cab	23.826498
74	0x41b9ec45	23.240366
75	0x41b139ca	22.153217
76	0x419fcba1	19.974428
77	0x4185de39	16.733507
78	0x4152df14	13.179462
79	0x41093928	8.576454
80	0x40a15cac	5.0425625
81	0x402b30fb	2.6748645
82	0xbccad957	-0.024761839
83	0xbd3cc048	-0.04608181
84	0xbc1f5e68	-0.009727098
85	0xbb4e247c	-0.0031454852
86	0x3fe33c7c	1.7752833
87	0x40506bd9	3.2565825
88	0x40a72344	5.223055
89	0x40fb6d0d	7.857062
90	0x413cfe7e	11.812132
91	0x418304ca	16.377338
92	0x41a022de	20.017025
93	0x41b40156	22.500652
94	0x41c0314a	24.024067
95	0x41c8319e	25.024227
96	0x41cc06ec	25.50338
97	0x41cf1cea	25.889118
98	0x41d0efb7	26.117048
99	0x41d20811	26.253939
100	0x41d1d9de	26.23138
101	0x41d11284	26.13404
102	0x41cf1ecc	25.890038
103	0x41cada9a	25.356739
104	0x41c2abbb	24.333853
105	0x41b4921c	22.571342
106	0x419d8448	19.68959
107	0x41702fd3	15.011676
108	0x41270f4f	10.441237
109	0x40a5cbc0	5.181122
110	0x3fee0793	1.8596061
111	0xbd032d32	-0.032025523
112	0xbcd535d4	-0.026026644
113	0x3fa56e8b	1.292436
114	0x4044d5c2	3.0755467
115	0x40a3e974	5.1222477
116	0x41069dcc	8.413525
117	0x417840a2	15.5157795
118	0x419fcc91	19.974886
119	0x41b8f6b5	23.120462
120	0x41c6e4cc	24.861717
121	0x41cdf25b	25.743338
122	0x41d21fd7	26.265547
123	0x41d413a4	26.50959
124	0x41d65fc9	26.79677
125	0x41d6b12e	26.836514
126	0x41d76183	26.922613
127	0x41d80661	27.003115
128	0x41d7c24c	26.969872
129	0x41d74222	26.907291
130	0x41d671d6	26.805584
131	0x41d5c712	26.722202
132	0x41d32f2f	26.398039
133	0x41ce9fc9	25.82802
134	0x41c61f18	24.765182
135	0x41b5787f	22.683836
136	0x41992bde	19.14642
137	0x414d93db	12.848598
138	0x40a77f5b	5.2342963
139	0x3fffcb79	1.998397
140	0xbc475319	-0.012165808
141	0xbd56db23	-0.05245508
142	0x4084aaeb	4.145864
143	0x40f3a4d0	7.6138687
144	0x417dfb09	15.873788
145	0x41aa35cc	21.276268
146	0x41c14a89	24.161394
147	0x41cc791c	25.559135
148	0x41d1d626	26.229565
149	0x41d56720	26.675354
150	0x41d6287f	26.769773
151	0x41d7995c	26.949883
152	0x41d8854e	27.06509
153	0x41d8a49a	27.080372
154	0x41d945a1	27.158998
155	0x41d90662	27.128117
156	0x41d941bc	27.157097
157	0x41d8f5ca	27.120014
158	0x41d90d9a	27.131641
159	0x41d763fa	26.923817
160	0x41d76733	26.92539
161	0x41d531e3	26.649359
162	0x41d1edfd	26.241205
163	0x41cb7063	25.429876
164	0x41be5ec8	23.79628
165	0x419dbf73	19.718481
166	0x412fa936	10.978811
167	0x4044e736	3.076612
168	0xbcca8ffc	-0.02472686
169	0x40005a31	2.0055048
170	0x40c0c440	6.0239563
171	0x41451d89	12.319711
172	0x419fc34f	19.970366
173	0x41be0c76	23.756084
174	0x41cc5524	25.541573
175	0x41d2e140	26.359985
176	0x41d5447e	26.658443
177	0x41d7806c	26.937706
178	0x41d83b8d	27.029078
179	0x41d8d894	27.105751
180	0x41d87905	27.059092
181	0x41d926f6	27.144024
182	0x41d94d11	27.16263
183	0x41d97c93	27.185827
184	0x41d98019	27.187548
185	0x41d91d6a	27.139362
186	0x41d93528	27.150955
187	0x41d95255	27.165201
188	0x41d8021b	27.001028
189	0x41d6fc81	26.873293
190	0x41d493a4	26.57209
191	0x41d0d35f	26.103209
192	0x41c8d912	25.105991
193	0x41b2ac8b	22.33425
194	0x41721589	15.130258
195	0x40a633cb	5.1938224
196	0x3f9d4900	1.2287903
197	0x409dc0be	4.929778
198	0x41178ef6	9.472403
199	0x418a3223	17.27448
200	0x41b724b1	22.892916
201	0x41c944d9	25.158617
202	0x41d1c8bf	26.22302
203	0x41d52079	26.640856
204	0x41d71e27	26.889723
205	0x41d7a6d1	26.956453
206	0x41d907a2	27.128727
207	0x41d9ac57	27.20915
208	0x41d91380	27.134521
209	0x41d96d8b	27.178488
210	0x41d9f3a7	27.24397
211	0x41d8d993	27.106237
212	0x41d951ed	27.165003
213	0x41d8f069	27.117388
214	0x41d95c1c	27.169975
215	0x41d8ca79	27.098864
216	0x41d8d1fd	27.102533
217	0x41d7adcf	26.959867
218	0x41d5ca46	26.723766
219	0x41d2ee03	26.366217
220	0x41cc05b0	25.502777
221	0x41ba2ad4	23.270912
222	0x4185d83e	16.730587
223	0x40a85484	5.260317
224	0x3fd71f79	1.680648
225	0x40c8b7dc	6.272444
226	0x4161c7f8	14.1113205
227	0x41a55cf3	20.670385
228	0x41c11077	24.13304
229	0x41cdf3ad	25.743982
230	0x41d3eb6a	26.489948
231	0x41d69ff6	26.828106
232	0x41d7a606	26.956066
233	0x41d8e477	27.111555
234	0x41d8b525	27.08845
235	0x41d98fbf	27.195189
236	0x41d902b6	27.126324
237	0x41d95152	27.164707
238	0x41d9e7e3	27.238226
239	0x41d9dfee	27.23434
240	0x41d9a2c7	27.204481
241	0x41d98fe0	27.195251
242	0x41d95e10	27.170929
243	0x41d90bcc	27.13076
244	0x41d8df54	27.109047
245	0x41d73648	26.901505
246	0x41d64df2	26.78806
247	0x41d2a363	26.329779
248	0x41cc3b3b	25.528921
249	0x41b98104	23.187996
250	0x417dc3b6	15.860281
251	0x40951d01	4.6597905
252	0x40162310	2.34589
253	0x40e547a8	7.164997
254	0x41807747	16.05824
255	0x41aaad1c	21.334526

encoder/0/b f4 [15]
0	0x3d016b1e	0.031596296
1	0xbc89d306	-0.016824257
2	0x3cb9d05b	0.02268236
3	0x3d056b7a	0.0325732
4	0x3ccc37e4	0.024928994
5	0x3cf2bf09	0.029632108
6	0x3d0611b7	0.032731738
7	0x3c1ff323	0.009762558
8	0x3ccff12f	0.02538356
9	0x3c81216e	0.01576301
10	0x3cc69a15	0.024243394
11	0xbc9f4011	-0.019439729
12	0x3d2ea1b9	0.0426347
13	0x3ccadcff	0.024763582
14	0xbcf036e9	-0.029323058

decoder/0/W f4 [784, 15]
0	0x3ea571d0	0.32313395
1	0xbcc18354	-0.023622192
2	0x3d4cdec9	0.050017152
3	0xbdae5671	-0.08512581
4	0x3da83efa	0.08215137
5	0xbe950da3	-0.29111966
6	0x3e81a403	0.25320444
7	0x3e00746f	0.12544416
8	0xbd2231d6	-0.03959831
9	0x3d401627	0.046896126
10	0xbebc0e94	-0.36729872
11	0x3d81b930	0.0633415
12	0xba59094b	-0.0008279278
13	0xbdd49481	-0.10379887
14	0xbefa0d1c	-0.48838127
15	0xbf06ca89	-0.52652794
16	0xbe9a6c6a	-0.30160838
17	0x3decb3c0	0.11557722
18	0x3e3f6b84	0.18693358
19	0xbe6e703f	-0.23285006
20	0xbeb1d326	-0.34731406
21	0xbd7077ea	-0.05870811
22	0xbe844d06	-0.25840014
23	0xbd56d1b2	-0.052446075
24	0xbe132dd0	-0.14372945
25	0x3e16a0fd	0.1470985
26	0xbdaf406d	-0.0855721
27	0x3e37b57e	0.17940328
28	0x3d9ba1de	0.07599233
29	0x3e18b51e	0.1491284
30	0x41b7fbb1	22.997896
31	0x41b71f0f	22.890165
32	0x41b75d71	22.920626
33	0x41bcc3d2	23.595615
34	0x41b82958	23.020187
35	0x41b98345	23.189096
36	0x41b81f3f	23.015257
37	0x41b77bee	22.935513
38	0x41beae3e	23.83508
39	0x41bbe725	23.487864
40	0x41b94ecd	23.163477
41	0x41b7f899	22.996386
42	0x41bc24d9	23.517992
43	0x41ba5215	23.29008
44	0x41b3469c	22.409477
45	0x41b8668c	23.050072
46	0x41b5c17e	22.719479
47	0x41b84227	23.0323
48	0x41ba7714	23.308144
49	0x41b63bbc	22.779167
50	0x41b713a9	22.8846
51	0x41b91cd7	23.139082
52	0x41bd1590	23.635529
53	0x41b6d4a7	22.853834
54	0x41b9aac4	23.208382
55	0x41bb90a1	23.44562
56	0x41b56353	22.673498
57	0x41b79e71	22.952364
58	0x41b67db5	22.81138
59	0x41b6d139	22.85216
60	0xbc6910dd	-0.014225212
61	0x3dadfacf	0.084951036
62	0xbd209184	-0.039201275
63	0xbde927f5	-0.11384574
64	0x3e8dc56d	0.27689686
65	0x3e5a3e2f	0.21312784
66	0x3c8747d8	0.01651375
67	0xbed16872	-0.40899998
68	0xbe942043	-0.28930864
69	0x3de88f74	0.113554865
70	0xbdc399fa	-0.09550853
71	0xbebb22ef	-0.3655009
72	0x3ee4ee03	0.4471284
73	0xbe17cc5a	-0.14824048
74	0xbe9cb1fa	-0.30604535
75	0x3ddec06b	0.108765446
76	0xbeaa6d42	-0.33286482
77	0xbd00c409	-0.031436954
78	0xbe0dd303	-0.13850026
79	0xbc719926	-0.014745986
80	0x3e698ae4	0.22806889
81	0x3eab495d	0.3345441
82	0xbec96931	-0.39338067
83	0xbeba731c	-0.36415946
84	0xbcc2b557	-0.02376811
85	0xbd90a597	-0.07062834
86	0xbeabec68	-0.335788
87	0xbdcd0499	-0.100106426
88	0xbdeb2c9e	-0.114831194
89	0x3ec6b3e0	0.3880911
90	0x3c6954e5	0.014241432
91	0x3e472319	0.19446982
92	0xbeb326bc	-0.3499049
93	0xbbe40383	-0.0069584264
94	0x3ea4ca63	0.3218566
95	0xbdd78f42	-0.10525371
96	0x3e790e19	0.24321784
97	0x3a6acebd	0.0008957198
98	0xbd1c4503	-0.038151752
99	0xbdbe4c8a	-0.092919424
100	0xbd955c02	-0.0729294
101	0xbe899632	-0.26872402
102	0xbc3564ce	-0.011071397
103	0x3cd30aa3	0.025761908
104	0xbdd6adb9	-0.10482354
105	0x41ba0237	23.251081
106	0x41b82896	23.019817
107	0x41b7a6bf	22.956419
108	0x41ba02d8	23.251389
109	0x41b77b3c	22.935173
110	0x41b8113e	23.008419
111	0x41ba585d	23.293146
112	0x41b841b4	23.032082
113	0x41b67baa	22.810383
114	0x41bb47e6	23.410107
115	0x41b9eb35	23.239847
116	0x41b929bf	23.145384
117	0x41b5fd93	22.748816
118	0x41b86cf7	23.053205
119	0x41baad83	23.334723
120	0x3df9bb99	0.121939845
121	0xbefad62a	-0.4899152
122	0xbe9eebe6	-0.3103935
123	0x3c6c381d	0.014417675
124	0xbdc67067	-0.09689408
125	0x3e28b34a	0.16474643
126	0x3da93714	0.082624584
127	0x3e8d3b58	0.27584338
128	0x3c1e39ea	0.0096573625
129	0x3d0f7ea3	0.03503288
130	0x3e963b3a	0.2934206
131	0xbf3798bb	-0.71717423
132	0x3e11f80e	0.14254782
133	0x3de8799b	0.113513194
134	0xbed7237d	-0.42019263
135	0x3ea189df	0.315505
136	0xbe450e22	-0.19243672
137	0xbe155c21	-0.14585926
138	0x3e27bf86	0.16381654
139	0xbea7d2ae	-0.32777923
140	0xbd69ac11	-0.05704886
141	0x3e192d8b	0.1495878
142	0x3d2e85be	0.042608015
143	0x3e0513a7	0.12995778
144	0x3eaba47f	0.33523938
145	0xbe0f9c9b	-0.14024584
146	0xbe70ab93	-0.2350295
147	0xbdec2ec4	-0.11532357
148	0xbeb2c85c	-0.34918487
149	0x3e2c96b3	0.16854362
150	0x41b8305b	23.023611
151	0x41b57f6b	22.687216
152	0x41b94db1	23.162935
153	0x41b96e2a	23.178791
154	0x41b6f292	22.868443
155	0x41b9b19c	23.211723
156	0x41b7ff23	22.999578
157	0x41b9cc90	23.224884
158	0x41bbbdbe	23.467648
159	0x41b96dc7	23.178602
160	0x41b71c2b	22.888754
161	0x41bbb4f1	23.46335
162	0x41ba18af	23.262053
163	0x41b950a9	23.164385
164	0x41ba36c5	23.276743
165	0x41bb3506	23.40089
166	0x41b81564	23.010445
167	0x41b86801	23.050783
168	0x41b6ec48	22.865372
169	0x41b91eb4	23.139992
170	0x41ba8cfc	23.31884
171	0x41b7db97	22.982222
172	0x41b94334	23.157814
173	0x41ba0fad	23.257654
174	0x41bc7a40	23.559692
175	0x41bc2bed	23.521448
176	0x41b66865	22.800974
177	0x41ba2a49	23.270647
178	0x41b9363d	23.151484
179	0x41b7b9a0	22.965637
180	0xbcd1f38f	-0.025628833
181	0xbebe2162	-0.37134844
182	0xbecaafb0	-0.39587164
183	0xbc1195c7	-0.008885807
184	0x3e0a194c	0.13486212
185	0x3e7c2b0d	0.24625798
186	0x3e8d54da	0.276038
187	0xbe8f80f6	-0.28028077
188	0xbec1443e	-0.37747377
189	0xbd20a8d4	-0.039223507
190	0x3e8f03fd	0.2793273
191	0x3d7326e7	0.059363272
192	0xbe4ffbfa	-0.20310965
193	0x3b8ec8e0	0.0043574423
194	0x3e9f2283	0.31081018
195	0x3de39a0c	0.111133665
196	0xbe538ea3	-0.2065988
197	0x3e0387f2	0.12844828
198	0x3e824f53	0.25451145
199	0xbd851758	-0.06498593
200	0xbdca75c8	-0.09885746
201	0x3eb83132	0.35975033
202	0xbc9fab13	-0.019490754
203	0xbe4d9426	-0.20076045
204	0xbe6bd075	-0.23028739
205	0xbdcf1a3f	-0.10112428
206	0x3e39bf62	0.18139413
207	0xbe590644	-0.21193796
208	0xbf0510b3	-0.51978606
209	0x3ea3ac03	0.31967172
210	0x41b8395b	23.028006
211	0x41b77717	22.93315
212	0x41b84f59	23.038744
213	0x41ba09cc	23.254784
214	0x41ba9cca	23.326557
215	0x41b7ffb0	22.999847
216	0x41bb1a11	23.387728
217	0x41b4bda2	22.592594
218	0x41b97dd7	23.186445
219	0x41b73e86	22.905529
220	0x41bb6a76	23.426983
221	0x41b6b8e3	22.840277
222	0x41ba8605	23.31544
223	0x41b77dbb	22.936392
224	0x41ba09c3	23.254766
225	0x3c981233	0.018563366
226	0xbd87102c	-0.065948814
227	0xbdf8b014	-0.12142959
228	0xbe95dcbf	-0.29269978
229	0xbe0152bc	-0.12629217
230	0xbe64f94e	-0.22360727
231	0x3db6ada5	0.08919839
232	0xbd7c6c24	-0.06162657
233	0x3daacba8	0.083396256
234	0xbec7c60a	-0.3901828
235	0x3e05f57d	0.13081928
236	0x3e38419f	0.17993782
237	0xbe950b3e	-0.2911014
238	0xbd12349b	-0.0356947
239	0xbd15abfc	-0.03654097
240	0xbf10fec7	-0.5663876
241	0x3e735b68	0.23765337
242	0xbe9200c5	-0.28516212
243	0xbe8b43e6	-0.2720024
244	0x3e9ce613	0.30644283
245	0xbdd29280	-0.10281849
246	0xbe62d9bb	-0.2215337
247	0x3e1dace2	0.15397981
248	0x3db347d9	0.08753938
249	0x3da15a5e	0.07878564
250	0x3e19ff43	0.15038781
251	0x3d8cb583	0.06870558
252	0x3e3122f3	0.17298488
253	0xbee5b766	-0.44866484
254	0xbde84923	-0.11342075
255	0x41ba485c	23.285332

decoder/0/b f4 [784]
0	0x3bf81123	0.007570402
1	0x3c91eace	0.017812159
2	0x41a10a2e	20.12997
3	0x41a024f7	20.01805
4	0x3b6fca0e	0.003658894
5	0xba3fd1a8	-0.0007317313
6	0xbd88aa5c	-0.066731185
7	0x41a133af	20.150236
8	0xbbd499e6	-0.0064880727
9	0xbcff0b92	-0.031133447
10	0x41a0e19c	20.11016
11	0x41a0d931	20.10605
12	0xbd9a7c41	-0.07543231
13	0xbad97c8b	-0.0016592903
14	0x41a0ecee	20.115688
15	0x3c808a42	0.015690926
16	0x3c9e430e	0.019319084
17	0x41a0cf42	20.1012
18	0x41a0ddc5	20.108286
19	0xbd61c879	-0.055122826
20	0x41a106fe	20.128414
21	0x3b0befe5	0.0021352705
22	0x41a0dd0c	20.107933
23	0xbcc62020	-0.02418524
24	0x3c8dba69	0.017300801
25	0xbc450837	-0.012025884
26	0x3c1828a3	0.009287032
27	0x3ba2da77	0.0049698907
28	0x41a0cf59	20.101244
29	0x41a10961	20.12958
30	0xbb91baad	-0.0044473023
31	0x3c31b151	0.010845498
32	0x41a0db26	20.107006
33	0x3c7eaecb	0.015544604
34	0x41a0d87c	20.105705
35	0x41a0d918	20.106003
36	0x41a0eb2b	20.114828
37	0x3c17fe83	0.009276989
38	0x3c8dfa31	0.017331215
39	0x41a0ed85	20.115976
40	0x41a101f2	20.12595
41	0x41a14417	20.158247
42	0x3c69f7d5	0.014280279
43	0xbc0d382a	-0.008619348
44	0x3c25305b	0.01008233
45	0x3b62ec9f	0.00346259
46	0x41a0e743	20.11292
47	0x3bc03d6b	0.0058666966
48	0x41a106a0	20.128235
49	0x3c5423e5	0.012948011
50	0x41a0f8ff	20.12158
51	0x41a0da11	20.106478
52	0xbcb802c8	-0.022462264
53	0x41a0e6b8	20.112656
54	0x41a11a42	20.137821
55	0x3c9b7025	0.018974373
56	0x41a0db98	20.107224
57	0x41a1111e	20.133358
58	0x3c72b6b5	0.014814069
59	0x41a0ebc2	20.115116
60	0x3c589675	0.0132194655
61	0x41a0d4a9	20.103838
62	0xbcf36817	-0.02971272
63	0x3c5ad50a	0.0133564565
64	0x41a0d2d9	20.102953
65	0x41a0d805	20.105478
66	0xbd01f644	-0.031728998
67	0x3b04b4aa	0.0020249286
68	0x41a0d842	20.105595
69	0xbcbf2460	-0.023332775
70	0x41a123b9	20.142443
71	0xbd9b303d	-0.0757756
72	0xbd9a675c	-0.075392455
73	0x41a0fffb	20.12499
74	0x41a13395	20.150187
75	0x41a0da69	20.106646
76	0x3c55097f	0.013002752
77	0xbd7686f2	-0.060187288
78	0x3c05d015	0.008167286
79	0x3c86a6d7	0.016436977
80	0x419fc5fe	19.971676
81	0xba23b900	-0.00062455237
82	0x41a0d65a	20.104664
83	0x41a0e086	20.10963
84	0xbd074d57	-0.03303274
85	0x41a0d52a	20.104084
86	0x3c71c48c	0.014756333
87	0x41a0fcc5	20.123423
88	0xba2d2262	-0.00066045497
89	0x41a0e07a	20.109608
90	0xbce09474	-0.027414538
91	0x3c88863a	0.016665567
92	0xbb8d368e	-0.004309482
93	0x41a13855	20.152506
94	0x41a0e89a	20.113575
95	0x41a0df52	20.109043
96	0x41a0d5a9	20.104326
97	0xba9c13f2	-0.00119078
98	0x41a0e7c9	20.113176
99	0xbd3f3abf	-0.046686884
100	0x41a113c3	20.13465
101	0x3c353e65	0.011062239
102	0x41a10825	20.128977
103	0x3c7c802d	0.015411419
104	0x3c7833ac	0.015149038
105	0xbc93d79c	-0.018047146
106	0x41a0f643	20.120245
107	0x41a0d12c	20.102135
108	0x41a11e1d	20.139704
109	0x41a14ea2	20.163395
110	0x41a0d4f9	20.10399
111	0x41a0d684	20.104744
112	0x41a125c9	20.14345
113	0x41a0f396	20.118938
114	0x3c0e752e	0.00869493
115	0xbb0f6590	-0.0021880604
116	0x41a10d77	20.131575
117	0x3c64ed81	0.013972641
118	0x41a0d38a	20.10329
119	0xbc1704f2	-0.009217488
120	0x3be167a3	0.0068788095
121	0xbb88daf9	-0.004176494
122	0xbc5100e0	-0.012756556
123	0x41a0d33d	20.103144
124	0x3c84b3d7	0.016199036
125	0xbcf3f0d9	-0.029777931
126	0x3c7ddd3f	0.015494644
127	0xbd4677b2	-0.048453994
128	0x3c17b762	0.00926003
129	0x41a0efed	20.117151
130	0xbb643b22	-0.0034825285
131	0xbc4d71d9	-0.01253935
132	0x41a10ffb	20.132803
133	0x41a0db9b	20.10723
134	0x41a0f7b7	20.120955
135	0x41a0e9b6	20.114117
136	0xbca6593c	-0.020306222
137	0x3c969bcb	0.018384835
138	0x41a13579	20.15111
139	0x41a10a7c	20.13012
140	0xbd19cb7b	-0.03754757
141	0x41a0dd00	20.10791
142	0x3bc6a06d	0.0060616047
143	0xbc0e794b	-0.008695911
144	0xbb270375	-0.0025484238
145	0x41a18360	20.189148
146	0x41a10afd	20.130365
147	0xbd1af29b	-0.037829023
148	0x41a0d8fe	20.105953
149	0x3c6b97be	0.01437944
150	0xbcdebac0	-0.027188659
151	0x41a0ec96	20.11552
152	0x3c2884f2	0.010285603
153	0x3bc179c9	0.0059044105
154	0x41a13c9c	20.154594
155	0x3c9cf28f	0.01915863
156	0x41a10c72	20.131077
157	0xbc80eed6	-0.015738886
158	0x41a0e8ef	20.113737
159	0xbaed308f	-0.0018096137
160	0x41a1594e	20.168606
161	0x41a0d042	20.101688
162	0xbd2dec48	-0.042461663
163	0x41a129d6	20.145428
164	0x3bbad5c3	0.005701752
165	0x41a0ea6b	20.114462
166	0x41a128ec	20.144981
167	0x41a0e837	20.113386
168	0x41a0df57	20.109053
169	0x41a0d4bb	20.103872
170	0x41a0baf8	20.091293
171	0xbcb6d321	-0.022317471
172	0x41a0c18c	20.094505
173	0x41a1265e	20.143734
174	0x419e350a	19.775898
175	0x41a0da44	20.106575
176	0x41a0ed01	20.115725
177	0x41a0d9ea	20.106403
178	0x41a0a6f6	20.081524
179	0x41a0e74b	20.112936
180	0x41a0e154	20.110023
181	0x3c711189	0.014713653
182	0x41a0f277	20.118391
183	0x41a17e23	20.18659
184	0x41a0eba7	20.115065
185	0x3c58eef7	0.013240567
186	0x3c31bd5b	0.0108483685
187	0x41a12331	20.142183
188	0x41a117f5	20.136698
189	0x41a07465	20.056833
190	0x3c1a5e89	0.009421953
191	0x419afce6	19.373486
192	0x41a0eb6d	20.114954
193	0x41a09329	20.071856
194	0x41a10c67	20.131056
195	0x3c957d08	0.018248096
196	0x41a12650	20.143707
197	0x41a11d44	20.13929
198	0x3c4dfcd7	0.012572489
199	0x41a11156	20.133465
200	0x3c84a7d0	0.0161933
201	0x3a4091cb	0.00073459436
202	0xbd8ab04b	-0.067719065
203	0x41a0f89f	20.121397
204	0x41a13393	20.150183
205	0x41a0e0f1	20.109835
206	0xbd3a4e65	-0.04548492
207	0x3c5607b5	0.013063361
208	0x41a1244c	20.142723
209	0x3c9ecc38	0.019384488
210	0x41a0f29c	20.118462
211	0x41a0d69a	20.104786
212	0x41a12f2b	20.148031
213	0x41a1493f	20.160765
214	0xbda148cc	-0.07875213
215	0x41a0e9c6	20.114147
216	0x41a12874	20.144753
217	0x3bc4c9d5	0.0060055056
218	0xbceb7412	-0.02874187
219	0x41a0e673	20.112524
220	0x41a128e3	20.144964
221	0x41a0e2e5	20.110788
222	0x3a5690fd	0.0008185057
223	0x41a0f1f6	20.118145
224	0x41a104cc	20.127342
225	0xba0e4e29	-0.0005428517
226	0x41a12f2e	20.148037
227	0x3bc4c9da	0.006005508
228	0x41a1351d	20.150934
229	0xbd194021	-0.037414674
230	0x41a11674	20.135963
231	0x41a115d2	20.135654
232	0x3c8a0579	0.016848313
233	0x41a06a13	20.051794
234	0x41a1031e	20.126522
235	0x3c9967bf	0.018726228
236	0x41a1581d	20.168024
237	0x41a11750	20.136383
238	0x41a1003a	20.12511
239	0x41a0ebe2	20.115177
240	0x41a10775	20.128641
241	0x3c48a536	0.012246421
242	0xbbf076cb	-0.00733838
243	0x3c139958	0.009008728
244	0x3bd77758	0.006575506
245	0x3c802a50	0.015645176
246	0xbcfe4d3c	-0.031042688
247	0xbd912fc8	-0.07089192
248	0xbd186112	-0.03720195
249	0x41a0ceaa	20.10091
250	0x41a127f0	20.1445
251	0x3ca8e0b7	0.020614965
252	0x41a0de3b	20.108511
253	0xbb7a18cf	-0.003816176
254	0xbd5c300f	-0.05375677
255	0x3c8f7254	0.01751057

encoder/0/W f4 [15, 784]
0	0x3ca8fe22	0.020628992
1	0x3b8eb639	0.0043552187
2	0x3d076e6d	0.033064295
3	0x3c748552	0.014924364
4	0x3cf563d8	0.029954836
5	0xbb324c2d	-0.0027206049
6	0xbd24ccf8	-0.040234536
7	0xba99a367	-0.0011721671
8	0x3c2541ad	0.010086459
9	0x3d13d82a	0.036094822
10	0xbdb3efb5	-0.08785955
11	0x3d88386b	0.06651386
12	0xbd6e3c33	-0.05816288
13	0xbd67d182	-0.056596287
14	0x3c885f2f	0.01664695
15	0xbd743d96	-0.059629045
16	0x3c791f79	0.015205258
17	0xbcccc0b6	-0.024994235
18	0xbc215027	-0.00984577
19	0x3bafdd6f	0.005366973
20	0x3c915da9	0.017744856
21	0xbd9def94	-0.077117115
22	0xbd326e89	-0.043562446
23	0x3d148b21	0.036265496
24	0x3bda2abd	0.006657927
25	0x3cb5e03b	0.022201648
26	0xbd8aee6f	-0.06783759
27	0xbc577419	-0.013150238
28	0xbb3c06b8	-0.0028690528
29	0xbd548d8a	-0.051892795
30	0xbcb37b13	-0.021909272
31	0x3b92daba	0.0044816406
32	0x3da065dd	0.07831929
33	0x3ded1bdd	0.1157758
34	0xbc00dbf3	-0.00786494
35	0x3e3a9eed	0.18224688
36	0x3e0ead68	0.13933337
37	0xbd93ad29	-0.07210762
38	0x3c910e47	0.017707003
39	0xbe363f6e	-0.17797634
40	0xbeabe396	-0.33572072
41	0x3ba851f9	0.005136725
42	0x3d7411e7	0.059587386
43	0x3eaa7a8c	0.3329662
44	0x3e7f2980	0.24918175
45	0x3df33367	0.118750386
46	0xbd8dc56a	-0.06922419
47	0x3d0d6601	0.034521107
48	0x3e8dc0f6	0.2768628
49	0x3e5c7458	0.21528757
50	0x3e288aad	0.1645915
51	0x3dd0767c	0.10178849
52	0xbd0eb712	-0.03484256
53	0xbc39efc9	-0.011348673
54	0x3c70f8e7	0.01470778
55	0xbc982cb3	-0.018576002
56	0x3a9671ae	0.0011477971
57	0x3c6eb0ac	0.014568489
58	0xbd51f2d8	-0.051256984
59	0xbcd9ce96	-0.026587766
60	0x3e0b0387	0.13575564
61	0x3d8783ef	0.06616961
62	0x3d75bd64	0.05999507
63	0x3e638b39	0.22221078
64	0x3e35452e	0.17702171
65	0xbcb35137	-0.021889312
66	0xbde10a23	-0.109882616
67	0x3e24f67a	0.16109648
68	0x3e0d8a5e	0.13822314
69	0xbb9c4f2e	-0.004770181
70	0xbc7a7c7a	-0.015288467
71	0x3e51b76f	0.2048013
72	0x3e73fb0f	0.2382624
73	0x3e11af9e	0.14227149
74	0x3d86a230	0.065739036
75	0x3df6b670	0.12046516
76	0x3e17b8df	0.14816616
77	0x3db19264	0.086705
78	0x3e494adb	0.19657461
79	0x3e2bcbc2	0.16776946
80	0x3e308380	0.17237663
81	0x3e14900a	0.14508072
82	0x3d0e51dd	0.03474604
83	0x3c0bb9fe	0.008528231
84	0x3c4f4c91	0.012652532
85	0x3c9e2311	0.01930383
86	0xbd7104f3	-0.05884261
87	0xbd40f4f8	-0.04710862
88	0xbde201ff	-0.11035537
89	0xbd48121e	-0.048845403
90	0x3e64e369	0.22352375
91	0x3de955fc	0.11393353
92	0x3e2be893	0.16787939
93	0x3d55ad77	0.052167382
94	0x3dad80ef	0.08471858
95	0x3d972837	0.07380717
96	0x3c93523a	0.017983545
97	0x3d9e8bca	0.077415064
98	0x3d66e73c	0.056372866
99	0x3d6ee5cf	0.05832463
100	0x3df711e7	0.120639615
101	0x3e40c97b	0.18826859
102	0x3dfda197	0.123843364
103	0x3dc54e82	0.09634115
104	0x3dfc040e	0.12305461
105	0x3e646332	0.22303465
106	0x3e4470c4	0.19183642
107	0x3c772f31	0.015086935
108	0x3b40a0db	0.0029392752
109	0x3de1a3a6	0.110175416
110	0x3dcbb494	0.09946552
111	0xbc188cb2	-0.009310888
112	0x3c13450a	0.008988628
113	0xbcf15617	-0.029459996
114	0xbda81427	-0.08206969
115	0xbcc0efa7	-0.023551775
116	0xbe394c1d	-0.18095441
117	0x3d4fee11	0.050764147
118	0xbd11595f	-0.03548562
119	0xbd648a2c	-0.055795833
120	0xbdb2bb6c	-0.08727154
121	0xbd742499	-0.059605215
122	0xbd9f3ee5	-0.07775668
123	0xbc2b42ce	-0.010452939
124	0xbd6b6481	-0.057468895
125	0x3cde800d	0.027160669
126	0xbbfbe651	-0.007687368
127	0xbd28aa48	-0.041178018
128	0xbd0278df	-0.031853553
129	0xbcd30064	-0.025757022
130	0x3b3660a2	0.0027828594
131	0x3c984579	0.018587815
132	0x3e04eed7	0.12981735
133	0x3e297f7d	0.16552539
134	0x3dc0cf9a	0.09414597
135	0xbd23c130	-0.03997916
136	0xbd61fb74	-0.055171445
137	0x3d54adcc	0.051923558
138	0x3d615b58	0.055018753
139	0xbc27c627	-0.010240114
140	0xbd3d6c51	-0.046245877
141	0xbd75fbdf	-0.060054656
142	0x3e30fca5	0.17283876
143	0x3de7fe6e	0.113278255
144	0xbde1356a	-0.10996516
145	0xbcaa89df	-0.020817695
146	0xbd9d983c	-0.07695052
147	0xbdeaf1d9	-0.1147191
148	0xbddd4f60	-0.10806155
149	0xbdc725a2	-0.09723975
150	0xbd392f9c	-0.04521142
151	0xbc4b456d	-0.012406689
152	0xbdc15563	-0.09440114
153	0xbd9e14bb	-0.07718798
154	0x3c9e7f58	0.019347832
155	0xbd9549f2	-0.072894946
156	0xbd3c04d0	-0.045903027
157	0xbd769402	-0.060199745
158	0xbd31062c	-0.043218777
159	0xbce7577c	-0.028239958
160	0x3cb0cc67	0.021581842
161	0x3d093529	0.033497963
162	0x3d99a6c5	0.07502512
163	0xbc803777	-0.015651448
164	0xbd011b8c	-0.03152041
165	0xbd0377a2	-0.032096513
166	0x3d9e7eb6	0.07739012
167	0xbdab00a7	-0.08349734
168	0x3ca52e21	0.020163598
169	0x3d34a5f1	0.044103567
170	0xbdba5875	-0.09098903
171	0x3cd8d67b	0.02646946
172	0xbe00b699	-0.12569655
173	0xbdc7fb05	-0.09764675
174	0xbe0917f1	-0.13388039
175	0xbda9ccf3	-0.08291044
176	0xbb1bab3f	-0.0023753194
177	0xbd3b483e	-0.045723192
178	0xbd6a5865	-0.057213206
179	0xbd7309c1	-0.059335474
180	0xbbaa2bb0	-0.0051931962
181	0xbca58e15	-0.020209352
182	0x3ad3a794	0.0016147965
183	0xbda7b3e4	-0.08188608
184	0xbca92cd3	-0.020651257
185	0x3d2a86de	0.041632526
186	0xbbbd10d4	-0.0057698283
187	0xbd227e48	-0.039671212
188	0xbcad4de0	-0.021155298
189	0xbde3a328	-0.11115104
190	0xbd38dc98	-0.04513225
191	0x3d13a4f6	0.03604599
192	0xbbf3714e	-0.0074292785
193	0xbdf2c9d5	-0.11854903
194	0xbe39dc95	-0.18150552
195	0xbe6f75fa	-0.23384848
196	0xbcc7b816	-0.024379771
197	0xbcf6fba3	-0.030149287
198	0xbe09460a	-0.13405624
199	0xbe6ed525	-0.23323496
200	0xbe160761	-0.14651252
201	0xbd23bc0c	-0.039974257
202	0xbd989793	-0.074507855
203	0xbd74b400	-0.059741974
204	0xbde25c02	-0.11052705
205	0xbd7e00d7	-0.06201252
206	0xbde2633b	-0.11054083
207	0xbd8ce4b7	-0.068795614
208	0xbd428eb6	-0.04749938
209	0xbd81299c	-0.063067645
210	0xbd487d60	-0.048947692
211	0xbcf29a15	-0.029614488
212	0x3d19662d	0.037450958
213	0xbc3db434	-0.011578608
214	0xbd95c2cb	-0.073125444
215	0xbcf78e31	-0.03021917
216	0xbd8a29d7	-0.067462616
217	0xbd9b456d	-0.07581601
218	0xbe1ce672	-0.15322283
219	0xbd924bcf	-0.071433656
220	0xbdc09a73	-0.09404459
221	0xbbd3e26b	-0.0064662
222	0xbb50b286	-0.003184469
223	0xbe004510	-0.12526345
224	0x3c26bffa	0.010177607
225	0x3e1f23c4	0.15540987
226	0x3db78aef	0.08962046
227	0xbbbb935d	-0.005724354
228	0xba3f35e0	-0.00072941
229	0xbdbb5c96	-0.09148519
230	0xbc8cad9a	-0.017172623
231	0xbdb4d092	-0.08828844
232	0xbd9158a4	-0.07096985
233	0xbd127f84	-0.03576614
234	0xbdfb5d3f	-0.12273645
235	0xbd0703c8	-0.03296259
236	0xbd2e96bf	-0.04262423
237	0xbca24628	-0.019808844
238	0xbbd865c5	-0.0066039287
239	0xbccbbca6	-0.024870228
240	0xbd8b893a	-0.06813283
241	0xbc6e7c14	-0.01455595
242	0x3d0d5c3d	0.034511793
243	0xbd2e2787	-0.042518165
244	0xbcdf577c	-0.027263395
245	0xbd81c6b2	-0.06336726
246	0xbdca01ee	-0.09863649
247	0xbc90069a	-0.017581273
248	0xbd52b814	-0.05144508
249	0x3d0232ac	0.031786606
250	0x3e1df176	0.15424141
251	0xbdae9564	-0.08524588
252	0x3de0e958	0.10982007
253	0x3ddc4961	0.107561834
254	0x3dfde605	0.12397388
255	0x3c1e22c1	0.009651841

decoder/1/b f4 [784]
0	0x41ca8b1c	25.317924
1	0x3ca38597	0.019961162
2	0x3d157f05	0.03649809
3	0x3d9dc49a	0.077035144
4	0x41ca4cdb	25.287527
5	0x3c90bfcd	0.017669583
6	0x41ca2fc9	25.273333
7	0x3d33d767	0.043906596
8	0x41ca2b0f	25.271025
9	0x41ca377a	25.277088
10	0x3ce845ac	0.028353535
11	0x3ca8224e	0.02052417
12	0x41ca0aed	25.255335
13	0x41ca7680	25.307861
14	0x3ca0edfe	0.019644734
15	0x41ca67fc	25.300774
16	0x41ca73fa	25.30663
17	0x3c8686e6	0.016421746
18	0x3cce4036	0.025177103
19	0x41ca5db9	25.295763
20	0x3d2a605f	0.041595813
21	0x41ca9477	25.322493
22	0x3c84ca45	0.01620973
23	0x41ca709e	25.304989
24	0x41cacbd1	25.34952
25	0x41ca6d6c	25.303429
26	0x41ca5e77	25.296125
27	0x41cab0a0	25.336243
28	0x3cb27261	0.021783056
29	0x3c40a90c	0.011759054
30	0x41ca096b	25.254599
31	0x41cac01c	25.343803
32	0x3cad9681	0.02118993
33	0x41ca756a	25.307331
34	0x3ca41b91	0.020032676
35	0x3d2c47eb	0.042060774
36	0x3d1d0e2e	0.0383436
37	0x41cad52d	25.35409
38	0x3c175201	0.00923586
39	0x3c81bbb5	0.015836576
40	0x3d7c50ec	0.06160061
41	0x3c5c304d	0.01343925
42	0x41ca2405	25.267588
43	0x41cac8cd	25.348047
44	0x41ca4c3b	25.287222
45	0x41cab159	25.336596
46	0x3c9defb2	0.019279335
47	0x41ca8ed9	25.31975
48	0x3d4f5b4b	0.050624173
49	0x41ca5303	25.290533
50	0x3c6bf34b	0.014401267
51	0x3cfa70bf	0.03057134
52	0x41ca5cd7	25.295332
53	0x3cdd08e2	0.026981775
54	0x3c394753	0.011308509
55	0x41caa807	25.332045
56	0x3caff254	0.021477856
57	0x3d33edb7	0.043927874
58	0x41cad011	25.351595
59	0x3d29aa4c	0.041422173
60	0x41cac742	25.347294
61	0x3c701132	0.014652537
62	0x41ca3523	25.275946
63	0x3c84004b	0.016113421
64	0x3c9382d8	0.018006727
65	0x3d0c4634	0.03424664
66	0x41caa41c	25.330132
67	0x41ca8708	25.315933
68	0x3cbc0da3	0.022955721
69	0x41ca2fdd	25.27337
70	0x3c64f5ae	0.01397459
71	0x41ca44c7	25.283583
72	0x41ca3e21	25.280336
73	0x3b733335	0.003710938
74	0x3c8bb3ff	0.017053602
75	0x3c65bf8b	0.014022718
76	0x41cad375	25.35325
77	0x41ca6913	25.301306
78	0x41ca9188	25.32106
79	0x3c821456	0.015878838
80	0x3d402a09	0.046915088
81	0x41cacc9c	25.349907
82	0x3c7e407a	0.015518302
83	0x3c0a475f	0.008439868
84	0x41ca3a80	25.278564
85	0x3c31cf8f	0.0108527085
86	0x41ca88b2	25.316746
87	0x3d03d666	0.03218689
88	0x41ca4b4b	25.286764
89	0x3c950e61	0.018195333
90	0x41ca9d75	25.326883
91	0x3c36de3b	0.011161382
92	0x41ca588a	25.293232
93	0x3d82cc6e	0.06386648
94	0x3cf938c8	0.030422583
95	0x3c95361f	0.018214284
96	0x3cb70057	0.02233903
97	0x41ca7ea9	25.311846
98	0x3d642c41	0.055706266
99	0x41ca642c	25.298912
100	0x3d5702dc	0.05249296
101	0x41cabc9f	25.3421
102	0x3d28df7d	0.04122876
103	0x41cac4a8	25.346024
104	0x3c458de2	0.012057753
105	0x41ca7278	25.305893
106	0x3d12a613	0.035802912
107	0x3cc21582	0.023691896
108	0x3c2e6be5	0.010645841
109	0x3cab9d62	0.02094907
110	0x3cc1a326	0.023637366
111	0x3cb1584b	0.021648547
112	0x3c2f542e	0.010701222
113	0x3c9ad649	0.018901007
114	0x41ca41d4	25.282143
115	0x41caa2e9	25.329546
116	0x3c4d96e3	0.012548181
117	0x41ca7f7e	25.312252
118	0x3cc272bf	0.023736356
119	0x41cac874	25.347878
120	0x3c83256e	0.016009059
121	0x41ca99d3	25.32511
122	0x41ca384d	25.27749
123	0xbb5f333d	-0.003405764
124	0x3c2e1f6b	0.010627608
125	0x41ca572b	25.292562
126	0x41ca3042	25.273563
127	0x41ca3ce0	25.279724
128	0x41ca42e4	25.282661
129	0x3c9a32bb	0.018823018
130	0x41ca773a	25.308216
131	0x41ca9741	25.323854
132	0x3d2113a3	0.039325368
133	0x3c87e57a	0.016588915
134	0x3bc8e2d4	0.0061305556
135	0x3ca03d93	0.01956061
136	0x41caa044	25.328255
137	0x41cad367	25.353224
138	0x3ca1d2ea	0.019753892
139	0x3d32f82b	0.043693703
140	0x41ca60c4	25.297249
141	0x3cb47425	0.022028038
142	0x41cac469	25.345903
143	0x41caaadf	25.333433
144	0x41cac03e	25.343868
145	0x3c518977	0.012789122
146	0x3ca24886	0.019809972
147	0x41ca74db	25.307058
148	0x3cdcb586	0.026942026
149	0x41ca1c23	25.263739
150	0x41ca69b6	25.301617
151	0x3cf475aa	0.029841263
152	0x41ca784f	25.308744
153	0x41ca763a	25.307728
154	0xbc304527	-0.010758675
155	0xbc42b9e9	-0.011885145
156	0x3b17e64f	0.0023178046
157	0x41ca9958	25.324875
158	0xbc5ce272	-0.013481723
159	0x41caa2c3	25.329473
160	0x3d14ec41	0.03635812
161	0x3bf0df2e	0.007350824
162	0x41ca4008	25.281265
163	0x3ca422c4	0.020036109
164	0x41ca94c4	25.32264
165	0x3d666d26	0.056256436
166	0x3c8ec47a	0.017427672
167	0x3c316235	0.010826637
168	0x3c648163	0.013946864
169	0x3c5d4329	0.013504782
170	0x3d0e1616	0.03468903
171	0x41caade0	25.3349
172	0x3ca06f6d	0.019584382
173	0x3d377d10	0.044797003
174	0x3d0594c8	0.032612592
175	0x3caa9340	0.020822167
176	0x3cc63004	0.024192818
177	0xb9ad1b87	-0.0003301764
178	0x3d0aeb24	0.033915654
179	0x3c082f86	0.008312112
180	0x3b4aacaf	0.0030925681
181	0xbc94b1dd	-0.018151218
182	0xbc33c328	-0.010971822
183	0xbc9278ff	-0.017879961
184	0xbc6d6ff6	-0.014492026
185	0x41ca5411	25.291048
186	0x41ca6418	25.298874
187	0xbc48b22f	-0.0122495135
188	0x3d08b600	0.033376694
189	0x3d118969	0.035531435
190	0x3c6d9ef6	0.014503231
191	0x3d8e36b1	0.06944025
192	0x3d2ddc0e	0.04244619
193	0x3d4cf2e8	0.05003634
194	0x3cf839ac	0.030300938
195	0x41caaccd	25.334375
196	0x3c7ca200	0.015419483
197	0x3d66e223	0.056368005
198	0x41ca9537	25.322859
199	0x3c83e338	0.016099557
200	0x3cb560ae	0.022140827
201	0x41caa401	25.33008
202	0x41ca59a8	25.293777
203	0x3ca7a93e	0.020466443
204	0x3d29eed3	0.041487526
205	0x3cdc4070	0.026886195
206	0x41ca4f55	25.288736
207	0xbc61a596	-0.013772389
208	0xbc887207	-0.016655935
209	0xbc6abcf8	-0.01432728
210	0xbc537965	-0.012907361
211	0xbc6be961	-0.014398904
212	0xbb5a88a5	-0.0033345607
213	0xbc5f5835	-0.01363187
214	0x41ca1b9e	25.263485
215	0xbbaec0c4	-0.005333038
216	0x3d1e56f5	0.038657147
217	0x41ca1006	25.257824
218	0x41ca929f	25.321592
219	0x3cee89b0	0.029118389
220	0x3c18cd30	0.009326264
221	0x3cf407dd	0.029788906
222	0x41cab93d	25.340448
223	0x3c8df8f8	0.017330632
224	0x3d35da83	0.044397842
225	0x41ca91c0	25.321167
226	0x3d20e03d	0.03927635
227	0x41cacf98	25.351364
228	0x3d4d5a1e	0.05013477
229	0x41ca2325	25.26716
230	0x3d0c296d	0.034219194
231	0x3c77b385	0.015118484
232	0xbc958b0d	-0.018254781
233	0x3c92c7ff	0.017917631
234	0xbc0caacb	-0.008585642
235	0x41ca56c1	25.29236
236	0xbc682c80	-0.014170766
237	0xbbe63a3a	-0.007025984
238	0x3c34bbaf	0.011031075
239	0xbc57e310	-0.0131766945
240	0xbc66b00e	-0.014080061
241	0xbc80ea55	-0.015736738
242	0x41ca13b5	25.259623
243	0x41ca5b0f	25.294462
244	0x41ca6f06	25.30421
245	0x41ca6335	25.29844
246	0x41ca2146	25.266247
247	0x41ca270d	25.269068
248	0x41ca3f5a	25.280933
249	0x3c52326a	0.012829402
250	0x3c76b527	0.0150578385
251	0x41cac197	25.344526
252	0x3d152aa5	0.036417622
253	0x41ca3b64	25.279
254	0x41ca5e9c	25.296196
255	0x41cadb3e	25.357052

decoder/1/W f4 [784, 15]
0	0x41d8320f	27.024443
1	0x41da539c	27.290825
2	0x41d95907	27.16847
3	0x41d8df31	27.10898
4	0x41d8e61f	27.112364
5	0x41d71d24	26.889229
6	0x41db6ca1	27.428041
7	0x41de371f	27.776915
8	0x41dc7021	27.55475
9	0x41d845ba	27.034046
10	0x41db2ee6	27.3979
11	0x41db00fe	27.375484
12	0x41d97a1c	27.184624
13	0x41d79a96	26.950481
14	0x41da1979	27.262438
15	0xbe92778a	-0.28606826
16	0x3efd4c98	0.494725
17	0x3dc1c487	0.09461313
18	0xbe38d7b5	-0.18051036
19	0xbe369deb	-0.17833678
20	0x3e015ac8	0.12632287
21	0xbec42698	-0.38310695
22	0xbe386e28	-0.18010771
23	0x3e648e5d	0.22319932
24	0xbf007cc4	-0.5019038
25	0xbed030f8	-0.4066236
26	0xbe08cda1	-0.13359691
27	0x3e3fcedd	0.18731256
28	0xbec6689e	-0.38751692
29	0x3f0bca78	0.5460582
30	0x3dea23bf	0.11432599
31	0xbc40edc9	-0.011775442
32	0xbe62d582	-0.2215176
33	0x3ead5447	0.3385336
34	0xbe96799e	-0.29389662
35	0xbd807b5a	-0.062735274
36	0xbdeb0d23	-0.11477115
37	0x3dffa548	0.12482697
38	0x3ea1159a	0.31461793
39	0x3e11971f	0.14217804
40	0x3f5b9374	0.8577187
41	0x3ef55118	0.47913432
42	0xbed350ea	-0.4127267
43	0xbc48e002	-0.012260439
44	0x3e083c88	0.13304341
45	0x3ed0a552	0.4075113
46	0xbe94fc05	-0.29098526
47	0xbee1653f	-0.44022557
48	0xbd8b48f4	-0.06801024
49	0xbe44c563	-0.19215922
50	0x3f1994f4	0.5999291
51	0x3e5b119f	0.2139344
52	0xbec57af7	-0.38570377
53	0x3c5a7e93	0.013335842
54	0x3deaa924	0.11458042
55	0x3e6a0b8c	0.22855967
56	0x3e3b6b13	0.18302564
57	0xbe0128b0	-0.12613177
58	0x3f0ceaa7	0.5504555
59	0xbcb7943b	-0.022409549
60	0x41d846fa	27.034657
61	0x41dc8e1d	27.569391
62	0x41da0653	27.253088
63	0x41da3081	27.273684
64	0x41da8e03	27.319342
65	0x41db902b	27.445395
66	0x41da674c	27.300438
67	0x41d8374a	27.026997
68	0x41dc5995	27.543741
69	0x41d871e3	27.055609
70	0x41dcd984	27.606209
71	0x41d8d3ca	27.103413
72	0x41db36c0	27.401733
73	0x41dac64a	27.34682
74	0x41d4dc5c	26.607597
75	0xbf642e06	-0.89132726
76	0xbe7dfae2	-0.24802735
77	0xbe2e5886	-0.17025957
78	0x3e966a0f	0.2937779
79	0x3eb37e14	0.35057127
80	0x3e996bf7	0.29965183
81	0x3e86d10c	0.26331365
82	0x3cbb07c7	0.022830857
83	0xbec4c6ec	-0.38433015
84	0xbf0f4a1e	-0.5597247
85	0xbe42ede7	-0.19036065
86	0x3d836902	0.06416513
87	0xbef049e2	-0.46931368
88	0xbe9ad987	-0.30244085
89	0xbd659b7e	-0.056056492
90	0x41da3d76	27.28001
91	0x41dab98b	27.340597
92	0x41d8c31d	27.09527
93	0x41db7ba8	27.435379
94	0x41dcee0a	27.61623
95	0x41db0b6d	27.380579
96	0x41d8e92b	27.113852
97	0x41da707f	27.30493
98	0x41db32c9	27.399797
99	0x41db2984	27.395271
100	0x41d9099c	27.129692
101	0x41da2d95	27.272257
102	0x41da5fcb	27.296774
103	0x41d92fe5	27.148386
104	0x41d830e7	27.023878
105	0x3ee9fca2	0.45700556
106	0x3d2a32f7	0.04155251
107	0xbdd0f01e	-0.10202049
108	0x3e347a7e	0.17624852
109	0xbca57dbe	-0.02020156
110	0x3e34456e	0.1760461
111	0xbdf4d388	-0.11954409
112	0xb92568c9	-0.00015774662
113	0x3e9564f2	0.29178578
114	0xbe0356c0	-0.12826061
115	0x3dc2411d	0.094850756
116	0xbc9ce5d5	-0.019152561
117	0x3da51c2d	0.08062015
118	0xbd9e5d3d	-0.077326275
119	0x3f1e49f1	0.61831576
120	0x41d73b13	26.903845
121	0x41d90b52	27.130527
122	0x41d7cf50	26.976227
123	0x41daa7d5	27.33195
124	0x41d83416	27.025433
125	0x41dd3fc5	27.656137
126	0x41dba508	27.455582
127	0x41db3c91	27.404573
128	0x41dcebfe	27.61523
129	0x41db49ee	27.411098
130	0x41dab5dd	27.3388
131	0x41db6a98	27.427048
132	0x41d85452	27.041172
133	0x41d9f52d	27.244715
134	0x41d9b013	27.210974
135	0x41d8c2d5	27.095133
136	0x41d8696d	27.051477
137	0x41d87d27	27.06111
138	0x41d7ec62	26.990421
139	0x41dc5cb5	27.545267
140	0x41d94cf7	27.16258
141	0x41da680e	27.300808
142	0x41db6082	27.422123
143	0x41d98c53	27.193518
144	0x41dba0bb	27.453482
145	0x41db9645	27.448374
146	0x41d8e822	27.113346
147	0x41db6a11	27.42679
148	0x41dcb11c	27.58648
149	0x41da0760	27.253601
150	0xbec02da9	-0.37534836
151	0x3ea2e764	0.31817162
152	0xbe06e9c0	-0.13175106
153	0xbdc573f5	-0.09641258
154	0xbd6bcd55	-0.057568867
155	0x3e043cde	0.12913844
156	0x3cfb8daa	0.0307072
157	0x3dc63d5f	0.09679674
158	0x3e5d9614	0.21639282
159	0xbf07c3da	-0.5303322
160	0x3ec6d29b	0.38832554
161	0xbd7e3291	-0.062059943
162	0xbc99f1ff	-0.01879215
163	0x3d076324	0.033053532
164	0x3ef1275a	0.47100335
165	0x3eb4388b	0.3519939
166	0xbd70b0ac	-0.058762237
167	0xbe63a067	-0.22229157
168	0x3eab4e68	0.33458257
169	0x3e98921f	0.29798982
170	0xbe98e5e4	-0.29862893
171	0xbeab5d5f	-0.33469674
172	0xbed2d2d4	-0.41176474
173	0xbe3f5dfc	-0.18688196
174	0x3f1ab4b0	0.6043196
175	0xbe81c3bc	-0.25344646
176	0x3cb8b5fc	0.022547714
177	0xbeaf7b33	-0.3427368
178	0xbe524eee	-0.20537922
179	0x3e3f27e9	0.18667568
180	0x41dda782	27.70679
181	0x41d8de9b	27.108694
182	0x41d76c27	26.927809
183	0x41d80a70	27.005096
184	0x41dbeef7	27.491682
185	0x41d9fc56	27.24821
186	0x41db53b3	27.415869
187	0x41d9377e	27.152096
188	0x41daaca7	27.334303
189	0x41db76f7	27.433088
190	0x41d8c3d4	27.09562
191	0x41da0a0a	27.254902
192	0x41dca098	27.578415
193	0x41d92762	27.14423
194	0x41da845f	27.314634
195	0x41d78cb6	26.943707
196	0x41dbdbeb	27.482382
197	0x41d89bf1	27.076143
198	0x41d8160e	27.010769
199	0x41d817c6	27.011608
200	0x41dbe730	27.487885
201	0x41d8dbdb	27.107351
202	0x41da8d44	27.318977
203	0x41dccc6d	27.599817
204	0x41db99ac	27.450035
205	0x41d95d3e	27.170528
206	0x41db1d3c	27.389275
207	0x41d96b52	27.177402
208	0x41daa420	27.33014
209	0x41d8f63c	27.120232
210	0x3c1f0657	0.009706101
211	0xbe005dd6	-0.12535796
212	0x3e1a56e9	0.15072216
213	0x3e9a5db1	0.30149606
214	0x3f050532	0.5196105
215	0xbebca1d1	-0.36842206
216	0x3cc6365b	0.02419584
217	0xbe6c7e17	-0.23094974
218	0xbe84272e	-0.25811142
219	0xbe25d413	-0.16194181
220	0xbe37c33e	-0.17945573
221	0xbe44adb3	-0.19206886
222	0xbdc45698	-0.09586829
223	0x3db46526	0.08808355
224	0x3e0389c0	0.12845516
225	0x41d93dd5	27.155191
226	0x41d91a09	27.137712
227	0x41d81dbe	27.014523
228	0x41dc54f9	27.54149
229	0x41d94a32	27.161228
230	0x41d9e66d	27.237513
231	0x41d8c921	27.098207
232	0x41d9020e	27.126003
233	0x41db1b22	27.388248
234	0x41d9993d	27.199823
235	0x41d7ae6d	26.960169
236	0x41dbbb11	27.466341
237	0x41da3fbf	27.281126
238	0x41dd46de	27.659603
239	0x41dab35a	27.337574
240	0x41da805a	27.312672
241	0x41dcc0af	27.594084
242	0x41d851dd	27.039972
243	0x41d73f68	26.90596
244	0x41da5651	27.292147
245	0x41d5f780	26.74585
246	0x41da3331	27.274996
247	0x41de74e0	27.807068
248	0x41d86c8c	27.053001
249	0x41d6d019	26.85161
250	0x41d6d440	26.853638
251	0x41d9e1b7	27.235212
252	0x41d61a7f	26.762938
253	0x41da5693	27.292273
254	0x41d86e9e	27.054012
255	0xbed4b287	-0.41542456

encoder/1/b f4 [15]
0	0x41d9de68	27.233597
1	0x41d9bbe4	27.216743
2	0x41d9d976	27.231182
3	0x41d9d163	27.22724
4	0x41d9aeb8	27.210312
5	0x41d9c6ba	27.222034
6	0x41d9ea4b	27.2394
7	0x41d9d557	27.22917
8	0x41d9c468	27.220901
9	0x41d9b738	27.214462
10	0x41d9e4f8	27.236801
11	0x41d9b1dc	27.211845
12	0x41d9d467	27.228712
13	0x41d9c005	27.21876
14	0x41d9d81b	27.23052
