NIPS_3/Models/Weights_167/63/weights.npz (npz, 175948 bytes, 8 tensors)

encoder/1/W f4 [15, 784]
000000 a2 e2 30 3d c7 42 99 bc 37 cd 9d 3d 75 f7 56 bd
       0.043184884 -0.0187086 0.07705157 -0.052482087
000010 87 38 dd 3d fc ae 23 bd 7d 9e 78 3c 04 3c e6 bc
       0.10801797 -0.0399618 0.015174505 -0.02810479
000020 21 80 b9 3c 59 fa 00 bb f3 e3 f4 3b bb ab 50 3c
       0.022644104 -0.0019680469 0.0074734627 0.012736256
000030 a1 5d b0 3f bd ae ef 3f b3 00 a0 3f 28 18 a6 3f
       1.3778573 1.8725201 1.2500213 1.2976122
000040 4c 1d a3 bd a2 cf 30 bd 59 40 b9 bc cd b1 65 bd
       -0.07964572 -0.043166764 -0.022613691 -0.056077767
000050 69 e4 15 3d c0 be a9 3b 68 b6 38 bd cc 73 00 bc
       0.036594782 0.00518021 -0.04509583 -0.007840108
000060 69 40 7b bc 77 5d c9 bc b1 b4 d9 3c d5 80 f4 3c
       -0.015335181 -0.0245807 0.026575418 0.029846588
000070 1e 1d 80 3d 20 2e ed 3c 0c 48 e9 3c 00 b4 88 bc
       0.06255554 0.028952658 0.028476737 -0.016687393
000080 fe f1 9e 3f f6 05 c6 3f 7d c3 45 40 e3 0d 86 40
       1.24176 1.5470569 3.0900567 4.189195
000090 a6 ae a4 40 97 1d d0 40 e6 a3 05 41 7c 37 1a 41
       5.1463194 6.503612 8.352514 9.638546
0000a0 bd 1a 24 41 08 f5 22 41 f2 31 28 41 f3 e6 1f 41
       10.256528 10.184822 10.512194 9.993884
0000b0 78 ad 24 41 13 a9 17 41 91 fc f9 40 7b 55 d4 40
       10.292351 9.478778 7.812081 6.6354346
0000c0 30 08 bd 40 f9 f8 65 40 32 cb 38 40 0d 86 b5 3f
       5.9072495 3.593321 2.887402 1.4181534
0000d0 9e 06 71 bb fe 88 be bb 68 88 bb 3c e9 bf 2d bc
       -0.0036777626 -0.0058146706 0.022892192 -0.010604837
0000e0 24 db 3b 3c 58 45 71 3c ec 4c 9e 3f 2f ce d6 3f
       0.011465821 0.0147260055 1.2367225 1.6781672
0000f0 74 e4 3a 40 b9 29 83 40 f9 8b c2 40 4a 7e 15 41
       2.9201937 4.098843 6.0795865 9.343332
000100 06 5f 3d 41 07 0d 71 41 a3 48 8d 41 8a 46 9d 41
       11.835699 15.0656805 17.660467 19.659443
000110 95 01 a9 41 9f 07 b1 41 da d6 b6 41 bc 1c b9 41
       21.125772 22.128721 22.854908 23.13903
000120 98 2d b9 41 5a 87 b7 41 34 02 b3 41 94 b0 aa 41
       23.147263 22.94109 22.376076 21.33622
000130 c4 e7 99 41 70 e5 80 41 47 f7 4a 41 5a 32 04 41
       19.238167 16.11203 12.68537 8.262293
000140 24 47 9b 40 b5 45 24 40 57 d9 ca bc 48 c0 3c bd
       4.852434 2.5667546 -0.024761839 -0.04608181
000150 68 5e 1f bc 7c 24 4e bb 87 1f da 3f 1f 8e 48 40
       -0.009727098 -0.0031454852 1.7040871 3.1336744
000160 d7 02 a1 40 b1 14 f2 40 71 ee 35 41 04 6b 7c 41
       5.0315967 7.565026 11.370713 15.776127
000170 21 3c 9a 41 9f 52 ad 41 70 0c b9 41 3e cb c0 41
       19.27936 21.665342 23.131073 24.09924
000180 37 79 c4 41 12 71 c7 41 2c 30 c9 41 f9 3f ca 41
       24.559187 24.93021 25.148521 25.281237
000190 b3 12 ca 41 b7 56 c9 41 65 78 c7 41 d2 5e c3 41
       25.25913 25.167341 24.933786 24.421299
0001a0 10 7b bb 41 75 e5 ad 41 57 b2 97 41 59 5a 67 41
       23.43509 21.73704 18.96208 14.459558
0001b0 ea c1 20 41 1f 61 9f 40 50 e2 e4 3f 32 2d 03 bd
       10.047342 4.9806056 1.7881565 -0.032025523
0001c0 d4 35 d5 bc a6 9b a0 3f ca 63 3e 40 e7 0c 9e 40
       -0.026026644 1.25475 2.9748406 4.939075
0001d0 6d b4 01 41 39 0d 6f 41 07 e3 99 41 c0 22 b2 41
       8.106549 14.940728 19.235853 22.266968
0001e0 68 88 bf 41 79 4e c6 41 01 56 ca 41 81 33 cc 41
       23.941605 24.788317 25.291994 25.525148
0001f0 08 72 ce 41 ad ba ce 41 5e 66 cf 41 d3 09 d0 41
       25.80568 25.84115 25.924984 26.004797
000200 7e c6 cf 41 63 4a cf 41 38 81 ce 41 4e e3 cd 41
       25.97192 25.911322 25.813095 25.735989
000210 c3 61 cb 41 9f fc c6 41 90 ce be 41 c7 c6 ae 41
       25.422735 24.87335 23.85086 21.84706
000220 1c 83 93 41 1c f8 45 41 0d 14 a1 40 33 b6 f5 3f
       18.439018 12.373074 5.0336976 1.9196228
000230 19 53 47 bc 23 db 56 bd 8d 6b 7f 40 45 a4 ea 40
       -0.012165808 -0.05245508 3.9909394 7.3325524
000240 fe ac 74 41 9a f0 a3 41 c8 27 ba 41 39 e6 c4 41
       15.292234 20.492481 23.269424 24.612413
000250 ab 0f ca 41 aa 82 cd 41 78 34 ce 41 82 9b cf 41
       25.25765 25.6888 25.77562 25.950932
000260 41 81 d0 41 9c 9c d0 41 e7 3b d1 41 b4 fb d0 41
       26.063112 26.07647 26.15425 26.122902
000270 d4 37 d1 41 bd ed d0 41 7a 08 d1 41 0f 64 cf 41
       26.15226 26.116083 26.129139 25.923857
000280 8d 71 cf 41 c9 4c cd 41 26 29 ca 41 b5 e5 c3 41
       25.930445 25.662493 25.270092 24.487162
000290 3a 49 b7 41 ff f1 97 41 ae 22 29 41 a0 82 3d 40
       22.910755 18.993162 10.570967 2.9610977
0002a0 fc 8f ca bc f8 55 f6 3f 41 d5 b9 40 71 f3 3d 41
       -0.02472686 1.9244986 5.807282 11.871934
0002b0 19 f5 99 41 0b 09 b7 41 41 c6 c4 41 de 15 cb 41
       19.244677 22.879416 24.596804 25.385677
0002c0 3c 5a cd 41 b6 85 cf 41 38 38 d0 41 82 d0 d0 41
       25.66906 25.940289 26.02745 26.10181
0002d0 0e 6e d0 41 00 1a d1 41 bf 3e d1 41 d2 6d d1 41
       26.053738 26.137695 26.155638 26.178623
0002e0 68 71 d1 41 c9 0f d1 41 66 29 d1 41 c2 49 d1 41
       26.180374 26.132708 26.145214 26.161015
0002f0 5f ff cf 41 16 04 cf 41 7e b0 cc 41 98 12 c9 41
       25.999693 25.876995 25.586178 25.134079
000300 d3 63 c1 41 8c f8 ab 41 6d 06 69 41 b7 02 a0 40
       24.173742 21.49636 14.564069 5.0003314
000310 8f 4c 96 3f f0 d0 97 40 4f 0f 12 41 fc 1f 85 41
       1.1742114 4.744255 9.128737 16.640617
000320 ff 6a b0 41 50 d2 c1 41 53 05 ca 41 33 39 cd 41
       22.052244 24.227692 25.2526 25.65293
000330 ca 23 cf 41 b8 a2 cf 41 06 fe d0 41 b3 9f d1 41
       25.892475 25.954453 26.124035 26.202978
000340 97 05 d1 41 8e 5e d1 41 4e e4 d1 41 27 ca d0 41
       26.12773 26.17117 26.236477 26.098707
000350 29 42 d1 41 df e0 d0 41 c8 4d d1 41 57 be d0 41
       26.157305 26.1098 26.16298 26.09294
000360 e6 c9 d0 41 a5 ac cf 41 87 d9 cd 41 fe 17 cb 41
       26.098583 25.9593 25.731215 25.386715
000370 e0 6f c4 41 36 31 b3 41 0c ca 80 41 5b 10 a2 40
       24.554626 22.399029 16.098656 5.0644965
000380 4e 96 ce 3f 84 27 c1 40 bf 88 59 41 7d 33 9f 41
       1.6139619 6.0360737 13.595885 19.90014
000390 d1 f3 b9 41 76 56 c6 41 8a 12 cc 41 9a ad ce 41
       23.244051 24.792217 25.509052 25.834766
0003a0 3c a5 cf 41 2c dc d0 41 f0 a8 d0 41 17 82 d1 41
       25.95568 26.107506 26.082489 26.18852
0003b0 32 f4 d0 41 5e 42 d1 41 d5 d8 d1 41 b1 d0 d1 41
       26.119236 26.157406 26.230875 26.2269
0003c0 97 93 d1 41 0d 81 d1 41 59 4f d1 41 6f fe d0 41
       26.197065 26.188013 26.163744 26.124235
0003d0 cf d5 d0 41 b4 32 cf 41 51 58 ce 41 3e c7 ca 41
       26.104399 25.899757 25.793123 25.347286
0003e0 b7 a1 c4 41 d6 91 b2 41 ba 32 74 41 99 82 8f 40
       24.578962 22.321209 15.262384 4.484692
0003f0 d1 43 10 40 83 b5 dc 40 52 73 77 41 4a 53 a4 41
       2.2541392 6.897157 15.465654 20.540668

encoder/0/b f4 [15]
000000 1e 6b 01 3d 06 d3 89 bc 5b d0 b9 3c 7a 6b 05 3d
       0.031596296 -0.016824257 0.02268236 0.0325732
000010 e4 37 cc 3c d2 d8 ec 3c b7 11 06 3d 23 f3 1f 3c
       0.024928994 0.028911982 0.032731738 0.009762558
000020 2f f1 cf 3c 6e 21 81 3c 15 9a c6 3c 11 40 9f bc
       0.02538356 0.01576301 0.024243394 -0.019439729
000030 b9 a1 2e 3d ff dc ca 3c e9 36 f0 bc
       0.0426347 0.024763582 -0.029323058

decoder/0/W f4 [784, 15]
000000 d0 71 a5 3e 54 83 c1 bc c9 de 4c 3d 71 56 ae bd
       0.32313395 -0.023622192 0.050017152 -0.08512581
000010 fa 3e a8 3d a3 0d 95 be 03 a4 81 3e 6f 74 00 3e
       0.08215137 -0.29111966 0.25320444 0.12544416
000020 d6 31 22 bd 27 16 40 3d 94 0e bc be 30 b9 81 3d
       -0.03959831 0.046896126 -0.36729872 0.0633415
000030 4b 09 59 ba 81 94 d4 bd 1c 0d fa be 89 ca 06 bf
       -0.0008279278 -0.10379887 -0.48838127 -0.52652794
000040 6a 6c 9a be c0 b3 ec 3d 84 6b 3f 3e 3f 70 6e be
       -0.30160838 0.11557722 0.18693358 -0.23285006
000050 26 d3 b1 be ea 77 70 bd 06 4d 84 be b2 d1 56 bd
       -0.34731406 -0.05870811 -0.25840014 -0.052446075
000060 d0 2d 13 be fd a0 16 3e 6d 40 af bd 7e b5 37 3e
       -0.14372945 0.1470985 -0.0855721 0.17940328
000070 de a1 9b 3d 1e b5 18 3e 80 7a b0 41 d9 9d af 41
       0.07599233 0.1491284 22.059814 21.952074
000080 41 dc af 41 9d 42 b5 41 1f a8 b0 41 10 02 b2 41
       21.982546 22.657526 22.08209 22.251007
000090 11 9e b0 41 b9 fa af 41 0a 2d b7 41 ee 65 b4 41
       22.07718 21.997423 22.896992 22.54977
0000a0 9f cd b1 41 62 77 b0 41 a4 a3 b4 41 df d0 b2 41
       22.2254 22.058292 22.579903 22.351988
0000b0 6c c5 ab 41 5b e5 b0 41 48 40 ae 41 f7 c0 b0 41
       21.471397 22.11199 21.781387 22.094221
0000c0 df f5 b2 41 83 ba ae 41 74 92 af 41 a9 9b b1 41
       22.370054 21.84107 21.94651 22.201006
0000d0 5b 94 b5 41 73 53 af 41 8d 29 b2 41 73 0f b4 41
       22.69744 21.915747 22.270288 22.507544
0000e0 1c e2 ad 41 3c 1d b0 41 7f fc ae 41 09 50 af 41
       21.735405 22.014275 21.87329 21.91408
0000f0 dd 10 69 bc cf fa ad 3d 84 91 20 bd f5 27 e9 bd
       -0.014225212 0.084951036 -0.039201275 -0.11384574
000100 6d c5 8d 3e 2f 3e 5a 3e d8 47 87 3c 72 68 d1 be
       0.27689686 0.21312784 0.01651375 -0.40899998
000110 43 20 94 be 74 8f e8 3d fa 99 c3 bd ef 22 bb be
       -0.28930864 0.113554865 -0.09550853 -0.3655009
000120 03 ee e4 3e 5a cc 17 be fa b1 9c be 6b c0 de 3d
       0.4471284 -0.14824048 -0.30604535 0.108765446
000130 42 6d aa be 09 c4 00 bd 03 d3 0d be 26 99 71 bc
       -0.33286482 -0.031436954 -0.13850026 -0.014745986
000140 e4 8a 69 3e 5d 49 ab 3e 31 69 c9 be 1c 73 ba be
       0.22806889 0.3345441 -0.39338067 -0.36415946
000150 57 b5 c2 bc 97 a5 90 bd 68 ec ab be 99 04 cd bd
       -0.02376811 -0.07062834 -0.335788 -0.100106426
000160 9e 2c eb bd e0 b3 c6 3e e5 54 69 3c 19 23 47 3e
       -0.114831194 0.3880911 0.014241432 0.19446982
000170 bc 26 b3 be 83 03 e4 bb 63 ca a4 3e 42 8f d7 bd
       -0.3499049 -0.0069584264 0.3218566 -0.10525371
000180 19 0e 79 3e bd ce 6a 3a 03 45 1c bd 8a 4c be bd
       0.24321784 0.0008957198 -0.038151752 -0.092919424
000190 02 5c 95 bd 32 96 89 be ce 64 35 bc a3 0a d3 3c
       -0.0729294 -0.26872402 -0.011071397 0.025761908
0001a0 b9 ad d6 bd 06 81 b2 41 60 a7 b0 41 8f 25 b0 41
       -0.10482354 22.313 22.081726 22.01834
0001b0 a3 81 b2 41 03 fa af 41 09 90 b0 41 2f d7 b2 41
       22.3133 21.997076 22.07033 22.35507
0001c0 7f c0 b0 41 76 fa ae 41 af c6 b3 41 07 6a b2 41
       22.093992 21.872295 22.472013 22.301771
0001d0 88 a8 b1 41 5e 7c ae 41 c1 eb b0 41 53 2c b3 41
       22.20729 21.810726 22.115114 22.396643
0001e0 99 bb f9 3d 2a d6 fa be e6 eb 9e be 1d 38 6c 3c
       0.121939845 -0.4899152 -0.3103935 0.014417675
0001f0 67 70 c6 bd 4a b3 28 3e 14 37 a9 3d 58 3b 8d 3e
       -0.09689408 0.16474643 0.082624584 0.27584338
000200 ea 39 1e 3c a3 7e 0f 3d 3a 3b 96 3e bb 98 37 bf
       0.0096573625 0.03503288 0.2934206 -0.71717423
000210 0e f8 11 3e 9b 79 e8 3d 7d 23 d7 be df 89 a1 3e
       0.14254782 0.113513194 -0.42019263 0.315505
000220 22 0e 45 be 21 5c 15 be 86 bf 27 3e ae d2 a7 be
       -0.19243672 -0.14585926 0.16381654 -0.32777923
000230 11 ac 69 bd 8b 2d 19 3e be 85 2e 3d a7 13 05 3e
       -0.05704886 0.1495878 0.042608015 0.12995778
000240 7f a4 ab 3e 9b 9c 0f be 93 ab 70 be c4 2e ec bd
       0.33523938 -0.14024584 -0.2350295 -0.11532357
000250 5c c8 b2 be b3 96 2c 3e 2a af b0 41 35 fe ad 41
       -0.34918487 0.16854362 22.08553 21.749125
000260 81 cc b1 41 f5 ec b1 41 59 71 af 41 67 30 b2 41
       22.224855 22.240702 21.930346 22.273634
000270 f5 7d b0 41 5b 4b b2 41 8a 3c b4 41 90 ec b1 41
       22.061502 22.286795 22.52956 22.240509
000280 fd 9a af 41 ba 33 b4 41 7a 97 b2 41 73 cf b1 41
       21.950678 22.525257 22.323963 22.226294
000290 95 b5 b2 41 d5 b3 b3 41 2e 94 b0 41 d1 e6 b0 41
       22.338663 22.462809 22.072353 22.112703
0002a0 13 6b af 41 7b 9d b1 41 c7 0b b3 41 69 5a b0 41
       21.927282 22.201895 22.38075 22.044146
0002b0 ff c1 b1 41 79 8e b2 41 09 f9 b4 41 bf aa b4 41
       22.219725 22.319567 22.6216 22.583372
0002c0 2e e7 ae 41 14 a9 b2 41 07 b5 b1 41 70 38 b0 41
       21.86288 22.332558 22.213392 22.027557
0002d0 8f f3 d1 bc 62 21 be be b0 af ca be c7 95 11 bc
       -0.025628833 -0.37134844 -0.39587164 -0.008885807
0002e0 4c 19 0a 3e 0d 2b 7c 3e da 54 8d 3e f6 80 8f be
       0.13486212 0.24625798 0.276038 -0.28028077
0002f0 3e 44 c1 be d4 a8 20 bd fd 03 8f 3e e7 26 73 3d
       -0.37747377 -0.039223507 0.2793273 0.059363272
000300 fa fb 4f be e0 c8 8e 3b 83 22 9f 3e 0c 9a e3 3d
       -0.20310965 0.0043574423 0.31081018 0.111133665
000310 a3 8e 53 be f2 87 03 3e 53 4f 82 3e 58 17 85 bd
       -0.2065988 0.12844828 0.25451145 -0.06498593
000320 c8 75 ca bd 32 31 b8 3e 13 ab 9f bc 26 94 4d be
       -0.09885746 0.35975033 -0.019490754 -0.20076045
000330 75 d0 6b be 3f 1a cf bd 62 bf 39 3e 44 06 59 be
       -0.23028739 -0.10112428 0.18139413 -0.21193796
000340 b3 10 05 bf 03 ac a3 3e 2a b8 b0 41 e1 f5 af 41
       -0.51978606 0.31967172 22.089924 21.995058
000350 29 ce b0 41 97 88 b2 41 91 1b b3 41 7b 7e b0 41
       22.100664 22.316694 22.38846 22.061758
000360 e3 98 b3 41 6d 3c ad 41 a3 fc b1 41 4f bd af 41
       22.449652 21.654505 22.248358 21.967436
000370 48 e9 b3 41 ac 37 af 41 d0 04 b3 41 85 fc af 41
       22.488907 21.902184 22.37735 21.9983
000380 93 88 b2 41 33 12 98 3c 2c 10 87 bd 14 b0 f8 bd
       22.316687 0.018563366 -0.065948814 -0.12142959
000390 bf dc 95 be bc 52 01 be 4e f9 64 be a5 ad b6 3d
       -0.29269978 -0.12629217 -0.22360727 0.08919839
0003a0 24 6c 7c bd a8 cb aa 3d 0a c6 c7 be 7d f5 05 3e
       -0.06162657 0.083396256 -0.3901828 0.13081928
0003b0 9f 41 38 3e 3e 0b 95 be 9b 34 12 bd fc ab 15 bd
       0.17993782 -0.2911014 -0.0356947 -0.03654097
0003c0 c7 fe 10 bf 68 5b 73 3e c5 00 92 be e6 43 8b be
       -0.5663876 0.23765337 -0.28516212 -0.2720024
0003d0 13 e6 9c 3e 80 92 d2 bd bb d9 62 be e2 ac 1d 3e
       0.30644283 -0.10281849 -0.2215337 0.15397981
0003e0 d9 47 b3 3d 5e 5a a1 3d 43 ff 19 3e 83 b5 8c 3d
       0.08753938 0.07878564 0.15038781 0.06870558
0003f0 f3 22 31 3e 66 b7 e5 be 23 49 e8 bd 2b c7 b2 41
       0.17298488 -0.44866484 -0.11342075 22.34725

decoder/0/b f4 [784]
000000 23 11 f8 3b ce ea 91 3c fe d7 99 41 c7 f2 98 41
       0.007570402 0.017812159 19.230465 19.118544
000010 0e ca 6f 3b a8 d1 3f ba 5c aa 88 bd 7f 01 9a 41
       0.003658894 -0.0007317313 -0.066731185 19.25073
000020 e6 99 d4 bb 92 0b ff bc 6c af 99 41 01 a7 99 41
       -0.0064880727 -0.031133447 19.210655 19.206545
000030 41 7c 9a bd 8b 7c d9 ba be ba 99 41 42 8a 80 3c
       -0.07543231 -0.0016592903 19.216183 0.015690926
000040 0e 43 9e 3c 12 9d 99 41 95 ab 99 41 79 c8 61 bd
       0.019319084 19.201694 19.20878 -0.055122826
000050 ce d4 99 41 e5 ef 0b 3b dc aa 99 41 20 20 c6 bc
       19.228909 0.0021352705 19.208427 -0.02418524
000060 69 ba 8d 3c 37 08 45 bc a3 28 18 3c 77 da a2 3b
       0.017300801 -0.012025884 0.009287032 0.0049698907
000070 29 9d 99 41 31 d7 99 41 ad ba 91 bb 51 b1 31 3c
       19.201738 19.230074 -0.0044473023 0.010845498
000080 f6 a8 99 41 cb ae 7e 3c 4c a6 99 41 e8 a6 99 41
       19.2075 0.015544604 19.2062 19.206497
000090 fb b8 99 41 83 fe 17 3c 31 fa 8d 3c 55 bb 99 41
       19.215322 0.009276989 0.017331215 19.21647
0000a0 c2 cf 99 41 e7 11 9a 41 d5 f7 69 3c 2a 38 0d bc
       19.226444 19.258741 0.014280279 -0.008619348
0000b0 5b 30 25 3c 9f ec 62 3b 13 b5 99 41 6b 3d c0 3b
       0.01008233 0.00346259 19.213415 0.0058666966
0000c0 70 d4 99 41 e5 23 54 3c cf c6 99 41 e1 a7 99 41
       19.22873 0.012948011 19.222075 19.206972
0000d0 c8 02 b8 bc 88 b4 99 41 12 e8 99 41 25 70 9b 3c
       -0.022462264 19.21315 19.238316 0.018974373
0000e0 68 a9 99 41 ee de 99 41 b5 b6 72 3c 92 b9 99 41
       19.207718 19.233852 0.014814069 19.21561
0000f0 75 96 58 3c 79 a2 99 41 17 68 f3 bc 0a d5 5a 3c
       0.0132194655 19.204332 -0.02971272 0.0133564565
000100 a9 a0 99 41 d5 a5 99 41 44 f6 01 bd aa b4 04 3b
       19.203447 19.205973 -0.031728998 0.0020249286
000110 12 a6 99 41 60 24 bf bc 89 f1 99 41 3d 30 9b bd
       19.206089 -0.023332775 19.242937 -0.0757756
000120 5c 67 9a bd cb cd 99 41 65 01 9a 41 39 a8 99 41
       -0.075392455 19.225485 19.25068 19.20714
000130 7f 09 55 3c f2 86 76 bd 15 d0 05 3c d7 a6 86 3c
       0.013002752 -0.060187288 0.008167286 0.016436977
000140 ce 93 98 41 00 b9 23 ba 2a a4 99 41 56 ae 99 41
       19.07217 -0.00062455237 19.205158 19.210125
000150 57 4d 07 bd fa a2 99 41 8c c4 71 3c 95 ca 99 41
       -0.03303274 19.204578 0.014756333 19.223917
000160 62 22 2d ba 4a ae 99 41 74 94 e0 bc 3a 86 88 3c
       -0.00066045497 19.210102 -0.027414538 0.016665567
000170 8e 36 8d bb 25 06 9a 41 6a b6 99 41 22 ad 99 41
       -0.004309482 19.253 19.21407 19.209538
000180 79 a3 99 41 f2 13 9c ba 99 b5 99 41 bf 3a 3f bd
       19.20482 -0.00119078 19.21367 -0.046686884
000190 93 e1 99 41 65 3e 35 3c f5 d5 99 41 2d 80 7c 3c
       19.235144 0.011062239 19.229471 0.015411419
0001a0 ac 33 78 3c 9c d7 93 bc 13 c4 99 41 fc 9e 99 41
       0.015149038 -0.018047146 19.22074 19.20263
0001b0 ed eb 99 41 72 1c 9a 41 c9 a2 99 41 54 a4 99 41
       19.240198 19.26389 19.204485 19.205238
0001c0 99 f3 99 41 66 c1 99 41 2e 75 0e 3c 90 65 0f bb
       19.243944 19.219433 0.00869493 -0.0021880604
0001d0 47 db 99 41 81 ed 64 3c 5a a1 99 41 f2 04 17 bc
       19.232069 0.013972641 19.203785 -0.009217488
0001e0 a3 67 e1 3b f9 da 88 bb e0 00 51 bc 0d a1 99 41
       0.0068788095 -0.004176494 -0.012756556 19.203638
0001f0 d7 b3 84 3c d9 f0 f3 bc 3f dd 7d 3c b2 77 46 bd
       0.016199036 -0.029777931 0.015494644 -0.048453994
000200 62 b7 17 3c bd bd 99 41 22 3b 64 bb d9 71 4d bc
       0.00926003 19.217646 -0.0034825285 -0.01253935
000210 cb dd 99 41 6b a9 99 41 87 c5 99 41 86 b7 99 41
       19.233297 19.207724 19.221449 19.214611
000220 3c 59 a6 bc cb 9b 96 3c 49 03 9a 41 4c d8 99 41
       -0.020306222 0.018384835 19.251604 19.230614
000230 7b cb 19 bd d0 aa 99 41 6d a0 c6 3b 4b 79 0e bc
       -0.03754757 19.208405 0.0060616047 -0.008695911
000240 75 03 27 bb 30 51 9a 41 cd d8 99 41 9b f2 1a bd
       -0.0025484238 19.289642 19.23086 -0.037829023
000250 ce a6 99 41 be 97 6b 3c c0 ba de bc 66 ba 99 41
       19.206448 0.01437944 -0.027188659 19.216015
000260 f2 84 28 3c c9 79 c1 3b 6c 0a 9a 41 8f f2 9c 3c
       0.010285603 0.0059044105 19.255089 0.01915863
000270 42 da 99 41 d6 ee 80 bc bf b6 99 41 8f 30 ed ba
       19.231571 -0.015738886 19.214231 -0.0018096137
000280 1e 27 9a 41 12 9e 99 41 48 ec 2d bd a6 f7 99 41
       19.2691 19.202183 -0.042461663 19.245922
000290 c3 d5 ba 3b 3b b8 99 41 bc f6 99 41 07 b6 99 41
       0.005701752 19.214956 19.245476 19.21388
0002a0 27 ad 99 41 8b a2 99 41 c8 88 99 41 21 d3 b6 bc
       19.209547 19.204367 19.191788 -0.022317471
0002b0 5c 8f 99 41 2e f4 99 41 da 02 97 41 14 a8 99 41
       19.195 19.244228 18.876392 19.20707
0002c0 d1 ba 99 41 ba a7 99 41 c6 74 99 41 1b b5 99 41
       19.216219 19.206898 19.182018 19.21343
0002d0 24 af 99 41 89 11 71 3c 47 c0 99 41 f3 4b 9a 41
       19.210518 0.014713653 19.218885 19.287085
0002e0 77 b9 99 41 f7 ee 58 3c 5b bd 31 3c 01 f1 99 41
       19.215559 0.013240567 0.0108483685 19.242678
0002f0 c5 e5 99 41 35 42 99 41 89 5e 1a 3c b6 ca 93 41
       19.237192 19.157328 0.009421953 18.47398
000300 3d b9 99 41 f9 60 99 41 37 da 99 41 08 7d 95 3c
       19.215448 19.17235 19.23155 0.018248096
000310 20 f4 99 41 14 eb 99 41 d7 fc 4d 3c 26 df 99 41
       19.244202 19.239784 0.012572489 19.23396
000320 d0 a7 84 3c cb 91 40 3a 4b b0 8a bd 6f c6 99 41
       0.0161933 0.00073459436 -0.067719065 19.221891
000330 63 01 9a 41 c1 ae 99 41 65 4e 3a bd b5 07 56 3c
       19.250677 19.21033 -0.04548492 0.013063361
000340 1c f2 99 41 38 cc 9e 3c 6c c0 99 41 6a a4 99 41
       19.243217 0.019384488 19.218956 19.20528
000350 fb fc 99 41 0f 17 9a 41 cc 48 a1 bd 96 b7 99 41
       19.248526 19.26126 -0.07875213 19.214642
000360 44 f6 99 41 d5 c9 c4 3b 12 74 eb bc 43 b4 99 41
       19.245247 0.0060055056 -0.02874187 19.213018
000370 b3 f6 99 41 b5 b0 99 41 fd 90 56 3a c6 bf 99 41
       19.245459 19.211283 0.0008185057 19.21864
000380 9c d2 99 41 29 4e 0e ba fe fc 99 41 da c9 c4 3b
       19.227837 -0.0005428517 19.248531 0.006005508
000390 ed 02 9a 41 21 40 19 bd 44 e4 99 41 a2 e3 99 41
       19.251429 -0.037414674 19.236458 19.236149
0003a0 79 05 8a 3c e3 37 99 41 ee d0 99 41 bf 67 99 3c
       0.016848313 19.152288 19.227016 0.018726228
0003b0 ed 25 9a 41 20 e5 99 41 0a ce 99 41 b2 b9 99 41
       19.268518 19.236877 19.225605 19.215672
0003c0 45 d5 99 41 36 a5 48 3c cb 76 f0 bb 58 99 13 3c
       19.229136 0.012246421 -0.00733838 0.009008728
0003d0 58 77 d7 3b 50 2a 80 3c 3c 4d fe bc c8 2f 91 bd
       0.006575506 0.015645176 -0.031042688 -0.07089192
0003e0 12 61 18 bd 7a 9c 99 41 c0 f5 99 41 b7 e0 a8 3c
       -0.03720195 19.201405 19.244995 0.020614965
0003f0 0b ac 99 41 cf 18 7a bb 0f 30 5c bd 54 72 8f 3c
       19.209005 -0.003816176 -0.05375677 0.01751057

encoder/0/W f4 [15, 784]
000000 22 fe a8 3c 39 b6 8e 3b 6d 6e 07 3d 52 85 74 3c
       0.020628992 0.0043552187 0.033064295 0.014924364
000010 d8 63 f5 3c 2d 4c 32 bb f8 cc 24 bd 67 a3 99 ba
       0.029954836 -0.0027206049 -0.040234536 -0.0011721671
000020 ad 41 25 3c 2a d8 13 3d b5 ef b3 bd 6b 38 88 3d
       0.010086459 0.036094822 -0.08785955 0.06651386
000030 33 3c 6e bd 82 d1 67 bd 2f 5f 88 3c 96 3d 74 bd
       -0.05816288 -0.056596287 0.01664695 -0.059629045
000040 79 1f 79 3c b6 c0 cc bc 27 50 21 bc 6f dd af 3b
       0.015205258 -0.024994235 -0.00984577 0.005366973
000050 a9 5d 91 3c 94 ef 9d bd 89 6e 32 bd 21 8b 14 3d
       0.017744856 -0.077117115 -0.043562446 0.036265496
000060 bd 2a da 3b 3b e0 b5 3c 6f ee 8a bd 19 74 57 bc
       0.006657927 0.022201648 -0.06783759 -0.013150238
000070 b8 06 3c bb 8a 8d 54 bd 13 7b b3 bc ba da 92 3b
       -0.0028690528 -0.051892795 -0.021909272 0.0044816406
000080 dd 65 a0 3d dd 1b ed 3d f3 db 00 bc ed 9e 3a 3e
       0.07831929 0.1157758 -0.00786494 0.18224688
000090 68 ad 0e 3e 29 ad 93 bd 47 0e 91 3c 6e 3f 36 be
       0.13933337 -0.07210762 0.017707003 -0.17797634
0000a0 96 e3 ab be f9 51 a8 3b e7 11 74 3d 8c 7a aa 3e
       -0.33572072 0.005136725 0.059587386 0.3329662
0000b0 80 29 7f 3e 67 33 f3 3d 6a c5 8d bd 01 66 0d 3d
       0.24918175 0.118750386 -0.06922419 0.034521107
0000c0 f6 c0 8d 3e 58 74 5c 3e ad 8a 28 3e 7c 76 d0 3d
       0.2768628 0.21528757 0.1645915 0.10178849
0000d0 12 b7 0e bd c9 ef 39 bc e7 f8 70 3c b3 2c 98 bc
       -0.03484256 -0.011348673 0.01470778 -0.018576002
0000e0 ae 71 96 3a ac b0 6e 3c d8 f2 51 bd 96 ce d9 bc
       0.0011477971 0.014568489 -0.051256984 -0.026587766
0000f0 87 03 0b 3e ef 83 87 3d 64 bd 75 3d 39 8b 63 3e
       0.13575564 0.06616961 0.05999507 0.22221078
000100 2e 45 35 3e 37 51 b3 bc 23 0a e1 bd 7a f6 24 3e
       0.17702171 -0.021889312 -0.109882616 0.16109648
000110 5e 8a 0d 3e 2e 4f 9c bb 7a 7c 7a bc 6f b7 51 3e
       0.13822314 -0.004770181 -0.015288467 0.2048013
000120 0f fb 73 3e 9e af 11 3e 30 a2 86 3d 70 b6 f6 3d
       0.2382624 0.14227149 0.065739036 0.12046516
000130 df b8 17 3e 64 92 b1 3d db 4a 49 3e c2 cb 2b 3e
       0.14816616 0.086705 0.19657461 0.16776946
000140 80 83 30 3e 0a 90 14 3e dd 51 0e 3d fe b9 0b 3c
       0.17237663 0.14508072 0.03474604 0.008528231
000150 91 4c 4f 3c 11 23 9e 3c f3 04 71 bd f8 f4 40 bd
       0.012652532 0.01930383 -0.05884261 -0.04710862
000160 ff 01 e2 bd 1e 12 48 bd 69 e3 64 3e fc 55 e9 3d
       -0.11035537 -0.048845403 0.22352375 0.11393353
000170 93 e8 2b 3e 77 ad 55 3d ef 80 ad 3d 37 28 97 3d
       0.16787939 0.052167382 0.08471858 0.07380717
000180 3a 52 93 3c ca 8b 9e 3d 3c e7 66 3d cf e5 6e 3d
       0.017983545 0.077415064 0.056372866 0.05832463
000190 e7 11 f7 3d 7b c9 40 3e 97 a1 fd 3d 82 4e c5 3d
       0.120639615 0.18826859 0.123843364 0.09634115
0001a0 0e 04 fc 3d 32 63 64 3e c4 70 44 3e 31 2f 77 3c
       0.12305461 0.22303465 0.19183642 0.015086935
0001b0 db a0 40 3b a6 a3 e1 3d 94 b4 cb 3d b2 8c 18 bc
       0.0029392752 0.110175416 0.09946552 -0.009310888
0001c0 0a 45 13 3c 17 56 f1 bc 27 14 a8 bd a7 ef c0 bc
       0.008988628 -0.029459996 -0.08206969 -0.023551775
0001d0 1d 4c 39 be 11 ee 4f 3d 5f 59 11 bd 2c 8a 64 bd
       -0.18095441 0.050764147 -0.03548562 -0.055795833
0001e0 6c bb b2 bd 99 24 74 bd e5 3e 9f bd ce 42 2b bc
       -0.08727154 -0.059605215 -0.07775668 -0.010452939
0001f0 81 64 6b bd 0d 80 de 3c 51 e6 fb bb 48 aa 28 bd
       -0.057468895 0.027160669 -0.007687368 -0.041178018
000200 df 78 02 bd 64 00 d3 bc a2 60 36 3b 79 45 98 3c
       -0.031853553 -0.025757022 0.0027828594 0.018587815
000210 d7 ee 04 3e 7d 7f 29 3e 9a cf c0 3d 30 c1 23 bd
       0.12981735 0.16552539 0.09414597 -0.03997916
000220 74 fb 61 bd cc ad 54 3d 58 5b 61 3d 27 c6 27 bc
       -0.055171445 0.051923558 0.055018753 -0.010240114
000230 51 6c 3d bd df fb 75 bd a5 fc 30 3e 6e fe e7 3d
       -0.046245877 -0.060054656 0.17283876 0.113278255
000240 6a 35 e1 bd df 89 aa bc 3c 98 9d bd d9 f1 ea bd
       -0.10996516 -0.020817695 -0.07695052 -0.1147191
000250 60 4f dd bd a2 25 c7 bd 9c 2f 39 bd 6d 45 4b bc
       -0.10806155 -0.09723975 -0.04521142 -0.012406689
000260 63 55 c1 bd bb 14 9e bd 58 7f 9e 3c f2 49 95 bd
       -0.09440114 -0.07718798 0.019347832 -0.072894946
000270 d0 04 3c bd 02 94 76 bd 2c 06 31 bd 7c 57 e7 bc
       -0.045903027 -0.060199745 -0.043218777 -0.028239958
000280 67 cc b0 3c 29 35 09 3d c5 a6 99 3d 77 37 80 bc
       0.021581842 0.033497963 0.07502512 -0.015651448
000290 8c 1b 01 bd a2 77 03 bd b6 7e 9e 3d a7 00 ab bd
       -0.03152041 -0.032096513 0.07739012 -0.08349734
0002a0 21 2e a5 3c f1 a5 34 3d 75 58 ba bd 7b d6 d8 3c
       0.020163598 0.044103567 -0.09098903 0.02646946
0002b0 99 b6 00 be 05 fb c7 bd f1 17 09 be f3 cc a9 bd
       -0.12569655 -0.09764675 -0.13388039 -0.08291044
0002c0 3f ab 1b bb 3e 48 3b bd 65 58 6a bd c1 09 73 bd
       -0.0023753194 -0.045723192 -0.057213206 -0.059335474
0002d0 b0 2b aa bb 15 8e a5 bc 94 a7 d3 3a e4 b3 a7 bd
       -0.0051931962 -0.020209352 0.0016147965 -0.08188608
0002e0 d3 2c a9 bc de 86 2a 3d d4 10 bd bb 48 7e 22 bd
       -0.020651257 0.041632526 -0.0057698283 -0.039671212
0002f0 e0 4d ad bc 28 a3 e3 bd 98 dc 38 bd f6 a4 13 3d
       -0.021155298 -0.11115104 -0.04513225 0.03604599
000300 4e 71 f3 bb d5 c9 f2 bd 95 dc 39 be fa 75 6f be
       -0.0074292785 -0.11854903 -0.18150552 -0.23384848
000310 16 b8 c7 bc a3 fb f6 bc 0a 46 09 be 25 d5 6e be
       -0.024379771 -0.030149287 -0.13405624 -0.23323496
000320 61 07 16 be 0c bc 23 bd 93 97 98 bd 00 b4 74 bd
       -0.14651252 -0.039974257 -0.074507855 -0.059741974
000330 02 5c e2 bd d7 00 7e bd 3b 63 e2 bd b7 e4 8c bd
       -0.11052705 -0.06201252 -0.11054083 -0.068795614
000340 b6 8e 42 bd 9c 29 81 bd 60 7d 48 bd 15 9a f2 bc
       -0.04749938 -0.063067645 -0.048947692 -0.029614488
000350 2d 66 19 3d 34 b4 3d bc cb c2 95 bd 31 8e f7 bc
       0.037450958 -0.011578608 -0.073125444 -0.03021917
000360 d7 29 8a bd 6d 45 9b bd 72 e6 1c be cf 4b 92 bd
       -0.067462616 -0.07581601 -0.15322283 -0.071433656
000370 73 9a c0 bd 6b e2 d3 bb 86 b2 50 bb 10 45 00 be
       -0.09404459 -0.0064662 -0.003184469 -0.12526345
000380 fa bf 26 3c c4 23 1f 3e ef 8a b7 3d 5d 93 bb bb
       0.010177607 0.15540987 0.08962046 -0.005724354
000390 e0 35 3f ba 96 5c bb bd 9a ad 8c bc 92 d0 b4 bd
       -0.00072941 -0.09148519 -0.017172623 -0.08828844
0003a0 a4 58 91 bd 84 7f 12 bd 3f 5d fb bd c8 03 07 bd
       -0.07096985 -0.03576614 -0.12273645 -0.03296259
0003b0 bf 96 2e bd 28 46 a2 bc c5 65 d8 bb a6 bc cb bc
       -0.04262423 -0.019808844 -0.0066039287 -0.024870228
0003c0 3a 89 8b bd 14 7c 6e bc 3d 5c 0d 3d 87 27 2e bd
       -0.06813283 -0.01455595 0.034511793 -0.042518165
0003d0 7c 57 df bc b2 c6 81 bd ee 01 ca bd 9a 06 90 bc
       -0.027263395 -0.06336726 -0.09863649 -0.017581273
0003e0 14 b8 52 bd ac 32 02 3d 76 f1 1d 3e 64 95 ae bd
       -0.05144508 0.031786606 0.15424141 -0.08524588
0003f0 58 e9 e0 3d 61 49 dc 3d 05 e6 fd 3d c1 22 1e 3c
       0.10982007 0.107561834 0.12397388 0.009651841

decoder/1/b f4 [784]
000000 4f bf c2 41 97 85 a3 3c 05 7f 15 3d 9a c4 9d 3d
       24.343412 0.019961162 0.03649809 0.077035144
000010 18 81 c2 41 cd bf 90 3c 0e 64 c2 41 67 d7 33 3d
       24.313034 0.017669583 24.298855 0.043906596
000020 52 5f c2 41 bd 6b c2 41 ac 45 e8 3c 4e 22 a8 3c
       24.296543 24.302607 0.028353535 0.02052417
000030 31 3f c2 41 b7 aa c2 41 fe ed a0 3c 34 9c c2 41
       24.280855 24.333357 0.019644734 24.326271
000040 e6 a7 c2 41 e6 86 86 3c 36 40 ce 3c f2 91 c2 41
       24.331982 0.016421746 0.025177103 24.321262
000050 5f 60 2a 3d a1 c8 c2 41 45 ca 84 3c d6 a4 c2 41
       0.041595813 24.347963 0.01620973 24.330486
000060 f0 ff c2 41 a3 a1 c2 41 af 92 c2 41 c6 e4 c2 41
       24.37497 24.328924 24.321623 24.361706
000070 61 72 b2 3c 0c a9 40 3c bb 3d c2 41 38 f4 c2 41
       0.021783056 0.011759054 24.280142 24.369247
000080 81 96 ad 3c 9f a9 c2 41 91 1b a4 3c eb 47 2c 3d
       0.02118993 24.332823 0.020032676 0.042060774
000090 2e 0e 1d 3d 38 09 c3 41 01 52 17 3c b5 bb 81 3c
       0.0383436 24.379501 0.00923586 0.015836576
0000a0 ec 50 7c 3d 4d 30 5c 3c 49 58 c2 41 ec fc c2 41
       0.06160061 0.01343925 24.293108 24.373497
0000b0 7d 80 c2 41 7a e5 c2 41 b2 ef 9d 3c 0c c3 c2 41
       24.312738 24.36205 0.019279335 24.345238
0000c0 4b 5b 4f 3d 40 87 c2 41 4b f3 6b 3c bf 70 fa 3c
       0.050624173 24.31604 0.014401267 0.03057134
0000d0 14 91 c2 41 e2 08 dd 3c 53 47 39 3c 00 dc c2 41
       24.320839 0.026981775 0.011308509 24.357422
0000e0 54 f2 af 3c b7 ed 33 3d 18 04 c3 41 4c aa 29 3d
       0.021477856 0.043927874 24.376999 0.041422173
0000f0 60 fb c2 41 32 11 70 3c 66 69 c2 41 4b 00 84 3c
       24.372742 0.014652537 24.301464 0.016113421
000100 d8 82 93 3c 34 46 0c 3d 38 d8 c2 41 3c bb c2 41
       0.018006727 0.03424664 24.355576 24.341423
000110 a3 0d bc 3c 20 64 c2 41 ae f5 64 3c fb 78 c2 41
       0.022955721 24.29889 0.01397459 24.309072
000120 5e 72 c2 41 35 33 73 3b ff b3 8b 3c 8b bf 65 3c
       24.305843 0.003710938 0.017053602 0.014022718
000130 91 07 c3 41 48 9d c2 41 bb c5 c2 41 56 14 82 3c
       24.378695 24.326797 24.346548 0.015878838
000140 09 2a 40 3d a1 00 c3 41 7a 40 7e 3c 5f 47 0a 3c
       0.046915088 24.375307 0.015518302 0.008439868
000150 c3 6e c2 41 8f cf 31 3c e7 bc c2 41 66 d6 03 3d
       24.304083 0.0108527085 24.342237 0.03218689
000160 8d 7f c2 41 61 0e 95 3c a4 d1 c2 41 3b de 36 3c
       24.31228 0.018195333 24.352364 0.011161382
000170 c3 8c c2 41 6e cc 82 3d c8 38 f9 3c 1f 36 95 3c
       24.318731 0.06386648 0.030422583 0.018214284
000180 57 00 b7 3c dd b2 c2 41 41 2c 64 3d 64 98 c2 41
       0.02233903 24.337336 0.055706266 24.32441
000190 dc 02 57 3d a7 f0 c2 41 7d df 28 3d a4 f8 c2 41
       0.05249296 24.367506 0.04122876 24.371407
0001a0 e2 8d 45 3c ad a6 c2 41 13 a6 12 3d 82 15 c2 3c
       0.012057753 24.331385 0.035802912 0.023691896
0001b0 e5 6b 2e 3c 62 9d ab 3c 26 a3 c1 3c 4b 58 b1 3c
       0.010645841 0.02094907 0.023637366 0.021648547
0001c0 2e 54 2f 3c 49 d6 9a 3c 16 76 c2 41 0d d7 c2 41
       0.010701222 0.018901007 24.30766 24.355005
0001d0 e3 96 4d 3c ad b3 c2 41 bf 72 c2 3c 83 fc c2 41
       0.012548181 24.337732 0.023736356 24.373297
0001e0 6e 25 83 3c f9 cd c2 41 90 6c c2 41 3d 33 5f bb
       0.016009059 24.350573 24.303009 -0.003405764
0001f0 6b 1f 2e 3c 63 8b c2 41 85 64 c2 41 23 71 c2 41
       0.010627608 24.31806 24.299082 24.305243
000200 26 77 c2 41 bb 32 9a 3c 6f ab c2 41 72 cb c2 41
       24.308178 0.018823018 24.333708 24.349339
000210 a3 13 21 3d 7a e5 87 3c d4 e2 c8 3b 93 3d a0 3c
       0.039325368 0.016588915 0.0061305556 0.01956061
000220 73 d4 c2 41 6d 07 c3 41 ea d2 a1 3c 2b f8 32 3d
       24.353735 24.378626 0.019753892 0.043693703
000230 fc 94 c2 41 25 74 b4 3c 88 f8 c2 41 07 df c2 41
       24.322746 0.022028038 24.371353 24.3589
000240 5d f4 c2 41 77 89 51 3c 86 48 a2 3c 12 a9 c2 41
       24.369318 0.012789122 0.019809972 24.332554
000250 86 b5 dc 3c 6f 50 c2 41 ea 9d c2 41 aa 75 f4 3c
       0.026942026 24.289274 24.327106 0.029841263
000260 83 ac c2 41 59 aa c2 41 27 45 30 bc e9 b9 42 bc
       24.334234 24.333178 -0.010758675 -0.011885145
000270 4f e6 17 3b 5e cd c2 41 72 e2 5c bc f0 d6 c2 41
       0.0023178046 24.350277 -0.013481723 24.35495
000280 41 ec 14 3d 2e df f0 3b 4b 74 c2 41 c4 22 a4 3c
       0.03635812 0.007350824 24.306784 0.020036109
000290 f3 c8 c2 41 26 6d 66 3d 7a c4 8e 3c 35 62 31 3c
       24.34812 0.056256436 0.017427672 0.010826637
0002a0 63 81 64 3c 29 43 5d 3c 16 16 0e 3d 0a e2 c2 41
       0.013946864 0.013504782 0.03468903 24.36037
0002b0 6d 6f a0 3c 10 7d 37 3d c8 94 05 3d 40 93 aa 3c
       0.019584382 0.044797003 0.032612592 0.020822167
0002c0 04 30 c6 3c 87 1b ad b9 24 eb 0a 3d 86 2f 08 3c
       0.024192818 -0.0003301764 0.033915654 0.008312112
0002d0 af ac 4a 3b dd b1 94 bc 28 c3 33 bc ff 78 92 bc
       0.0030925681 -0.018151218 -0.010971822 -0.017879961
0002e0 f6 6f 6d bc 45 88 c2 41 4d 98 c2 41 2f b2 48 bc
       -0.014492026 24.316538 24.324366 -0.0122495135
0002f0 00 b6 08 3d 69 89 11 3d f6 9e 6d 3c b1 36 8e 3d
       0.033376694 0.035531435 0.014503231 0.06944025
000300 0e dc 2d 3d e8 f2 4c 3d ac 39 f8 3c ff e0 c2 41
       0.04244619 0.05003634 0.030300938 24.359861
000310 00 a2 7c 3c 23 e2 66 3d 66 c9 c2 41 38 e3 83 3c
       0.015419483 0.056368005 24.34834 0.016099557
000320 ae 60 b5 3c 30 d8 c2 41 db 8d c2 41 3e a9 a7 3c
       0.022140827 24.35556 24.319265 0.020466443
000330 d3 ee 29 3d 70 40 dc 3c 8c 83 c2 41 96 a5 61 bc
       0.041487526 0.026886195 24.314232 -0.013772389
000340 07 72 88 bc f8 bc 6a bc 65 79 53 bc 61 e9 6b bc
       -0.016655935 -0.01432728 -0.012907361 -0.014398904
000350 a5 88 5a bb 35 58 5f bc e1 4f c2 41 c4 c0 ae bb
       -0.0033345607 -0.01363187 24.289003 -0.005333038
000360 f5 56 1e 3d 55 44 c2 41 d2 c6 c2 41 b0 89 ee 3c
       0.038657147 24.283365 24.34708 0.029118389
000370 30 cd 18 3c dd 07 f4 3c 5c ed c2 41 f8 f8 8d 3c
       0.009326264 0.029788906 24.365898 0.017330632
000380 83 da 35 3d f3 c5 c2 41 3d e0 20 3d b2 03 c3 41
       0.044397842 24.346655 0.03927635 24.376804
000390 1e 5a 4d 3d 68 57 c2 41 6d 29 0c 3d 85 b3 77 3c
       0.05013477 24.292679 0.034219194 0.015118484
0003a0 0d 8b 95 bc ff c7 92 3c cb aa 0c bc f3 8a c2 41
       -0.018254781 0.017917631 -0.008585642 24.317846
0003b0 80 2c 68 bc 3a 3a e6 bb af bb 34 3c 10 e3 57 bc
       -0.014170766 -0.007025984 0.011031075 -0.0131766945
0003c0 0e b0 66 bc 55 ea 80 bc fd 47 c2 41 44 8f c2 41
       -0.014080061 -0.015736738 24.28515 24.319954
0003d0 30 a3 c2 41 69 97 c2 41 94 55 c2 41 55 5b c2 41
       24.329681 24.32393 24.291786 24.294596
0003e0 97 73 c2 41 6a 32 52 3c 27 b5 76 3c bd f5 c2 41
       24.30644 0.012829402 0.0150578385 24.36999
0003f0 a5 2a 15 3d a7 6f c2 41 d5 92 c2 41 55 0f c3 41
       0.036417622 24.304518 24.321695 24.382486

decoder/1/W f4 [784, 15]
000000 7d 20 d0 41 02 42 d2 41 77 47 d1 41 9a cd d0 41
       26.015863 26.28223 26.159895 26.100391
000010 82 d4 d0 41 8b 0b cf 41 16 5b d3 41 87 25 d6 41
       26.103764 25.880636 26.419476 26.768324
000020 8b 5e d4 41 1e 34 d0 41 5b 1d d3 41 62 ef d2 41
       26.546164 26.025448 26.389334 26.366886
000030 84 68 d1 41 fd 88 cf 41 e8 07 d2 41 8a 77 92 be
       26.176033 25.941889 26.25386 -0.28606826
000040 98 4c fd 3e 87 c4 c1 3d b5 d7 38 be eb 9d 36 be
       0.494725 0.09461313 -0.18051036 -0.17833678
000050 c8 5a 01 3e 98 26 c4 be 28 6e 38 be 5d 8e 64 3e
       0.12632287 -0.38310695 -0.18010771 0.22319932
000060 c4 7c 00 bf f8 30 d0 be a1 cd 08 be dd ce 3f 3e
       -0.5019038 -0.4066236 -0.13359691 0.18731256
000070 9e 68 c6 be 78 ca 0b 3f bf 23 ea 3d c9 ed 40 bc
       -0.38751692 0.5460582 0.11432599 -0.011775442
000080 82 d5 62 be 47 54 ad 3e 9e 79 96 be 5a 7b 80 bd
       -0.2215176 0.3385336 -0.29389662 -0.062735274
000090 23 0d eb bd 48 a5 ff 3d 9a 15 a1 3e 1f 97 11 3e
       -0.11477115 0.12482697 0.31461793 0.14217804
0000a0 74 93 5b 3f 18 51 f5 3e ea 50 d3 be 02 e0 48 bc
       0.8577187 0.47913432 -0.4127267 -0.012260439
0000b0 88 3c 08 3e 52 a5 d0 3e 05 fc 94 be 3f 65 e1 be
       0.13304341 0.4075113 -0.29098526 -0.44022557
0000c0 f4 48 8b bd 63 c5 44 be f4 94 19 3f 9f 11 5b 3e
       -0.06801024 -0.19215922 0.5999291 0.2139344
0000d0 f7 7a c5 be 93 7e 5a 3c 24 a9 ea 3d 8c 0b 6a 3e
       -0.38570377 0.013335842 0.11458042 0.22855967
0000e0 13 6b 3b 3e b0 28 01 be a7 ea 0c 3f 3b 94 b7 bc
       0.18302564 -0.12613177 0.5504555 -0.022409549
0000f0 78 35 d0 41 97 7c d4 41 d3 f4 d1 41 fe 1e d2 41
       26.026108 26.560835 26.244543 26.265133
000100 78 7c d2 41 a7 7e d3 41 ce 55 d2 41 c5 25 d0 41
       26.310776 26.436842 26.291897 26.018442
000110 12 48 d4 41 5a 60 d0 41 08 c8 d4 41 3f c2 d0 41
       26.53519 26.047047 26.597672 26.094847
000120 3d 25 d3 41 c5 b4 d2 41 da ca cc 41 06 2e 64 bf
       26.393183 26.338266 25.599049 -0.89132726
000130 e2 fa 7d be 86 58 2e be 0f 6a 96 3e 14 7e b3 3e
       -0.24802735 -0.17025957 0.2937779 0.35057127
000140 f7 6b 99 3e 0c d1 86 3e c7 07 bb 3c ec c6 c4 be
       0.29965183 0.26331365 0.022830857 -0.38433015
000150 1e 4a 0f bf e7 ed 42 be 02 69 83 3d e2 49 f0 be
       -0.5597247 -0.19036065 0.06416513 -0.46931368
000160 87 d9 9a be 7e 9b 65 bd fe 2b d2 41 11 a8 d2 41
       -0.30244085 -0.056056492 26.27148 26.332064
000170 a6 b1 d0 41 2e 6a d3 41 8d dc d4 41 f3 f9 d2 41
       26.086742 26.426846 26.60769 26.372046
000180 b5 d7 d0 41 05 5f d2 41 50 21 d3 41 09 18 d3 41
       26.105326 26.296396 26.391266 26.386736
000190 26 f8 d0 41 18 1c d2 41 51 4e d2 41 6b 1e d1 41
       26.121166 26.263718 26.28824 26.139853
0001a0 6f 1f d0 41 a2 fc e9 3e f7 32 2a 3d 1e f0 d0 bd
       26.015348 0.45700556 0.04155251 -0.10202049
0001b0 7e 7a 34 3e be 7d a5 bc 6e 45 34 3e 88 d3 f4 bd
       0.17624852 -0.02020156 0.1760461 -0.11954409
0001c0 c9 68 25 b9 f2 64 95 3e c0 56 03 be 1d 41 c2 3d
       -0.00015774662 0.29178578 -0.12826061 0.094850756
0001d0 d5 e5 9c bc 2d 1c a5 3d 3d 5d 9e bd f1 49 1e 3f
       -0.019152561 0.08062015 -0.077326275 0.61831576
0001e0 9a 29 cf 41 d6 f9 d0 41 d8 bd cf 41 5b 96 d2 41
       25.895313 26.12199 25.967697 26.323416
0001f0 95 22 d0 41 4b 2e d5 41 91 93 d3 41 16 2b d3 41
       26.016886 26.647604 26.447054 26.396038
000200 84 da d4 41 72 38 d3 41 67 a4 d2 41 19 59 d3 41
       26.606697 26.402561 26.330275 26.418505
000210 d7 42 d0 41 b2 e3 d1 41 9a 9e d1 41 5b b1 d0 41
       26.032637 26.23618 26.202442 26.0866
000220 ed 57 d0 41 ad 6b d0 41 e7 da cf 41 33 4b d4 41
       26.042933 26.052576 25.981886 26.536718
000230 7b 3b d1 41 96 56 d2 41 05 4f d3 41 d8 7a d1 41
       26.154043 26.292278 26.413584 26.184982
000240 39 8f d3 41 cd 84 d3 41 a0 d6 d0 41 95 58 d3 41
       26.444933 26.439844 26.104797 26.418253
000250 9e 9f d4 41 e6 f5 d1 41 a9 2d c0 be 64 e7 a2 3e
       26.577938 26.245068 -0.37534836 0.31817162
000260 c0 e9 06 be f5 73 c5 bd 55 cd 6b bd de 3c 04 3e
       -0.13175106 -0.09641258 -0.057568867 0.12913844
000270 aa 8d fb 3c 5f 3d c6 3d 14 96 5d 3e da c3 07 bf
       0.0307072 0.09679674 0.21639282 -0.5303322
000280 9b d2 c6 3e 91 32 7e bd ff f1 99 bc 24 63 07 3d
       0.38832554 -0.062059943 -0.01879215 0.033053532
000290 5a 27 f1 3e 8b 38 b4 3e ac b0 70 bd 67 a0 63 be
       0.47100335 0.3519939 -0.058762237 -0.22229157
0002a0 68 4e ab 3e 1f 92 98 3e e4 e5 98 be 5f 5d ab be
       0.33458257 0.29798982 -0.29862893 -0.33469674
0002b0 d4 d2 d2 be fc 5d 3f be b0 b4 1a 3f bc c3 81 be
       -0.41176474 -0.18688196 0.6043196 -0.25344646
0002c0 fc b5 b8 3c 33 7b af be ee 4e 52 be e9 27 3f 3e
       0.022547714 -0.3427368 -0.20537922 0.18667568
0002d0 0a 96 d5 41 21 cd d0 41 af 5a cf 41 f6 f8 cf 41
       26.698261 26.10016 25.91928 25.996563
0002e0 7a dd d3 41 dc ea d1 41 3c 42 d3 41 04 26 d1 41
       26.483143 26.239677 26.407341 26.143562
0002f0 2d 9b d2 41 7c 65 d3 41 5e b2 d0 41 8c f8 d1 41
       26.32577 26.424553 26.087093 26.24636
000300 1e 8f d4 41 e7 15 d1 41 e7 72 d2 41 2c 7b cf 41
       26.569881 26.135695 26.306105 25.935143
000310 56 ca d3 41 69 8a d0 41 81 04 d0 41 2d 06 d0 41
       26.473797 26.067583 26.0022 26.003016
000320 a0 d5 d3 41 56 ca d0 41 b1 7b d2 41 e0 ba d4 41
       26.47931 26.098797 26.310396 26.591248
000330 16 88 d3 41 ba 4b d1 41 a5 0b d3 41 c4 59 d1 41
       26.441448 26.161976 26.380686 26.16883
000340 8d 92 d2 41 b2 e4 d0 41 57 06 1f 3c d6 5d 00 be
       26.321558 26.111668 0.009706101 -0.12535796
000350 e9 56 1a 3e b1 5d 9a 3e 32 05 05 3f d1 a1 bc be
       0.15072216 0.30149606 0.5196105 -0.36842206
000360 5b 36 c6 3c 17 7e 6c be 2e 27 84 be 13 d4 25 be
       0.02419584 -0.23094974 -0.25811142 -0.16194181
000370 3e c3 37 be b3 ad 44 be 98 56 c4 bd 26 65 b4 3d
       -0.17945573 -0.19206886 -0.09586829 0.08808355
000380 c0 89 03 3e 50 2c d1 41 7c 08 d1 41 3a 0c d0 41
       0.12845516 26.146637 26.129143 26.00597
000390 71 43 d4 41 9f 38 d1 41 e2 d4 d1 41 9f b7 d0 41
       26.53293 26.152647 26.228947 26.089659
0003a0 83 f0 d0 41 98 09 d3 41 ad 87 d1 41 eb 9c cf 41
       26.117437 26.379684 26.191248 25.95162
0003b0 7f a9 d3 41 35 2e d2 41 53 35 d5 41 d4 a1 d2 41
       26.457762 26.272562 26.651037 26.329018
0003c0 74 6e d2 41 c0 ae d4 41 f8 3f d0 41 7e 2d cf 41
       26.303932 26.585327 26.031235 25.897213
0003d0 5f 44 d2 41 94 e5 cd 41 4d 21 d2 41 f4 62 d6 41
       26.283384 25.737099 26.26626 26.798317
0003e0 a3 5a d0 41 2a be ce 41 5e c2 ce 41 c5 cf d1 41
       26.044256 25.842854 25.844906 26.22645
0003f0 93 08 ce 41 a6 44 d2 41 b9 5c d0 41 87 b2 d4 be
       25.754187 26.28352 26.045275 -0.41542456

encoder/1/b f4 [15]
000000 fd ca d1 41 a8 a8 d1 41 25 c6 d1 41 17 be d1 41
       26.224115 26.207352 26.22175 26.217817
000010 7c 9b d1 41 74 b3 d1 41 f5 d6 d1 41 e8 c1 d1 41
       26.20092 26.212624 26.22996 26.21968
000020 22 b1 d1 41 fa a3 d1 41 9f d1 d1 41 a3 9e d1 41
       26.21149 26.205067 26.227354 26.20246
000030 09 c1 d1 41 c3 ac d1 41 d4 c4 d1 41
       26.219255 26.209356 26.221107
