NIPS_3/Models/Weights_166/2/weights.npz (npz, 178318 bytes, 8 tensors)

encoder/1/W f4 [15, 784]
-0.046749283 0.04035828 0.019177452 0.0054712384 -0.0053231143 -0.021130228 0.013123652 -0.051244665
0.072196655 0.029870037 -0.052859902 -0.024401205 0.14070843 0.16876696 0.10695305 0.09305116
-0.0292506 0.05673485 0.0016277828 -0.024388202 -0.012476666 0.032332398 -0.020489052 -0.028946305
-0.026498018 0.025577858 -0.012435199 -0.002566077 -0.024071787 0.06962746 -0.008545294 -0.012320484
0.103424914 0.13738066 0.3510568 0.41265735 0.6039313 0.7828093 1.0254564 1.2962346
1.4076015 1.321597 1.386427 1.4195842 1.4172481 1.2146473 1.0270001 0.8188195
0.74722415 0.42107484 0.3182915 0.15669928 0.020859905 0.025537346 -0.005324702 0.019988075
-0.008301099 -0.06839987 0.11448601 0.19769897 0.4328725 0.49224988 0.66598433 1.2714871
1.7497379 2.3155715 2.8536546 3.3486578 3.94352 4.3020287 4.5729685 4.767161
4.7993145 4.652851 4.3759575 3.9221694 3.261907 2.514698 1.7496864 1.0666459
0.6260689 0.18569285 -0.015180333 -0.014471715 -0.034131005 0.013408386 0.1399779 0.20941284
0.583077 0.94015694 1.6116823 2.4285238 3.2971961 4.0376706 4.7264132 5.1560345
5.4839516 5.8156567 5.9227815 6.0733366 6.0534215 5.97761 5.7651525 5.44548
4.927687 4.1042013 3.218016 2.0864854 1.3282917 0.57065636 0.12387535 -0.0097601805
0.018334476 0.07873296 0.31130874 0.6337665 1.0895307 2.2573748 3.2484171 4.348269
5.083792 5.7099667 6.0671544 6.2515063 6.4625063 6.636832 6.6252184 6.699343
6.61129 6.614175 6.5500684 6.39485 6.2172933 5.68567 5.1298857 4.1490555
3.0215018 1.7475408 0.6342989 0.17230046 -0.028744482 -0.0235258 0.41448334 0.9728744
2.2829242 3.6943996 4.8424473 5.6277275 6.044749 6.342387 6.588974 6.6469655
6.7224617 6.805731 6.8348117 6.795667 6.848968 6.756405 6.7644196 6.714926
6.584959 6.360077 6.023017 5.5325093 4.66081 3.242536 1.4397177 0.24286686
-0.0016213619 0.13955396 0.69867283 1.7458445 3.2628772 4.701418 5.63243 6.133645
6.4228716 6.6282625 6.7047725 6.7317657 6.8183165 6.7756476 6.8408575 6.835384
6.8506927 6.8799057 6.8838544 6.778661 6.6484246 6.629948 6.3580627 6.02485
5.3526654 4.074408 2.1771755 0.5679773 0.08264972 0.45822388 1.1704433 2.5792239
4.134095 5.379223 6.0392294 6.379943 6.5677247 6.7282467 6.809181 6.807604
6.747601 6.8515587 6.7892804 6.880865 6.873021 6.780458 6.8155155 6.8457065
6.784992 6.6262097 6.5622606 6.1763086 5.524346 4.479644 2.5050812 0.628029
0.12828577 0.72909975 1.98108 3.4588773 4.7451835 5.641163 6.186746 6.534791
6.6583366 6.6996098 6.818792 6.8634396 6.7608433 6.8666677 6.8515086 6.807989
6.8937726 6.7847376 6.825002 6.8195915 6.7521396 6.6808653 6.5573983 6.2524967
5.5824 4.390796 2.3368466 0.54161996 0.21643421 0.86599404 2.340184 3.6246045
00000000: 2d7c 3fbd b94e 253d 081a 9d3c 1348 b33b
00000010: 856d aebb 4d19 adbc 9604 573c ede5 51bd
00000020: d7db 933d 02b2 f43c a083 58bd 09e5 c7bc
00000030: df15 103e 3fd1 2c3e 330a db3d 9b91 be3d
00000040: f49e efbc cd62 683d 545b d53a c4c9 c7bc
00000050: ee6a 4cbc fa6e 043d a8d8 a7bc cd20 edbc
00000060: 5f12 d9bc a888 d13c 01bd 4bbc a12b 28bb
00000070: 3232 c5bc d798 8e3d 9001 0cbc dbdb 49bc
00000080: 71d0 d33d 84ad 0c3e b8bd b33e d347 d33e
00000090: 3e9b 1a3f 3166 483f 2842 833f 04eb a53f
000000a0: 492c b43f 172a a93f 7176 b13f efb4 b53f
000000b0: 6368 b53f 9079 9b3f bd74 833f 289e 513f
000000c0: 154a 3f3f 1f97 d73e 1af7 a23e c775 203e
000000d0: 64e2 aa3c b233 d13c d67a aebb 08be a33c
000000e0: 5501 08bc 3b15 8cbd a477 ea3d 9971 4a3e
000000f0: 77a1 dd3e 2d08 fc3e f37d 2a3f 17c0 a23f
00000100: 69f7 df3f 5332 1440 47a2 3640 6950 5640
00000110: a262 7c40 38aa 8940 c255 9240 958c 9840
00000120: fc93 9940 28e4 9440 d807 8c40 d304 7b40
00000130: 16c3 5040 d0f0 2040 b9f5 df3f da87 883f
00000140: 0d46 203f 4426 3e3e eeb6 78bc c61a 6dbc
00000150: f4cc 0bbd d9ae 5b3c 5e56 0f3e 5270 563e
00000160: 8944 153f 20ae 703f 9b4b ce3f ef6c 1b40
00000170: 4305 5340 9934 8140 c73e 9740 3cfe a440
00000180: 887c af40 dc19 ba40 6d87 bd40 c658 c240
00000190: a1b5 c140 9548 bf40 217c b840 5f41 ae40
000001a0: 9daf 9d40 9e55 8340 f9f3 4d40 fa88 0540
000001b0: 7605 aa3f 8916 123f 5cb2 fd3d 2ae9 1fbc
000001c0: 2f32 963c bf3e a13d dc63 9f3e 853e 223f
000001d0: be75 8b3f d478 1040 11e6 4f40 0525 8b40
000001e0: 6dae a240 0cb8 b640 2126 c240 570c c840
000001f0: dacc ce40 ee60 d440 ca01 d440 0561 d640
00000200: b08f d340 52a7 d340 299a d140 9ca2 cc40
00000210: 11f4 c640 02f1 b540 0628 a440 10c5 8440
00000220: 4960 4140 6baf df3f 6a61 223f 886f 303e
00000230: 8c79 ebbc 2eb9 c0bc 2937 d43e 4c0e 793f
00000240: 6e1b 1240 0b71 6c40 54f5 9a40 5816 b440
00000250: 956e c140 d6f4 ca40 e0d8 d240 f1b3 d440
00000260: 681e d740 8cc8 d940 c7b6 da40 1b76 d940
00000270: bf2a db40 7834 d840 2076 d840 ace0 d640
00000280: fcb7 d240 c085 cb40 8ebc c040 510a b140
00000290: 5b25 9540 b685 4f40 ab48 b83f 17b2 783e
000002a0: e183 d4ba 3ce7 0e3e 39dc 323f d577 df3f
000002b0: fbd2 5040 0472 9640 de3c b440 d246 c440
000002c0: 2a88 cd40 ba1a d440 7f8d d640 a06a d740
000002d0: a62f da40 1bd2 d840 4ee8 da40 77bb da40
000002e0: e038 db40 3028 dc40 8948 dc40 caea d840
000002f0: e5bf d440 8928 d440 4075 cb40 92cb c040
00000300: 0949 ab40 8d61 8240 d856 0b40 f666 113f
00000310: 4244 a93d 529c ea3e 16d1 953f 0112 2540
00000320: 824a 8440 9822 ac40 5e41 c140 7e28 cc40
00000330: cd2a d240 cc4d d740 d0e4 d940 e4d7 d940
00000340: 59ec d740 f83f db40 c941 d940 0c30 dc40
00000350: caef db40 83f9 d840 b418 da40 0710 db40
00000360: a81e d940 e909 d440 0afe d140 52a4 c540
00000370: 71c7 b040 3e59 8f40 4053 2040 82c6 203f
00000380: 585d 033e 48a6 3a3f 0894 fd3f 3f5e 5d40
00000390: 8bd8 9740 6884 b440 d3f9 c540 021d d140
000003a0: 1811 d540 3463 d640 8b33 da40 4ca1 db40
000003b0: d458 d840 bebb db40 8f3f db40 0cdb d940
000003c0: c999 dc40 921c d940 6b66 da40 183a da40
000003d0: 8711 d840 a6c9 d540 35d6 d140 7414 c840
000003e0: 05a3 b240 6781 8c40 e58e 1540 9ba7 0a3f
000003f0: eea0 5d3e c9b1 5d3f 93c5 1540 85f9 6740

encoder/0/b f4 [15]
-0.027231505 -0.02815109 -0.016531743 -0.018388672 -0.013263066 -0.025615051 -0.011880532 -0.01830551
-0.013537381 -0.006487951 -0.020436948 -0.032630082 -0.032100827 -0.03647214 -0.0116765695
00000000: 9b14 dfbc 1d9d e6bc 946d 87bc d7a3 96bc
00000010: 554d 59bc a8d6 d1bc 90a6 42bc 70f5 95bc
00000020: e4cb 5dbc e198 d4bb 636b a7bc 1fa7 05bd
00000030: 287c 03bd d063 15bd 154f 3fbc

decoder/0/W f4 [784, 15]
5.2508473 5.2607327 4.970247 5.361698 5.1736884 5.758283 5.274108 5.270443
5.0866437 5.1705256 4.8302655 5.343852 5.210593 4.7493424 4.7349916 -0.04455352
-0.3303246 -0.23578633 -0.3214478 -0.22134115 -0.3168337 -0.15587881 -0.069678925 -0.019769806
-0.29817697 -0.106572144 0.77086693 0.13380891 -0.17229368 -0.17681308 5.0628486 5.0695605
5.1686234 5.578988 5.230052 4.981196 5.393013 5.065031 4.9757257 4.79277
5.0961056 5.467542 5.070745 5.0388427 4.998219 4.8321943 4.9496408 5.372231
5.4030056 4.9330354 5.351933 5.0195913 5.2163067 5.288231 5.8941894 5.0571613
5.4988923 5.289144 5.6097884 5.1151643 0.2301662 -0.07873995 -0.36816376 0.13690731
-0.14145663 0.0803568 -0.14321542 -0.41045967 -0.3079223 0.12229956 -0.34324607 -0.2976609
-0.5434783 -0.16504209 0.37088242 5.0287313 5.1282926 5.448881 5.0134487 4.743677
5.007258 5.491085 4.886007 5.2323794 4.8325825 4.9669943 4.9927106 5.4567423
5.2226872 5.1127944 0.40675268 -0.4703632 -0.10866285 -0.13190773 -0.13997267 0.041189883
0.23549691 0.084861465 -0.26442242 0.12576938 -0.16661163 0.21354948 -0.51338327 0.10854648
-0.35241646 5.5744553 4.6859913 4.8714986 4.9547586 5.578145 5.1375384 5.271595
5.164142 5.2374005 5.2489953 5.194578 5.253897 5.074128 5.176535 5.025904
-0.12878732 -0.116214156 -0.20140652 -0.24313071 0.04917196 0.1187582 0.3823992 0.051183682
-0.17976351 0.19954953 -0.014241641 0.09379845 -0.41333964 0.06921265 -0.39812496 5.5985556
4.540523 5.4982443 5.1073093 5.7206893 5.229297 5.138532 4.7449226 4.8373404
5.14464 5.081537 4.92424 5.217519 5.5471864 5.281468 -0.41374296 0.54013836
-0.075479485 -0.026282828 -0.099891655 -0.010008968 0.12162525 -0.2416805 -0.4462636 -0.5401901
-0.27248907 -0.025069766 -0.2206365 -0.14300743 0.33060765 -0.11259282 0.36608022 -0.08404328
0.04371267 -0.28503105 0.07245157 -0.4114706 -0.26062363 -0.20459679 0.35150418 0.21525571
0.044297658 -0.49551684 -0.67469555 -0.15689217 4.7941036 5.5820932 5.262232 5.3399706
5.1705294 5.017818 4.941724 5.164539 5.2622037 5.2637377 4.8631864 5.104005
5.544736 5.0474067 5.2950654 0.18413085 0.22745395 -0.17066145 0.0723573 0.024734847
-0.49983737 -0.3302876 0.07150593 0.2531139 -0.44822222 0.1181306 0.18998429 0.07145011
-0.056779437 -0.45736232 5.084207 5.0012326 4.7336364 4.981968 5.0886183 5.1205964
5.2001038 4.9769473 5.4552455 4.888846 5.268948 4.698719 5.4419823 5.255288
5.469753 -0.2399592 0.024736667 0.038327765 -0.12144103 -0.10424907 -0.24207786 0.14618428
0.3736741 -0.20494509 0.040401727 -0.06435184 -0.29015407 -0.21573468 0.31444368 -0.0020382816
-0.039979376 -0.046983197 -0.24760549 0.25487623 -0.20127666 0.15031055 -0.19694187 -0.24661197
-0.35087144 -0.2832023 -0.1914325 0.59797823 -0.2296085 -0.11429771 0.22391362 5.3685102
00000000: f106 a840 ec57 a840 430c 9f40 0893 ab40
00000010: db8e a540 db43 b840 7ec5 a840 78a7 a840
00000020: c9c5 a240 f274 a540 8991 9a40 d600 ab40
00000030: 2ebd a640 9dfa 9740 0d85 9740 c07d 36bd
00000040: 4e20 a9be f971 71be ce94 a4be 41a7 62be
00000050: 0738 a2be b29e 1fbe d3b3 8ebd 4af4 a1bc
00000060: a7aa 98be 7f42 dabd 8957 453f 3405 093e
00000070: c16d 30be 7d0e 35be db02 a240 d739 a240
00000080: 5d65 a540 1287 b240 965c a740 f565 9f40
00000090: 9093 ac40 bc14 a240 2539 9f40 5f5e 9940
000000a0: 4c13 a340 1bf6 ae40 8b43 a240 333e a140
000000b0: 69f1 9f40 56a1 9a40 7563 9e40 51e9 ab40
000000c0: 6ce5 ac40 6ddb 9d40 0943 ab40 7ea0 a040
000000d0: fceb a640 3039 a940 339d bc40 44d4 a140
000000e0: edf6 af40 ab40 a940 6383 b340 6daf a340
000000f0: b0b0 6b3e 6942 a1bd f67f bcbe 6e31 0c3e
00000100: 02da 10be 1b92 a43d 10a7 12be c527 d2be
00000110: fea7 9dbe 3178 fa3d f3bd afbe 0267 98be
00000120: 6521 0bbf cb00 29be 4de4 bd3e 5eeb a040
00000130: f91a a440 3c5d ae40 2c6e a040 34cc 9740
00000140: 753b a040 f8b6 af40 2b5a 9c40 a76f a740
00000150: 84a4 9a40 9ef1 9e40 49c4 9f40 a29d ae40
00000160: 4120 a740 039c a340 e341 d03e 72d3 f0be
00000170: a18a debd d212 07be ff54 0fbe b9b6 283d
00000180: 1a26 713e d9cb ad3d 6062 87be b0c9 003e
00000190: 3d9c 2abe b7ac 5a3e 166d 03bf 9e4d de3d
000001a0: ee6f b4be f061 b240 a4f3 9540 51e3 9b40
000001b0: 628d 9e40 2a80 b240 b766 a440 e8b0 a840
000001c0: a740 a540 c998 a740 c5f7 a740 fc39 a640
000001d0: ed1f a840 425f a240 2da6 a540 35d4 a040
000001e0: d3e0 03be b001 eebd 833d 4ebe 42f7 78be
000001f0: 8a68 493d 8037 f33d d4c9 c33e fba5 513d
00000200: ed13 38be b656 4c3e c655 69bc 6719 c03d
00000210: 41a1 d3be 5dbf 8d3d 09d7 cbbe 5e27 b340
00000220: f74b 9140 9ef1 af40 146f a340 e30f b740
00000230: 6756 a740 db6e a440 68d6 9740 7ecb 9a40
00000240: e4a0 a440 f39b a240 6093 9d40 eaf5 a640
00000250: 8d82 b140 c901 a940 1ed6 d3be 8246 0a3f
00000260: fd94 9abd 164f d7bc ff93 ccbd a8fc 23bc
00000270: a916 f93d 187b 77be aa7c e4be e649 0abf
00000280: b083 8bbe 1c5f cdbc 89ee 61be 8a70 12be
00000290: 6845 a93e 1097 e6bd de6e bb3e e21e acbd
000002a0: 0f0c 333d 97ef 91be 7d61 943d 46ac d2be
000002b0: 7670 85be d281 51be 5bf8 b33e fe6b 5c3e
000002c0: 7671 353d 62b4 fdbe d9b8 2cbf 57a8 20be
000002d0: 4c69 9940 82a0 b240 3464 a840 0ae1 aa40
000002e0: fa74 a540 f791 a040 9a22 9e40 e743 a540
000002f0: f963 a840 8a70 a840 399f 9b40 0254 a340
00000300: 7a6e b140 5b84 a140 2d71 a940 cc8c 3c3e
00000310: b0e9 683e e0c1 2ebe 1030 943d bca0 ca3c
00000320: afea ffbe 751b a9be b371 923d 2598 813e
00000330: 627d e5be 75ee f13d 3e8b 423e 6f54 923d
00000340: 8e91 68bd 652b eabe d3b1 a240 190a a040
00000350: f379 9740 486c 9f40 f6d5 a240 eddb a340
00000360: 4067 a640 2743 9f40 5f91 ae40 6d71 9c40
00000370: 399b a840 e85b 9640 b824 ae40 522b a840
00000380: 3708 af40 ddb7 75be 8da4 ca3c 93fd 1c3d
00000390: 13b6 f8bd 8980 d5bd 42e3 77be 55b1 153e
000003a0: 3652 bf3e 20dd 51be 487c 253d e6ca 83bd
000003b0: 138f 94be 8de9 5cbe c3fe a03e b194 05bb
000003c0: 6ac1 23bd 7471 40bd 4b8c 7dbe 237f 823e
000003d0: 781b 4ebe 02eb 193e 21ab 49be d987 7cbe
000003e0: 6ca5 b3be e4ff 90be e206 44be 1a15 193f
000003f0: 7e1e 6bbe eb14 eabd 9d49 653e d6ca ab40

decoder/0/b f4 [784]
3.6070952 0.027433991 3.621499 3.6139295 0.009307529 3.6502335 -0.0032240343 3.6195235
0.027934603 3.618657 0.013141373 0.010995582 3.6153893 0.03534074 3.6751842 -0.0018950732
-0.008845651 3.61219 3.406815 3.6194398 3.6292613 0.012860403 3.6129587 0.002971034
0.013988079 -0.04055693 3.6282287 3.6253612 3.6203032 3.6119304 2.914037 3.687145
3.6070697 0.016010938 0.009264404 0.023703597 3.626371 0.007085467 0.0027320774 3.6435065
3.6073918 0.011730677 3.626832 -0.047531433 3.607139 0.0046084337 -0.004846269 0.0048040776
3.6069574 -0.014066748 0.0146157425 -0.024134861 -0.0012053378 0.010183308 -0.029627472 -0.0604463
3.6506429 3.616819 -0.036012426 -0.020175323 3.6307113 3.6237354 3.6119738 -0.007055923
3.6031785 -0.022933444 0.018202068 -0.012539354 0.019299353 3.6383631 -0.009609164 3.6098208
0.011192263 3.6117618 3.6301703 3.643758 0.016896548 -0.045217734 0.017338483 3.37278
3.671728 3.6094682 3.6160932 3.6364942 3.6331418 3.6142242 3.6324754 3.6193342
0.010446025 -0.07504682 7.266744e-05 0.0126289595 3.6022675 3.5232706 0.01450355 0.024704948
3.60318 3.6171336 3.624609 3.6171887 3.003623 3.6284459 3.61463 -0.052129164
-0.006466552 3.6151733 3.5893044 -0.0034877388 -0.007283906 3.6128175 0.011728844 3.6069696
3.603423 3.613712 -0.002942171 0.011918724 -0.011885819 -0.006247778 -0.01130242 0.016259572
3.6219845 -0.038296126 -0.002964327 3.345991 -0.054496676 -0.03134985 -0.011205586 3.6308317
3.6335034 3.6235702 0.02003723 -0.016238859 0.026755724 -0.01097593 0.010610523 -0.033958394
3.6079285 0.012426509 3.6112633 3.6272573 0.0035022963 -0.0051668324 3.6356733 0.034499694
-0.012207419 3.4794033 3.6093204 3.6149812 3.6143098 -0.06811165 0.015782777 3.6510253
-0.0072913696 3.634024 3.611763 3.6478312 3.5781302 0.015886242 3.4331763 3.2193317
3.6059158 3.60748 3.6219351 -0.0075819036 -0.0424497 -0.045924157 0.01570542 3.6590896
3.6080317 0.010065089 0.034108263 0.013480504 -0.09362383 3.609224 3.6248019 3.6142557
3.563806 3.607252 0.011667803 0.025408506 3.4655507 3.6176713 -0.000257589 0.01660905
0.016519712 3.6342204 3.6394143 -0.0916916 3.64486 0.015286335 3.3710473 3.6233978
-0.03562401 3.6674385 -0.012120815 -0.034870252 3.5997589 0.013003372 0.017399011 3.6105058
0.016173873 -0.054557875 3.6487138 3.6079574 3.6242394 3.6188002 3.6584275 -0.06893633
3.6275008 3.6405957 3.6924303 0.018229168 3.686743 0.02059249 0.012668724 0.022024084
3.614383 -0.014821318 3.6124363 -0.007953349 3.6152344 -0.023329427 3.6304357 -0.05327815
-0.011035074 -0.027137259 3.6463442 3.6954 3.6451519 0.004174356 -0.011307181 -0.07280547
3.6247225 -0.02324269 3.636691 3.658047 -0.0069618677 0.009182775 -0.039248113 0.013319022
3.6701605 -0.08293284 3.6170871 2.6299639 3.6087651 3.610375 0.03806973 -0.042009763
3.618525 3.625548 3.6052504 0.01614935 3.6375518 3.648559 3.6319776 3.6090772
00000000: a6da 6640 40bd e03c a4c6 6740 9f4a 6740
00000010: 9b7e 183c 6d9d 6940 524a 53bb 46a6 6740
00000020: 1cd7 e43c 1498 6740 ea4e 573c d026 343c
00000030: 8a62 6740 74c1 103d 3836 6b40 1b64 f8ba
00000040: 59ed 10bc 1f2e 6740 4209 5a40 e7a4 6740
00000050: d145 6840 71b4 523c b73a 6740 aeb5 423b
00000060: 412e 653c 061f 26bd e634 6840 eb05 6840
00000070: 0cb3 6740 de29 6740 957f 3a40 2ffa 6b40
00000080: 3bda 6640 5f29 833c bac9 173c 0c2e c23c
00000090: 7616 6840 352d e83b a70c 333b 362f 6940
000000a0: 82df 6640 0732 403c 041e 6840 52b0 42bd
000000b0: 5edb 6640 5802 973b 73cd 9ebb 866b 9d3b
000000c0: 64d8 6640 3878 66bc de76 6f3c 79b6 c5bc
000000d0: 6dfc 9dba e4d7 263c 50b5 f2bc 8a96 77bd
000000e0: 22a4 6940 f679 6740 c481 13bd b846 a5bc
000000f0: 935d 6840 48eb 6740 942a 6740 5f35 e7bb
00000100: 7a9a 6640 ebde bbbc 811c 953c dd71 4dbc
00000110: ad19 9e3c f1da 6840 c16f 1dbc 4e07 6740
00000120: c15f 373c 1b27 6740 b654 6840 5533 6940
00000130: a16a 8a3c 3b36 39bd 6f09 8e3c a1db 5740
00000140: 97fd 6a40 8701 6740 126e 6740 52bc 6840
00000150: 6585 6840 734f 6740 7a7a 6840 2ca3 6740
00000160: ce25 2b3c 26b2 99bd 0965 9838 b2e9 4e3c
00000170: 8d8b 6640 447d 6140 4ca0 6d3c 0862 ca3c
00000180: 809a 6640 1e7f 6740 98f9 6740 0580 6740
00000190: 5c3b 4040 7538 6840 1956 6740 6485 55bd
000001a0: 5fe5 d3bb 005f 6740 2ab7 6540 8c92 64bb
000001b0: d5ad eebb 6738 6740 562a 403c 97d8 6640
000001c0: 7c9e 6640 0f47 6740 70d1 40bb c046 433c
000001d0: bdbc 42bc 29ba ccbb c92d 39bc cb32 853c
000001e0: 98ce 6740 66dc 1cbd 2845 42bb b724 5640
000001f0: e837 5fbd b368 00bd a297 37bc 8c5f 6840
00000200: 528b 6840 93e8 6740 1e25 a43c 5b07 85bc
00000210: d22e db3c 63d4 33bc c2d7 2d3c f517 0bbd
00000220: 4de8 6640 8e98 4b3c f01e 6740 fc24 6840
00000230: c886 653b 884e a9bb dfae 6840 8d4f 0d3d
00000240: a001 48bc 8bae 5e40 1bff 6640 da5b 6740
00000250: da50 6740 1f7e 8bbd e24a 813c 66aa 6940
00000260: 71ec eebb d993 6840 2027 6740 1176 6940
00000270: 1600 6540 dd23 823c 29b9 5b40 8809 4e40
00000280: 53c7 6640 f4e0 6640 c9cd 6740 9e71 f8bb
00000290: bddf 2dbd f81a 3cbd a7a8 803c 862e 6a40
000002a0: fee9 6640 0be8 243c 1bb5 0b3d 55dd 5c3c
000002b0: dabd bfbd 87fd 6640 c1fc 6740 f74f 6740
000002c0: 6615 6440 37dd 6640 502a 3f3c 8025 d03c
000002d0: 95cb 5d40 ed87 6740 030d 87b9 b40f 883c
000002e0: 5954 873c 1197 6840 2aec 6840 cec8 bbbd
000002f0: 6345 6940 8973 7a3c 3dbf 5740 c0e5 6740
00000300: 7bea 11bd 50b7 6a40 6296 46bc 1cd4 0ebd
00000310: 7362 6640 180c 553c 5f88 8e3c 8712 6740
00000320: 127f 843c 1478 5fbd 8784 6940 c6e8 6640
00000330: 8af3 6740 6c9a 6740 ad23 6a40 7e2e 8dbd
00000340: f928 6840 85ff 6840 c750 6c40 5655 953c
00000350: 99f3 6b40 95b1 a83c 7b90 4f3c da6b b43c
00000360: 0d52 6740 1dd5 72bc 2832 6740 c34e 02bc
00000370: 0060 6740 5b1d bfbc 0f59 6840 303a 5abd
00000380: 74cc 34bc f54e debc b45d 6940 6f81 6c40
00000390: 2b4a 6940 09c9 883b c141 39bc 091b 95bd
000003a0: 74fb 6740 7467 bebc 8cbf 6840 711d 6a40
000003b0: 6120 e4bb 5a73 163c a1c2 20bd 0738 5a3c
000003c0: e9e3 6a40 b1d8 a9bd 5b7e 6740 5451 2840
000003d0: 02f6 6640 6210 6740 01ef 1b3d 6e12 2cbd
000003e0: ea95 6740 fa08 6840 6cbc 6640 a44b 843c
000003f0: a6cd 6840 fe81 6940 5272 6840 1ffb 6640

encoder/0/W f4 [15, 784]
-0.026381066 0.0030896454 0.023882119 -0.003839969 -0.023511508 -0.016855665 0.015277124 0.011777607
0.008413157 -0.033135455 -0.026993021 -0.06305667 0.05204997 -0.0022403183 -0.018668113 -0.031211473
-0.019245056 0.05465194 0.024334397 0.06419396 0.009428495 -0.02501981 -0.11211871 -0.052711096
0.008755275 -0.019669743 -0.06031821 -0.008277294 -0.052221496 -0.02111621 -0.015819712 0.058484767
0.039489113 0.03628727 0.07152209 0.050253976 -0.04511463 0.018576784 0.009744695 0.0017475523
-0.040684965 -0.019219747 0.0106993215 -0.0083684195 -0.062344797 -0.029795643 0.013654284 0.035081513
-0.012012025 -0.035464745 0.043485407 0.07717104 -0.047076356 -0.028567968 -0.019264342 -0.032910816
-0.0032408466 0.04746536 0.0050473614 -0.0039049103 -0.069164634 -0.040434174 -0.029520571 -0.09200253
0.035183024 -0.012979556 -0.048216272 -0.022555538 0.009128595 0.02416634 -0.044981215 -0.016406862
-0.017257752 -0.03239478 -0.07722131 -0.03743945 -0.007828145 -0.035959087 -0.025319621 -0.026946403
0.032481458 0.006163407 0.026461035 0.034905184 -0.05083954 0.009439708 -0.03773433 0.009942646
-0.052364036 -0.001882133 0.0011455289 -0.02476973 -0.005280483 -0.032469165 -0.07548436 -0.04481569
-0.079419345 0.081547566 -0.06745453 -0.022979576 -0.057175968 -0.096935235 -0.071189664 -0.048200548
0.02201433 -0.01969027 -0.043942407 0.013338996 0.06327904 0.02075618 -0.03931264 0.03652876
-0.018717855 -0.015914198 -0.010999899 -0.063321866 -0.016695369 -0.03403469 -0.0958479 -0.09450927
-0.10634031 -0.049811 -0.032133635 -0.007639824 -0.018607367 -0.018509366 -0.043971132 -0.09294656
0.007017432 0.006854701 -0.026437482 -0.09873302 0.024912562 -0.012401432 0.002308882 -0.014431396
0.07102759 0.024364684 -0.026386956 0.013965208 -0.034869395 -0.034773156 -0.059440333 -0.020770906
-0.07514898 -0.061160807 -0.064807065 0.040764518 -0.016972557 -0.040904228 -0.034913648 0.031907436
-0.0060890787 -0.06264385 0.017805893 0.0031276292 -0.0600123 -0.028848786 -0.010749673 -0.04901228
-0.048785396 -0.044846293 -0.022569489 0.009627457 0.027915984 0.047572676 -0.056236908 -0.0125105595
-0.0435844 -0.002367259 -0.028292965 -0.07559113 -0.010600561 0.005903579 0.100059934 0.06461402
0.05150887 0.01824179 -0.034016963 0.013249873 -0.03189916 -0.051493496 -0.050124515 -0.027370626
-0.014958044 0.041706838 -0.06854401 -0.01485939 -0.06027253 -0.030739158 -0.09145702 0.045022458
-0.0594086 -0.021496492 -0.019113682 0.039106175 0.0009351709 -0.061807383 0.027355883 -0.09088175
-0.038104173 -0.09116734 0.01271249 0.048387732 -0.027641032 0.013076419 0.0027143771 -0.016302133
-0.025786545 -0.05408419 -0.12978566 -0.0974856 -0.110485226 -0.04931142 -0.11430588 -0.13175283
-0.028706213 -0.043178353 0.07396977 -0.03727039 -0.03275304 0.01786282 -0.008691801 0.0020229584
0.008299486 -0.049733117 -0.05772523 0.05043264 -0.03865206 -0.12011111 0.0093769645 -0.040864624
-0.033047035 -0.026190322 -0.026520982 -0.015935155 -0.09183482 0.0454245 -0.08014928 0.0022928934
0.038398236 -0.01782048 -0.09085988 -0.049130816 -0.070049495 -0.12240026 -0.118966736 0.083388664
0.018484527 -0.03704615 -0.017398616 -0.010813246 0.013860797 -0.031230716 -0.08581463 0.009714566
00000000: 1b1d d8bc a67b 4a3b 6fa4 c33c fda7 7bbb
00000010: 359b c0bc e414 8abc e74c 7a3c ddf6 403c
00000020: 57d7 093c 0bb9 07bd 7820 ddbc db23 81bd
00000030: 5932 553d 4ed2 12bb dfed 98bc 34af ffbc
00000040: cfa7 9dbc b6da 5f3d ee58 c73c 1f78 833d
00000050: f979 1a3c 58f6 ccbc 7f9e e5bd 97e7 57bd
00000060: 4972 0f3c 7122 a1bc 3a10 77bd 7d9d 07bc
00000070: 35e6 55bd e7fb acbc 5798 81bc b98d 6f3d
00000080: 56bf 213d f6a1 143d 2c7a 923d 1dd7 4d3d
00000090: 1eca 38bd 572e 983c 37a8 1f3c 200e e53a
000000a0: 47a5 26bd bb72 9dbc 354c 2f3c b21b 09bc
000000b0: 425d 7fbd fe15 f4bc 38b6 5f3c a2b1 0f3d
000000c0: 16ce 44bc 7b43 11bd c11d 323d da0b 9e3d
000000d0: 23d3 40bd 5f07 eabc 41d0 9dbc 7ecd 06bd
000000e0: 6264 54bb 0a6b 423d 5664 a53b 86e9 7fbb
000000f0: 30a6 8dbd 4e9e 25bd 20d5 f1bc d36b bcbd
00000100: 131c 103d 34a8 54bc 6d7e 45bd 64c6 b8bc
00000110: 1a90 153c 7df8 c53c 393e 38bd af67 86bc
00000120: 2160 8dbc 64b0 04bd 3526 9ebd 1c5a 19bd
00000130: 9f41 00bc d649 13bd 186b cfbc b4be dcbc
00000140: 470b 053d 68f6 c93b d0c4 d83c bdf8 0e3d
00000150: 1f3d 50bd 01a9 1a3c 508f 1abd 7be6 223c
00000160: ac7b 56bd e7b1 f6ba 9225 963a e4e9 cabc
00000170: e707 adbb 63fe 04bd 8b97 9abd a890 37bd
00000180: 9ca6 a2bd 6902 a73d 9a25 8abd aa3f bcbc
00000190: 5931 6abd fb85 c6bd e3cb 91bd f06d 45bd
000001a0: 6557 b43c 7d4d a1bc f4fc 33bd ce8b 5a3c
000001b0: 7198 813d dd08 aa3c 4a06 21bd 2e9f 153d
000001c0: 3056 99bc 7e5e 82bc ec38 34bc e5ae 81bd
000001d0: bac4 88bc f667 0bbd e74b c4bd 138e c1bd
000001e0: f3c8 d9bd 9e06 4cbd 8f9e 03bd 7d57 fabb
000001f0: 7a6e 98bc f4a0 97bc 131b 34bd c45a bebd
00000200: 7cf2 e53b 669d e03b 6b93 d8bc 8a34 cabd
00000210: 6e15 cc3c 602f 4bbc 9d50 173b a971 6cbc
00000220: ea76 913d 7298 c73c 7529 d8bc 54ce 643c
00000230: 36d3 0ebd 4c6e 0ebd b577 73bd bf27 aabc
00000240: b5e7 99bd c183 7abd 91b9 84bd b2f8 263d
00000250: 080a 8bbc 318b 27bd 9d01 0fbd 5fb1 023d
00000260: e586 c7bb 6b4b 80bd aadd 913c e9f8 4c3b
00000270: 75cf 75bd 4a54 ecbc 651f 30bc 1ac1 48bd
00000280: 32d3 47bd bfb0 37bd a6e3 b8bc 7bbc 1d3c
00000290: 10b0 e43c 91db 423d ac58 66bd 17f9 4cbc
000002a0: 8e85 32bd 0424 1bbb a6c6 e7bc 86cf 9abd
000002b0: faad 2dbc cf72 c13b 39ec cc3d 5b54 843d
000002c0: f7fa 523d ce6f 953c 5f55 0bbd ff15 593c
000002d0: b2a8 02bd d8ea 52bd 5d4f 4dbd 5d38 e0bc
000002e0: 9512 75bc cad4 2a3d cd60 8cbd cd74 73bc
000002f0: 54e0 76bd b0d0 fbbc d14d bbbd 7869 383d
00000300: 6f56 73bd 6919 b0bc 4c94 9cbc cc2d 203d
00000310: 4226 753a bd29 7dbd 7219 e03c 3620 babd
00000320: 1f13 1cbd f1b5 babd 0c48 503c 3732 463d
00000330: 726f e2bc 7a3e 563c b1e3 313b 0d8c 85bc
00000340: 4e3e d3bc 6287 5dbd 88e6 04be 88a6 c7bd
00000350: 1446 e2bd c6fa 49bd 3419 eabd 37ea 06be
00000360: 4b29 ebbc c9db 30bd 767d 973d d6a8 18bd
00000370: 0d28 06bd 0c55 923c 0e68 0ebc 9c93 043b
00000380: 91fa 073c f4b4 4bbd 4a71 6cbd 7592 4e3d
00000390: 9f51 1ebd d0fc f5bd d7a1 193c aa61 27bd
000003a0: 545c 07bd 168d d6bc 8842 d9bc 718a 82bc
000003b0: e513 bcbd 0a0f 3a3d 4e25 a4bd 5e44 163b
000003c0: 7847 1d3d 41fc 91bc bf14 babd 653d 49bd
000003d0: 1c76 8fbd fdac fabd d5a4 f3bd adc7 aa3d
000003e0: dd6c 973c b4bd 17bd 8b87 8ebc 0a2a 31bc
000003f0: 6518 633c 8fd7 ffbc 95bf afbd d829 1f3c

decoder/1/b f4 [784]
0.027263325 6.1395006 0.04120751 0.029347429 6.155617 0.019937973 6.107325 0.011663376
6.1440225 0.017127289 6.133802 0.026754575 0.033767935 6.143247 0.016436495 6.105721
6.1462727 0.02346086 0.04357459 0.020370722 0.01246598 6.178996 0.032388438 6.103973
6.1353874 6.091582 0.050256044 0.037843652 0.014589835 0.0352018 0.08851773 0.01811472
0.011951208 6.168182 6.136668 6.133494 0.015881993 6.1397867 6.1302752 0.051532324
0.010573493 6.159442 0.022784797 6.1075673 0.017936802 6.0955167 6.105282 6.1594486
0.009263153 6.1259837 6.1532993 6.1699653 6.16454 6.12874 6.1420927 6.1394434
0.041362755 0.02622668 6.121149 6.1257486 0.043977004 0.015608083 0.05697753 6.1735106
0.014947674 6.1210504 6.1381097 6.1451325 6.1086516 0.05621104 6.147934 0.04384187
6.170763 0.032508176 0.009708565 0.016649444 6.172543 6.112963 6.1806006 0.040543675
0.013096457 0.03488268 0.04156318 0.042466283 0.008805635 0.011952578 0.052054964 0.056929827
6.1605244 6.1253242 6.1042566 6.1738605 0.014598832 0.03287066 0.037641145 6.169796
0.01762828 0.019620227 0.046079885 0.032462046 0.049457666 0.042066142 0.0055055683 6.103505
6.1604247 0.01984979 0.0531475 6.161357 6.0946136 0.034387093 6.0913315 0.015867582
0.021702709 0.04010134 6.140084 6.1600385 6.174605 6.120061 6.1403284 0.014585107
0.05406263 6.0727787 6.126095 0.049291145 6.086182 6.1719713 6.165519 -0.013537512
-0.00040978054 0.03899948 6.1757827 6.1576214 6.1298676 6.1541157 6.1218143 6.1043005
0.04387211 0.0062047415 0.03715542 0.036086757 6.177 6.081179 0.025120953 6.136813
6.150722 0.06265816 0.021598024 0.015291024 0.04177498 6.1375704 6.162732 0.012310809
6.134022 0.020970091 0.009081019 -0.0030002124 0.013942476 6.134135 0.065665446 0.035994492
0.018622542 0.008484548 0.016357346 6.1688895 6.1278577 6.1168375 0.055373218 0.031003943
0.0150621375 6.094176 6.151173 6.138107 6.1088443 0.011761627 0.042182885 0.02682487
0.06312532 0.009011168 6.1143913 -0.017047461 0.052363623 -0.012500461 6.1463284 -0.01570631
-0.023277221 0.034649096 -0.014179958 6.1213446 0.031026179 6.166169 0.033186607 0.042517744
6.078499 0.04759309 6.1526136 6.082064 0.06808873 0.009369992 0.010292087 0.018310308
6.147372 6.1330714 0.022554392 0.026412852 0.0439705 0.027999239 0.030357653 6.0737405
-0.016064852 0.00979649 -0.016594037 6.1129227 -0.011932353 6.124448 6.129001 6.0987325
-0.008222773 6.1712112 0.00408639 6.182179 0.06263223 6.176401 0.007997867 6.100548
6.146652 6.1737933 0.040564876 0.018029943 0.012699844 6.1533833 6.121024 6.1405478
0.032340888 6.092218 -0.0065981224 -0.013976837 6.111744 6.108681 6.09636 0.016893702
-0.013629641 6.090428 -0.017045174 0.06862885 0.0109460475 0.01480225 6.134628 6.1453843
0.015239476 0.020282129 0.012421583 6.1212134 0.027418915 0.017086474 0.01558703 0.013780707
00000000: 5657 df3c ca76 c440 35c9 283d 056a f03c
00000010: d1fa c440 f654 a33c 356f c340 bf17 3f3c
00000020: d59b c440 874e 8c3c 1b48 c440 692c db3c
00000030: 3f50 0a3d 7b95 c440 d4a5 863c 1162 c340
00000040: 44ae c440 fd30 c03c 457b 323d 80e0 a63c
00000050: 1c3e 4c3c 56ba c540 bda9 043d bf53 c340
00000060: 1855 c440 3dee c240 48d9 4d3d f201 1b3d
00000070: 340a 6f3c c32f 103d c948 b53d 5265 943c
00000080: 00cf 433c bf61 c540 965f c440 9545 c440
00000090: f41a 823c 2279 c440 372b c440 8f13 533d
000000a0: 723c 2d3c 261a c540 2fa7 ba3c 3171 c340
000000b0: 33f0 923c 790e c340 785e c340 341a c540
000000c0: 7bc4 173c 0f08 c440 d4e7 c440 5b70 c540
000000d0: e943 c540 a31e c440 068c c440 5276 c440
000000e0: fe6b 293d 56d9 d63c 74e0 c340 2206 c440
000000f0: 3b21 343d 0cb9 7f3c 4561 693d 668d c540
00000100: 17e7 743c a5df c340 656b c440 eda4 c440
00000110: 137a c340 8c3d 663d e0bb c440 8893 333d
00000120: e476 c540 4b27 053d ac10 1f3c 6a64 883c
00000130: 7985 c540 659d c340 7bc7 c540 2011 263d
00000140: 8692 563c 24e1 0e3d 273e 2a3d 20f1 2d3d
00000150: 8345 103c bfd4 433c 9637 553d 402f 693d
00000160: 0423 c540 a802 c440 1256 c340 4490 c540
00000170: f02f 6f3c 63a3 063d 9a2d 1a3d f86e c540
00000180: 2f69 903c 99ba a03c 43be 3c3d ecf6 043d
00000190: 1f94 4a3d 8c4d 2c3d 0e68 b43b ea4f c340
000001a0: 3322 c540 079c a23c 31b1 593d d629 c540
000001b0: 1307 c340 7bd9 0c3d 30ec c240 bbfc 813c
000001c0: e1c9 b13c 4d41 243d 917b c440 091f c540
000001d0: 5d96 c540 8ad7 c340 927d c440 5ff6 6e3c
000001e0: c770 5d3d 3454 c240 f808 c440 83e5 493d
000001f0: 01c2 c240 ca80 c540 ef4b c540 71cc 5dbc
00000200: d0d7 d6b9 ebbd 1f3d 03a0 c540 3c0b c540
00000210: e027 c440 84ee c440 e7e5 c340 6e56 c340
00000220: 3eb3 333d 2551 cb3b 4830 183d b5cf 133d
00000230: fca9 c540 0599 c240 75ca cd3c c660 c440
00000240: b7d2 c440 ec52 803d 57ee b03c 3487 7a3c
00000250: 3e1c 2b3d fa66 c440 1a35 c540 47b3 493c
00000260: e949 c440 78c9 ab3c 8ec8 143c 369f 44bb
00000270: fc6e 643c d54a c440 9b7b 863d f66e 133d
00000280: 4d8e 983c c602 0b3c d7ff 853c 8b67 c540
00000290: 6917 c440 22bd c340 07cf 623d fbfb fd3c
000002a0: 2fc7 763c 7d03 c340 69d6 c440 5f6b c440
000002b0: a77b c340 d7b3 403c f6c7 2c3d d4bf db3c
000002c0: d947 813d 94a3 133c 18a9 c340 1ea7 8bbc
000002d0: 3d7b 563d bcce 4cbc b9ae c440 85aa 80bc
000002e0: dfaf bebc 36ec 0d3d 0e53 68bc 0ee2 c340
000002f0: 9d2a fe3c 4251 c540 aeee 073d 1627 2e3d
00000300: 1083 c240 f9f0 423d 36e2 c440 45a0 c240
00000310: 1b72 8b3d 9884 193c 24a0 283c 80ff 953c
00000320: 45b7 c440 1f42 c440 fdc3 b83c c45f d83c
00000330: 691a 343d a95e e53c 9db0 f83c 155c c240
00000340: 709a 83bc 7581 203c 38f0 87bc 109d c340
00000350: ea7f 43bc 7afb c340 c720 c440 d128 c340
00000360: cfb8 06bc 907a c540 20e7 853b 69d4 c540
00000370: 5445 803d 14a5 c540 7c09 033c b037 c340
00000380: 60b1 c440 b78f c540 5b27 263d 88b3 933c
00000390: 0213 503c 84e8 c440 6edf c340 5e7f c440
000003a0: e177 043d 73f3 c240 1035 d8bb 1aff 64bc
000003b0: 6893 c340 517a c340 6215 c340 a964 8a3c
000003c0: dc4e 5fbc c9e4 c240 52a2 8bbc 488d 8c3d
000003d0: 0d57 333c 2385 723c df4e c440 fda6 c440
000003e0: ffae 793c b526 a63c e583 4b3c fbe0 c340
000003f0: a29d e03c eff8 8b3c be60 7f3c 79c8 613c

decoder/1/W f4 [784, 15]
0.5150918 0.4440092 -0.14598086 0.3550376 0.083063945 0.03329042 -0.08294385 0.07005432
0.05768121 0.035780676 0.071393624 -0.40981367 -0.4414187 -0.24507287 0.2135638 6.982222
7.142557 7.1279836 6.614512 7.2033987 7.1759777 6.768744 6.3652725 6.908015
6.7215104 6.9085407 6.7540593 6.996019 6.9682264 6.967322 -0.19991799 -0.23176074
0.7299565 0.0018686167 -0.04208197 -0.021106647 -0.2640129 -0.039998982 0.27533853 -0.33962104
0.09580793 -0.21022944 0.5195913 0.26945734 -0.33887014 -0.13752826 0.36759195 -0.011852853
-0.027909044 -0.36450553 0.2906898 -0.10511753 -0.10147224 -0.099314444 0.09173698 0.16529243
0.26288757 -0.12984893 0.1998239 0.48147652 6.677022 7.1816297 7.0809646 6.700847
6.69739 7.0459547 6.660185 7.460978 6.528524 6.7872753 6.9776006 6.865073
7.225348 6.76041 6.6918077 0.3480518 -0.2279048 0.22841129 -0.24635245 -0.06991238
0.104919806 -0.073081255 -0.1613342 0.33440375 -0.08653549 -0.36303085 -0.105967045 -0.08640385
0.16543837 0.30629286 6.6847725 6.932839 7.189599 7.1856613 7.4010906 6.91665
7.1860614 6.694329 7.1695623 6.997959 6.775138 7.0315027 7.1314154 6.24451
6.7427907 0.209157 -0.29884005 -0.0772279 -0.09084388 -0.15271108 -0.17233399 -0.11561092
-0.17848404 -0.074842975 0.53000826 -0.02254795 -0.60616726 -0.04766942 -0.42342538 0.07643568
7.013405 6.871141 6.3789053 6.553432 6.6950493 6.872815 6.837958 6.950849
7.0038395 6.998807 7.058106 6.6081977 6.540429 7.6613216 6.912028 -0.17768517
-0.50664604 0.1992223 0.1057988 -0.24823733 -0.18201719 -0.16637059 0.1170029 -0.076037884
0.18640459 0.16623043 -0.3648937 0.4298582 -0.5698387 0.082033195 7.0050497 6.9680357
6.755363 6.4416394 6.890749 7.128412 7.0036483 7.0959644 7.2371464 7.2875032
7.181685 6.9639373 6.822225 6.969557 6.217566 -0.40537718 -0.07962454 0.017056933
-0.12549366 0.21541089 -0.340943 0.15607667 0.01635616 -0.0044643385 -0.24607594 -0.24434108
0.016783774 -0.25467014 -0.3294612 -0.24464208 -0.09632318 0.24594615 -0.14742386 -0.23250733
-0.51469237 0.26446396 0.24245678 -0.30875257 -0.3155799 0.070064835 0.31452248 0.16847782
0.10665256 0.005459274 -0.24574463 7.3842196 6.441482 6.905974 6.9178376 6.8625813
6.873523 6.8240676 6.861026 6.6502666 7.036885 7.0411797 6.7592688 6.8867908
6.9078984 7.1170344 0.007877616 0.2971407 -0.42174459 0.044899903 0.1634797 -0.15952787
0.1460875 -0.44219613 -0.32434455 -0.22875111 0.50702626 -0.31462583 -0.21129392 0.51995194
0.11008221 6.5769672 7.08928 6.549886 6.8113475 6.8905435 7.402091 7.119127
6.9334044 6.7636604 7.153134 7.135405 6.7650967 6.715206 7.3589745 6.9182043
7.1765003 7.07265 6.506519 6.7595153 7.2326317 6.5306773 6.8641768 6.866871
6.769079 7.1824923 6.9837475 6.8219013 7.0631537 6.754209 6.749591 -0.111293964
00000000: 0edd 033f 2d55 e33e 027c 15be 7dc7 b53e
00000010: 6e1d aa3d 895b 083d 77de a9bd a478 8f3d
00000020: 2243 6c3d c28e 123d d236 923d 19d3 d1be
00000030: a201 e2be 62f4 7abe 78b0 5a3e 5d6e df40
00000040: d48f e440 7118 e440 15aa d340 3e82 e640
00000050: 9ca1 e540 8d99 d840 50b0 cb40 750e dd40
00000060: 9d16 d740 c412 dd40 4121 d840 63df df40
00000070: b6fb de40 4df4 de40 4db7 4cbe b052 6dbe
00000080: 6ede 3a3f 5fec f43a 255e 2cbd d9e7 acbc
00000090: b32c 87be f9d5 23bd 2cf9 8c3e cfe2 adbe
000000a0: f336 c43d 6346 57be ef03 053f 50f6 893e
000000b0: 6380 adbe 35d4 0cbe 0335 bc3e 7832 42bc
000000c0: 82a1 e4bc 78a0 babe 4bd5 943e dc47 d7bd
000000d0: aed0 cfbd 5f65 cbbd 99e0 bb3d 6b42 293e
000000e0: 3399 863e 1ef7 04be a39e 4c3e 1784 f63e
000000f0: 2aaa d540 e9cf e540 4397 e240 576d d640
00000100: 0551 d640 7678 e140 3c20 d540 55c0 ee40
00000110: abe9 d040 5c31 d940 8148 df40 aeae db40
00000120: 0d36 e740 4755 d840 4a23 d640 d833 b23e
00000130: e05f 69be a6e4 693e d143 7cbe 392e 8fbd
00000140: 32e0 d63d a0ab 95bd cb34 25be f836 ab3e
00000150: 8539 b1bd 2edf b9be 4005 d9bd 80f4 b0bd
00000160: ad68 293e 6bd2 9c3e a8e9 d540 d1d9 dd40
00000170: 3211 e640 f0f0 e540 bcd5 ec40 3255 dd40
00000180: 37f4 e540 f137 d640 0e6d e540 48ef df40
00000190: eecd d840 1202 e140 8e34 e440 07d3 c740
000001a0: f1c4 d740 412d 563e 9001 99be a929 9ebd
000001b0: 5b0c babd 4b60 1cbe 5278 30be 6bc5 ecbd
000001c0: 85c4 36be 4647 99bd 9fae 073f 7ab6 b8bc
000001d0: c72d 1bbf 0241 43bd 36cb d8be 4f8a 9c3d
000001e0: d06d e040 63e0 db40 fe1f cc40 b7b5 d140
000001f0: d83d d640 1aee db40 8dd0 da40 5b6d de40
00000200: 741f e040 3af6 df40 01dc e140 5b76 d340
00000210: 324b d140 8c29 f540 552f dd40 1af3 35be
00000220: 8eb3 01bf ee00 4c3e 0bad d83d ed31 7ebe
00000230: b762 3abe 0d5d 2abe 379f ef3d c0b9 9bbd
00000240: d8e0 3e3e 4f38 2a3e 59d3 babe 6016 dc3e
00000250: f3e0 11bf 0501 a83d 5e29 e040 26fa de40
00000260: ef2b d840 e921 ce40 0481 dc40 f31b e440
00000270: e31d e040 2412 e340 b496 e740 3a33 e940
00000280: 5dd0 e540 93d8 de40 ab4f da40 9c06 df40
00000290: 4df6 c640 998d cfbe 3112 a3bd fbba 8b3c
000002a0: 6981 00be ac94 5c3e 1590 aebe 90d2 1f3e
000002b0: 5bfd 853c 9649 92bb 55fb 7bbe 8c34 7abe
000002c0: 207e 893c 2064 82be 23af a8be 7483 7abe
000002d0: 1645 c5bd 4fd9 7b3e 48f6 16be 6716 6ebe
000002e0: e1c2 03bf d267 873e 9746 783e d114 9ebe
000002f0: b093 a1be 277e 8f3d 1709 a13e 7385 2c3e
00000300: a86c da3d b6e3 b23b 7ba4 7bbe 874b ec40
00000310: 9f20 ce40 bdfd dc40 ed5e dd40 449a db40
00000320: e7f3 db40 c35e da40 868d db40 fcce d440
00000330: 292e e140 5851 e140 ee4b d840 9760 dc40
00000340: 810d dd40 bfbe e340 1e11 013c d322 983e
00000350: e8ee d7be f6e8 373d 3967 273e 465b 23be
00000360: f697 153e 8867 e2be 7d10 a6be bb3d 6abe
00000370: 79cc 013f a316 a1be 6f5d 58be 921b 053f
00000380: c872 e13d 8476 d240 62db e240 ab98 d140
00000390: 8ff6 d940 557f dc40 eedd ec40 e3cf e340
000003a0: 73de dd40 e86f d840 79e6 e440 3d55 e440
000003b0: ac7b d840 f8e2 d640 b87c eb40 ee61 dd40
000003c0: e4a5 e540 2653 e240 6735 d040 f34d d840
000003d0: b871 e740 4ffb d040 56a7 db40 68bd db40
000003e0: 4c9c d840 fad6 e540 dc7a df40 044d da40
000003f0: 5b05 e240 7b22 d840 a6fc d740 17ee e3bd

encoder/1/b f4 [15]
6.913267 6.926463 6.9169073 6.925796 6.9192123 6.910422 6.9173865 6.9228215
6.8565936 6.8928766 6.916213 6.9286394 6.920544 6.911323 6.8935843
00000000: 7c39 dd40 96a5 dd40 4e57 dd40 1fa0 dd40
00000010: 306a dd40 2d22 dd40 3b5b dd40 c187 dd40
00000020: 3769 db40 7292 dc40 9e51 dd40 6ab7 dd40
00000030: 1975 dd40 8f29 dd40 3e98 dc40
