NIPS_3/Models/Weights_167/31/weights.npz (npz, 176961 bytes, 8 tensors)

encoder/1/W f4 [15, 784]
0.043184884 -0.0187086 0.07705157 -0.052482087 0.10801797 -0.0399618 0.015174505 -0.02810479
0.022644104 -0.0019680469 0.0074734627 0.012736256 0.7451344 1.025017 0.66298777 0.71058077
-0.07964572 -0.043166764 -0.022613691 -0.056077767 0.036594782 0.00518021 -0.04509583 -0.007840108
-0.015335181 -0.0245807 0.026575418 0.029846588 0.06255554 0.028952658 0.028476737 -0.016687393
0.65351254 0.8521329 1.7330602 2.3819284 2.8975546 3.719898 4.7432084 5.485203
5.863415 5.8335404 6.0599456 5.733916 5.8875685 5.423971 4.437123 3.7702422
3.383886 2.0329192 1.604941 0.77679443 -0.0036777626 -0.0058146706 0.022892192 -0.010604837
0.011465821 0.0147260055 0.65373576 0.92706865 1.6351068 2.300559 3.4712102 5.3196487
6.722795 8.607776 10.0927 11.195197 12.093794 12.693267 13.114218 13.247181
13.253372 13.159915 12.807309 12.225715 11.017542 9.257041 7.278509 4.7575994
2.7657542 1.4352006 -0.024761839 -0.04608181 -0.009727098 -0.0031454852 0.96331567 1.7409999
2.8438823 4.3441534 6.522301 9.028342 11.0460005 12.432051 13.243866 13.83295
14.064985 14.2756 14.395839 14.486028 14.465455 14.420093 14.304554 13.998095
13.430587 12.480315 10.887614 8.321435 5.7881627 2.8451924 1.0024179 -0.032025523
-0.026026644 0.6652367 1.6782898 2.8326502 4.612514 8.516992 10.986949 12.751885
13.727086 14.193193 14.483504 14.597195 14.802729 14.790596 14.84672 14.913396
14.881581 14.841364 14.782747 14.771158 14.581876 14.2711735 13.685707 12.494221
10.602685 7.1357145 2.8377278 1.0509986 -0.012165808 -0.05245508 2.2536497 4.1667595
8.742663 11.731284 13.344986 14.1045685 14.458469 14.737357 14.740176 14.862711
14.94344 14.93684 15.003551 14.966536 14.996206 14.967601 14.996184 14.818499
14.8758 14.701395 14.482473 14.023091 13.133922 10.907117 6.0128603 1.6701508
-0.02472686 1.0532773 3.323757 6.8231244 11.054801 13.083717 14.091046 14.5617695
14.69101 14.877416 14.916867 14.962824 14.897767 14.971419 14.982968 15.003167
15.006169 14.963057 14.984719 15.017261 14.885746 14.8182125 14.635882 14.381951
13.861498 12.318438 8.37041 2.8374717 0.5851296 2.7103214 5.2371645 9.557328
12.689086 13.870506 14.486228 14.693466 14.835088 14.842796 14.981524 15.042393
14.95815 14.995314 15.057907 14.919461 14.978775 14.933566 14.992258 14.933086
14.95991 14.861142 14.714197 14.526179 14.051259 12.837775 9.194859 2.8667483
0.8934397 3.4356039 7.8235707 11.397403 13.340821 14.210443 14.630223 14.814608
14.861688 14.973233 14.925178 15.020133 14.945821 14.982395 15.056151 15.052886
15.022538 15.01336 14.991854 14.9604 14.958492 14.788907 14.755628 14.46748
14.076116 12.76967 8.729922 2.5286818 1.2578051 3.8859844 8.86517 11.747089
00000000: a2e2 303d c742 99bc 37cd 9d3d 75f7 56bd
00000010: 8738 dd3d fcae 23bd 7d9e 783c 043c e6bc
00000020: 2180 b93c 59fa 00bb f3e3 f43b bbab 503c
00000030: 21c1 3e3f c233 833f 91b9 293f 9fe8 353f
00000040: 4c1d a3bd a2cf 30bd 5940 b9bc cdb1 65bd
00000050: 69e4 153d c0be a93b 68b6 38bd cc73 00bc
00000060: 6940 7bbc 775d c9bc b1b4 d93c d580 f43c
00000070: 1e1d 803d 202e ed3c 0c48 e93c 00b4 88bc
00000080: 994c 273f 6225 5a3f ebd4 dd3f 8471 1840
00000090: 8971 3940 cf12 6e40 5dc8 9740 c886 af40
000000a0: 18a1 bb40 5dac ba40 13eb c140 3d7c b740
000000b0: f666 bc40 2c91 ad40 e9fc 8d40 a64b 7140
000000c0: 9791 5840 591b 0240 b56e cd3f 00dc 463f
000000d0: 9e06 71bb fe88 bebb 6888 bb3c e9bf 2dbc
000000e0: 24db 3b3c 5845 713c 3a5b 273f 5f54 6d3f
000000f0: 2e4b d13f 5c3c 1340 4f28 5e40 903a aa40
00000100: 2321 d740 73b9 0941 b37b 2141 871f 3341
00000110: 2e80 4141 9f17 4b41 d6d3 5141 74f4 5341
00000120: d00d 5441 038f 5241 bdea 4c41 879c 4341
00000130: da47 3041 d71c 1441 8ce9 e840 413e 9840
00000140: 1e02 3140 a7b4 b73f 57d9 cabc 48c0 3cbd
00000150: 685e 1fbc 7c24 4ebb db9b 763f 16d9 de3f
00000160: 2b02 3640 4e03 8b40 b1b6 d040 1774 1041
00000170: 6bbc 3041 aee9 4641 e0e6 5341 c353 5d41
00000180: 2e0a 6141 dc68 6441 5b55 6641 c5c6 6741
00000190: 8172 6741 b3b8 6641 74df 6441 32f8 5f41
000001a0: afe3 5641 5faf 4741 ab33 2e41 9924 0541
000001b0: a138 b940 a217 3640 3b4f 803f 322d 03bd
000001c0: d435 d5bc f44c 2a3f 33d2 d63f 244a 3540
000001d0: b799 9340 9945 0841 8bca 2f41 b907 4c41
000001e0: 25a2 5b41 5217 6341 6fbc 6741 1c8e 6941
000001f0: fad7 6c41 48a6 6c41 2a8c 6d41 459d 6e41
00000200: f51a 6e41 3a76 6d41 2286 6c41 aa56 6c41
00000210: 5d4f 6941 ba56 6441 a8f8 5a41 54e8 4741
00000220: 99a4 2941 c657 e440 559d 3540 1f87 863f
00000230: 1953 47bc 23db 56bd cc3b 1040 1856 8540
00000240: f3e1 0b41 57b3 3b41 1085 5541 50ac 6141
00000250: e455 6741 37cc 6b41 c3d7 6b41 aacd 6d41
00000260: 5518 6f41 4cfd 6e41 8b0e 7041 ee76 6f41
00000270: 76f0 6f41 4b7b 6f41 5ff0 6f41 9218 6d41
00000280: 4703 6e41 ea38 6b41 36b8 6741 955e 6041
00000290: 8b24 5241 8d83 2e41 5a69 c040 80c7 d53f
000002a0: fc8f cabc cad1 863f 6fb8 5440 0957 da40
000002b0: 77e0 3041 e856 5141 ed74 6141 02fd 6841
000002c0: 610e 6b41 e509 6e41 7dab 6e41 ba67 6f41
000002d0: 415d 6e41 ef8a 6f41 3dba 6f41 f90c 7041
000002e0: 4519 7041 ae68 6f41 69c1 6f41 b346 7041
000002f0: 042c 6e41 6617 6d41 932c 6a41 791c 6641
00000300: b2c8 5d41 5218 4541 33ed 0541 2399 3540
00000310: 0ecb 153f e875 2d40 da96 a740 d1ea 1841
00000320: 7f06 4b41 98ed 5d41 97c7 6741 7018 6b41
00000330: 855c 6d41 187c 6d41 53b4 6f41 a4ad 7041
00000340: 9554 6f41 ceec 6f41 30ed 7041 1db6 6e41
00000350: 10a9 6f41 e3ef 6e41 4ae0 6f41 eced 6e41
00000360: cb5b 6f41 3dc7 6d41 5a6d 6b41 3b6b 6841
00000370: f5d1 6041 8767 4d41 241e 1341 ce78 3740
00000380: 77b8 643f efe0 5b40 b15a fa40 c35b 3641
00000390: 0174 5541 f95d 6341 6515 6a41 a208 6d41
000003a0: 79c9 6d41 5d92 6f41 87cd 6e41 7752 7041
000003b0: 1522 6f41 e4b7 6f41 ffe5 7041 9fd8 7041
000003c0: 515c 7041 b936 7041 a2de 6f41 cc5d 6f41
000003d0: fc55 6f41 5d9f 6c41 0d17 6c41 cc7a 6741
000003e0: c537 6141 9150 4c41 c3ad 0b41 ecd5 2140
000003f0: c2ff a03f f8b3 7840 bcd7 0d41 14f4 3b41

encoder/0/b f4 [15]
0.045117006 -0.016824257 0.030555345 0.038454898 0.031232145 0.033160184 0.036461346 0.049647048
0.036150716 0.03617696 0.03231472 -0.009575111 0.055690214 0.029760359 0.01923049
00000000: 9ccc 383d 06d3 89bc 344f fa3c e282 1d3d
00000010: 8eda ff3c f9d2 073d 7e58 153d b45a 4b3d
00000020: c612 143d 4b2e 143d 715c 043d ede0 1cbc
00000030: 6c1b 643d ffcb f33c 4389 9d3c

decoder/0/W f4 [784, 15]
0.32313395 -0.023622192 0.050017152 -0.08512581 0.08215137 -0.29111966 0.25320444 0.12544416
-0.03959831 0.046896126 -0.36729872 0.0633415 -0.0008279278 -0.10379887 -0.48838127 -0.52652794
-0.30160838 0.11557722 0.18693358 -0.23285006 -0.34731406 -0.05870811 -0.25840014 -0.052446075
-0.14372945 0.1470985 -0.0855721 0.17940328 0.07599233 0.1491284 11.889101 11.78113
11.81197 12.486709 11.910974 12.08015 11.906695 11.826492 12.726185 12.37875
12.054967 11.887237 12.409039 12.18107 11.3008 11.941276 11.610446 11.923651
12.199237 11.669942 11.775647 12.03052 12.526508 11.744944 12.0992775 12.337097
11.564345 11.843414 11.702375 11.743443 -0.014225212 0.084951036 -0.039201275 -0.11384574
0.27689686 0.21312784 0.01651375 -0.40899998 -0.28930864 0.113554865 -0.09550853 -0.3655009
0.4471284 -0.14824048 -0.30604535 0.108765446 -0.33286482 -0.031436954 -0.13850026 -0.014745986
0.22806889 0.3345441 -0.39338067 -0.36415946 -0.02376811 -0.07062834 -0.335788 -0.100106426
-0.114831194 0.3880911 0.014241432 0.19446982 -0.3499049 -0.0069584264 0.3218566 -0.10525371
0.24321784 0.0008957198 -0.038151752 -0.092919424 -0.0729294 -0.26872402 -0.011071397 0.025761908
-0.10482354 12.14228 11.910797 11.847767 12.142486 11.8259535 11.899473 12.184579
11.923065 11.701493 12.300996 12.1313305 12.036235 11.639862 11.944204 12.225997
0.121939845 -0.4899152 -0.3103935 0.014417675 -0.09689408 0.16474643 0.082624584 0.27584338
0.0096573625 0.03503288 0.2934206 -0.71717423 0.14254782 0.113513194 -0.42019263 0.315505
-0.19243672 -0.14585926 0.16381654 -0.32777923 -0.05704886 0.1495878 0.042608015 0.12995778
0.33523938 -0.14024584 -0.2350295 -0.11532357 -0.34918487 0.16854362 11.914818 11.578184
12.054283 12.069891 11.759217 12.102774 11.891017 12.11586 12.358757 12.069504
11.780235 12.354194 12.1531 12.055386 12.168019 12.292086 11.90142 11.942131
11.756465 12.030768 12.209887 11.873662 12.048796 12.148762 12.4505825 12.412922
11.691817 12.161694 12.042484 11.856928 -0.025628833 -0.37134844 -0.39587164 -0.008885807
0.13486212 0.24625798 0.276038 -0.28028077 -0.37747377 -0.039223507 0.2793273 0.059363272
-0.20310965 0.0043574423 0.31081018 0.111133665 -0.2065988 0.12844828 0.25451145 -0.06498593
-0.09885746 0.35975033 -0.019490754 -0.20076045 -0.23028739 -0.10112428 0.18139413 -0.21193796
-0.51978606 0.31967172 11.919211 11.824121 11.930094 12.14588 12.217328 11.890901
12.279167 11.483581 12.0775585 11.796423 12.318461 11.731124 12.206489 11.827391
12.146048 0.018563366 -0.065948814 -0.12142959 -0.29269978 -0.12629217 -0.22360727 0.08919839
-0.06162657 0.083396256 -0.3901828 0.13081928 0.17993782 -0.2911014 -0.0356947 -0.03654097
-0.5663876 0.23765337 -0.28516212 -0.2720024 0.30644283 -0.10281849 -0.2215337 0.15397981
0.08753938 0.07878564 0.15038781 0.06870558 0.17298488 -0.44866484 -0.11342075 12.176528
00000000: d071 a53e 5483 c1bc c9de 4c3d 7156 aebd
00000010: fa3e a83d a30d 95be 03a4 813e 6f74 003e
00000020: d631 22bd 2716 403d 940e bcbe 30b9 813d
00000030: 4b09 59ba 8194 d4bd 1c0d fabe 89ca 06bf
00000040: 6a6c 9abe c0b3 ec3d 846b 3f3e 3f70 6ebe
00000050: 26d3 b1be ea77 70bd 064d 84be b2d1 56bd
00000060: d02d 13be fda0 163e 6d40 afbd 7eb5 373e
00000070: dea1 9b3d 1eb5 183e c239 3e41 827f 3c41
00000080: d4fd 3c41 8fc9 4741 5993 3e41 4b48 4141
00000090: d381 3e41 5039 3d41 749e 4b41 5c0f 4641
000000a0: 25e1 4041 1f32 3e41 6c8b 4641 aae5 4241
000000b0: 14d0 3441 770f 3f41 63c4 3941 46c7 3e41
000000c0: 1330 4341 15b8 3a41 0d69 3c41 037d 4041
000000d0: 946c 4841 4aeb 3b41 a496 4141 c064 4541
000000e0: 8f07 3941 a07e 3d41 ee3c 3b41 24e5 3b41
000000f0: dd10 69bc cffa ad3d 8491 20bd f527 e9bd
00000100: 6dc5 8d3e 2f3e 5a3e d847 873c 7268 d1be
00000110: 4320 94be 748f e83d fa99 c3bd ef22 bbbe
00000120: 03ee e43e 5acc 17be fab1 9cbe 6bc0 de3d
00000130: 426d aabe 09c4 00bd 03d3 0dbe 2699 71bc
00000140: e48a 693e 5d49 ab3e 3169 c9be 1c73 babe
00000150: 57b5 c2bc 97a5 90bd 68ec abbe 9904 cdbd
00000160: 9e2c ebbd e0b3 c63e e554 693c 1923 473e
00000170: bc26 b3be 8303 e4bb 63ca a43e 428f d7bd
00000180: 190e 793e bdce 6a3a 0345 1cbd 8a4c bebd
00000190: 025c 95bd 3296 89be ce64 35bc a30a d33c
000001a0: b9ad d6bd c746 4241 a092 3e41 7490 3d41
000001b0: 9f47 4241 1b37 3d41 3e64 3e41 09f4 4241
000001c0: e0c4 3e41 5139 3b41 e1d0 4441 ee19 4241
000001d0: 6b94 4041 e03c 3a41 761b 3f41 af9d 4341
000001e0: 99bb f93d 2ad6 fabe e6eb 9ebe 1d38 6c3c
000001f0: 6770 c6bd 4ab3 283e 1437 a93d 583b 8d3e
00000200: ea39 1e3c a37e 0f3d 3a3b 963e bb98 37bf
00000210: 0ef8 113e 9b79 e83d 7d23 d7be df89 a13e
00000220: 220e 45be 215c 15be 86bf 273e aed2 a7be
00000230: 11ac 69bd 8b2d 193e be85 2e3d a713 053e
00000240: 7fa4 ab3e 9b9c 0fbe 93ab 70be c42e ecbd
00000250: 5cc8 b2be b396 2c3e 18a3 3e41 3e40 3941
00000260: 58de 4041 461e 4141 c125 3c41 f6a4 4141
00000270: 9b41 3e41 90da 4141 78bd 4541 b01c 4141
00000280: d87b 3c41 c7aa 4541 1973 4241 dce2 4041
00000290: 35b0 4241 62ac 4441 376c 3e41 f812 3f41
000002a0: 7b1a 3c41 077e 4041 b25b 4341 85fa 3d41
000002b0: dec7 4041 5461 4241 9635 4741 549b 4641
000002c0: af11 3b41 4c96 4241 04ae 4041 fab5 3d41
000002d0: 8ff3 d1bc 6221 bebe b0af cabe c795 11bc
000002e0: 4c19 0a3e 0d2b 7c3e da54 8d3e f680 8fbe
000002f0: 3e44 c1be d4a8 20bd fd03 8f3e e726 733d
00000300: fafb 4fbe e0c8 8e3b 8322 9f3e 0c9a e33d
00000310: a38e 53be f287 033e 534f 823e 5817 85bd
00000320: c875 cabd 3231 b83e 13ab 9fbc 2694 4dbe
00000330: 75d0 6bbe 3f1a cfbd 62bf 393e 4406 59be
00000340: b310 05bf 03ac a33e 17b5 3e41 9a2f 3d41
00000350: aae1 3e41 8655 4241 2d7a 4341 2141 3e41
00000360: 7877 4441 bfbc 3741 ae3d 4141 26be 3c41
00000370: 6b18 4541 afb2 3b41 c74d 4341 fe3c 3d41
00000380: 3656 4241 3312 983c 2c10 87bd 14b0 f8bd
00000390: bfdc 95be bc52 01be 4ef9 64be a5ad b63d
000003a0: 246c 7cbd a8cb aa3d 0ac6 c7be 7df5 053e
000003b0: 9f41 383e 3e0b 95be 9b34 12bd fcab 15bd
000003c0: c7fe 10bf 685b 733e c500 92be e643 8bbe
000003d0: 13e6 9c3e 8092 d2bd bbd9 62be e2ac 1d3e
000003e0: d947 b33d 5e5a a13d 43ff 193e 83b5 8c3d
000003f0: f322 313e 66b7 e5be 2349 e8bd 0fd3 4241

decoder/0/b f4 [784]
0.007570402 0.017812159 9.629665 9.517637 0.003658894 -0.0007317313 -0.066731185 9.64995
-0.0064880727 -0.031133447 9.609838 9.605722 -0.07543231 -0.0016592903 9.615369 0.015690926
0.019319084 9.600868 9.60796 -0.055122826 9.628108 0.0021352705 9.607607 -0.02418524
0.017300801 -0.012025884 0.009287032 0.0049698907 9.600911 9.629273 -0.0044473023 0.010845498
9.60668 0.015544604 9.605377 9.605675 9.614509 0.009276989 0.017331215 9.615659
9.625641 9.6579685 0.014280279 -0.008619348 0.01008233 0.00346259 9.6126 0.0058666966
9.627928 0.012948011 9.621266 9.60615 -0.022462264 9.612334 9.637524 0.018974373
9.606896 9.633056 0.014814069 9.614798 0.0132194655 9.603509 -0.02971272 0.0133564565
9.602623 9.60515 -0.031728998 0.0020249286 9.605266 -0.023332775 9.642149 -0.0757756
-0.075392455 9.6246805 9.6499 9.606318 0.013002752 -0.060187288 0.008167286 0.016436977
9.47122 -0.00062455237 9.604334 9.609305 -0.03303274 9.603754 0.014756333 9.623112
-0.00066045497 9.609283 -0.027414538 0.016665567 -0.004309482 9.652222 9.613254 9.608718
9.603997 -0.00119078 9.612855 -0.046686884 9.634348 0.011062239 9.628672 0.015411419
0.015149038 -0.018047146 9.619931 9.601804 9.639408 9.663122 9.603662 9.604414
9.643157 9.618623 0.00869493 -0.0021880604 9.63127 0.013972641 9.602961 -0.009217488
0.0068788095 -0.004176494 -0.012756556 9.602814 0.016199036 -0.029777931 0.015494644 -0.048453994
0.00926003 9.616834 -0.0034825285 -0.01253935 9.632501 9.606903 9.620642 9.613797
-0.020306222 0.018384835 9.650825 9.629814 -0.03754757 9.607584 0.0060616047 -0.008695911
-0.0025484238 9.688899 9.63006 -0.037829023 9.605625 0.01437944 -0.027188659 9.615202
0.010285603 0.0059044105 9.654312 0.01915863 9.630773 -0.015738886 9.613416 -0.0018096137
9.668338 9.601356 -0.042461663 9.645137 0.005701752 9.614141 9.644691 9.613066
9.608727 9.603543 9.590952 -0.022317471 9.594166 9.643442 9.275255 9.606247
9.615406 9.606076 9.581173 9.612615 9.609699 0.014713653 9.618075 9.686339
9.614746 0.013240567 0.0108483685 9.64189 9.636398 9.556459 0.009421953 8.872458
9.614635 9.571495 9.630752 0.018248096 9.6434145 9.638993 0.012572489 9.633163
0.0161933 0.00073459436 -0.067719065 9.621084 9.649897 9.60951 -0.04548492 0.013063361
9.642429 0.019384488 9.618145 9.604457 9.647743 9.66049 -0.07875213 9.613827
9.644462 0.0060055056 -0.02874187 9.612203 9.644674 9.610465 0.0008185057 9.617828
9.627034 -0.0005428517 9.64775 0.006005508 9.65065 -0.037414674 9.635664 9.635355
0.016848313 9.5514145 9.626214 0.018726228 9.667755 9.636085 9.624802 9.614859
9.628335 0.012246421 -0.00733838 0.009008728 0.006575506 0.015645176 -0.031042688 -0.07089192
-0.03720195 9.600577 9.64421 0.020614965 9.608186 -0.003816176 -0.05375677 0.01751057
00000000: 2311 f83b ceea 913c 1c13 1a41 3e48 1841
00000010: 0eca 6f3b a8d1 3fba 5caa 88bd 3266 1a41
00000020: e699 d4bb 920b ffbc e5c1 1941 0ab1 1941
00000030: 417c 9abd 8b7c d9ba 8dd8 1941 428a 803c
00000040: 0e43 9e3c 289d 1941 34ba 1941 79c8 61bd
00000050: bb0c 1a41 e5ef 0b3b c2b8 1941 2020 c6bc
00000060: 69ba 8d3c 3708 45bc a328 183c 77da a23b
00000070: 559d 1941 8111 1a41 adba 91bb 51b1 313c
00000080: f6b4 1941 cbae 7e3c a0af 1941 d8b0 1941
00000090: 07d5 1941 83fe 173c 31fa 8d3c bdd9 1941
000000a0: a002 1a41 0a87 1a41 d5f7 693c 2a38 0dbc
000000b0: 5b30 253c 9fec 623b 36cd 1941 6b3d c03b
000000c0: fe0b 1a41 e523 543c b5f0 1941 cab2 1941
000000d0: c802 b8bc 1fcc 1941 4c33 1a41 2570 9b3c
000000e0: d9b5 1941 ff20 1a41 b5b6 723c 36d6 1941
000000f0: 7596 583c f9a7 1941 1768 f3bc 0ad5 5a3c
00000100: 58a4 1941 b2ae 1941 44f6 01bd aab4 043b
00000110: 2baf 1941 6024 bfbc 3e46 1a41 3d30 9bbd
00000120: 5c67 9abd b1fe 1941 fe65 1a41 7bb3 1941
00000130: 7f09 553c f286 76bd 15d0 053c d7a6 863c
00000140: 1e8a 1741 00b9 23ba 5aab 1941 b7bf 1941
00000150: 574d 07bd faa8 1941 8cc4 713c 44f8 1941
00000160: 6222 2dba a0bf 1941 7494 e0bc 3a86 883c
00000170: 8e36 8dbb 806f 1a41 e3cf 1941 4fbd 1941
00000180: f9a9 1941 f213 9cba 41ce 1941 bf3a 3fbd
00000190: 4a26 1a41 653e 353c 0a0f 1a41 2d80 7c3c
000001a0: ac33 783c 9cd7 93bc 3deb 1941 fda0 1941
000001b0: 043b 1a41 269c 1a41 99a8 1941 aeab 1941
000001c0: 5f4a 1a41 e1e5 1941 2e75 0e3c 9065 0fbb
000001d0: af19 1a41 81ed 643c baa5 1941 f204 17bc
000001e0: a367 e13b f9da 88bb e000 51bc 20a5 1941
000001f0: d7b3 843c d9f0 f3bc 3fdd 7d3c b277 46bd
00000200: 62b7 173c 8dde 1941 223b 64bb d971 4dbc
00000210: b91e 1a41 e0b5 1941 26ee 1941 1dd2 1941
00000220: 3c59 a6bc cb9b 963c c769 1a41 b813 1a41
00000230: 7bcb 19bd aab8 1941 6da0 c63b 4b79 0ebc
00000240: 7503 27bb bb05 1b41 ba14 1a41 9bf2 1abd
00000250: a4b0 1941 be97 6b3c c0ba debc ded7 1941
00000260: f284 283c c979 c13b 1078 1a41 8ff2 9c3c
00000270: a517 1a41 d6ee 80bc 8dd0 1941 8f30 edba
00000280: 83b1 1a41 279f 1941 48ec 2dbd 7b52 1a41
00000290: c3d5 ba3b 86d3 1941 a850 1a41 1ecf 1941
000002a0: 59bd 1941 1da8 1941 8a74 1941 21d3 b6bc
000002b0: b481 1941 8a4b 1a41 7267 1441 30b3 1941
000002c0: b4d8 1941 7db2 1941 7c4c 1941 45cd 1941
000002d0: 54c1 1941 8911 713c a3e3 1941 3ffb 1a41
000002e0: 00d6 1941 f7ee 583c 5bbd 313c 2e45 1a41
000002f0: b02e 1a41 42e7 1841 895e 1a3c 97f5 0d41
00000300: 8cd5 1941 d824 1941 8f17 1a41 087d 953c
00000310: 6d4b 1a41 5139 1a41 d7fc 4d3c 7021 1a41
00000320: d0a7 843c cb91 403a 4bb0 8abd f6ef 1941
00000330: fa65 1a41 8ec0 1941 654e 3abd b507 563c
00000340: 6447 1a41 38cc 9e3c ece3 1941 dbab 1941
00000350: 285d 1a41 5e91 1a41 cc48 a1bd 3cd2 1941
00000360: b74f 1a41 d5c9 c43b 1274 ebbc 95cb 1941
00000370: 9650 1a41 77c4 1941 fd90 563a a0e2 1941
00000380: 5508 1a41 294e 0eba 2f5d 1a41 dac9 c43b
00000390: 1069 1a41 2140 19bd ae2b 1a41 6a2a 1a41
000003a0: 7905 8a3c 98d2 1841 f904 1a41 bf67 993c
000003b0: 20af 1a41 672d 1a41 30ff 1941 76d6 1941
000003c0: a90d 1a41 36a5 483c cb76 f0bb 5899 133c
000003d0: 5877 d73b 502a 803c 3c4d febc c82f 91bd
000003e0: 1261 18bd f79b 1941 af4e 1a41 b7e0 a83c
000003f0: 21bb 1941 cf18 7abb 0f30 5cbd 5472 8f3c

encoder/0/W f4 [15, 784]
0.020628992 0.0043552187 0.033064295 0.014924364 0.029954836 -0.0027206049 -0.040234536 -0.0011721671
0.010086459 0.036094822 -0.08785955 0.06651386 -0.05816288 -0.056596287 0.01664695 -0.059629045
0.015205258 -0.024994235 -0.00984577 0.005366973 0.017744856 -0.077117115 -0.043562446 0.036265496
0.006657927 0.022201648 -0.06783759 -0.013150238 -0.0028690528 -0.051892795 -0.021909272 0.0044816406
0.07831929 0.1157758 -0.00786494 0.18224688 0.13933337 -0.07210762 0.017707003 -0.17797634
-0.33572072 0.005136725 0.059587386 0.3329662 0.2535357 0.118750386 -0.06922419 0.034521107
0.2768628 0.21528757 0.1645915 0.10178849 -0.03484256 -0.011348673 0.01470778 -0.018576002
0.0011477971 0.014568489 -0.051256984 -0.026587766 0.13575564 0.06616961 0.05999507 0.22221078
0.17702171 -0.021889312 -0.109882616 0.16109648 0.13822314 -0.004770181 -0.015288467 0.20532365
0.23902355 0.14227149 0.065739036 0.12046516 0.14816616 0.086705 0.19657461 0.16776946
0.17237663 0.14508072 0.03474604 0.008528231 0.012652532 0.01930383 -0.05884261 -0.04710862
-0.11035537 -0.048845403 0.22352375 0.11393353 0.16787939 0.052167382 0.08471858 0.07380717
0.017983545 0.077415064 0.05642658 0.0587395 0.12072686 0.18826859 0.123843364 0.09634115
0.12305461 0.22303465 0.19183642 0.015086935 0.0029392752 0.110175416 0.09946552 -0.009310888
0.008988628 -0.029459996 -0.08206969 -0.023551775 -0.18095441 0.050764147 -0.03548562 -0.055795833
-0.08727154 -0.059605215 -0.07775668 -0.010452939 -0.057468895 0.027160669 -0.0076285554 -0.041084047
-0.031853553 -0.025757022 0.0027828594 0.018587815 0.12981735 0.16552539 0.09414597 -0.03997916
-0.055171445 0.051923558 0.055018753 -0.010240114 -0.046245877 -0.060054656 0.17283876 0.113278255
-0.10996516 -0.020817695 -0.07695052 -0.1147191 -0.10806155 -0.09723975 -0.04521142 -0.012406689
-0.09440114 -0.077186786 0.019415801 -0.07288759 -0.045903027 -0.060199745 -0.043218777 -0.028239958
0.021581842 0.033497963 0.07502512 -0.015651448 -0.03152041 -0.032096513 0.07739012 -0.08349734
0.020163598 0.044103567 -0.09098903 0.02646946 -0.12569655 -0.09764675 -0.13388039 -0.08308157
-0.004203499 -0.04811559 -0.059497874 -0.061040424 -0.006357998 -0.021194289 0.0011285449 -0.082066
-0.020597229 0.0417404 -0.0059451116 -0.040024612 -0.021623224 -0.111234926 -0.045132272 0.03604599
-0.0074292785 -0.11854903 -0.18150552 -0.23384848 -0.009595842 0.01641028 -0.07382327 -0.19802606
-0.123626694 -0.024810437 -0.068162814 -0.054521292 -0.107146904 -0.0589972 -0.10752596 -0.06608182
-0.044048406 -0.058381975 -0.045335542 -0.025384728 0.04110262 -0.010642047 -0.073809 -0.02887104
-0.06664724 -0.075676285 -0.15322283 -0.071433656 -0.09404459 -0.0064662 -0.003184469 -0.12526345
0.02496146 0.24576388 0.16806059 0.050392363 0.04440223 -0.05764617 0.018338919 -0.055915836
-0.048378035 -0.015756467 -0.10772865 -0.01982358 -0.028685108 -0.0066519254 0.0062002386 -0.01052304
-0.052886646 0.00058297056 0.051987205 -0.033227712 -0.025804732 -0.063908264 -0.09837004 -0.017581273
-0.05144508 0.031786606 0.15424141 -0.08524588 0.09782079 0.17375137 0.20194604 0.08267319
00000000: 22fe a83c 39b6 8e3b 6d6e 073d 5285 743c
00000010: d863 f53c 2d4c 32bb f8cc 24bd 67a3 99ba
00000020: ad41 253c 2ad8 133d b5ef b3bd 6b38 883d
00000030: 333c 6ebd 82d1 67bd 2f5f 883c 963d 74bd
00000040: 791f 793c b6c0 ccbc 2750 21bc 6fdd af3b
00000050: a95d 913c 94ef 9dbd 896e 32bd 218b 143d
00000060: bd2a da3b 3be0 b53c 6fee 8abd 1974 57bc
00000070: b806 3cbb 8a8d 54bd 137b b3bc bada 923b
00000080: dd65 a03d dd1b ed3d f3db 00bc ed9e 3a3e
00000090: 68ad 0e3e 29ad 93bd 470e 913c 6e3f 36be
000000a0: 96e3 abbe f951 a83b e711 743d 8c7a aa3e
000000b0: 6ecf 813e 6733 f33d 6ac5 8dbd 0166 0d3d
000000c0: f6c0 8d3e 5874 5c3e ad8a 283e 7c76 d03d
000000d0: 12b7 0ebd c9ef 39bc e7f8 703c b32c 98bc
000000e0: ae71 963a acb0 6e3c d8f2 51bd 96ce d9bc
000000f0: 8703 0b3e ef83 873d 64bd 753d 398b 633e
00000100: 2e45 353e 3751 b3bc 230a e1bd 7af6 243e
00000110: 5e8a 0d3e 2e4f 9cbb 7a7c 7abc 5d40 523e
00000120: 97c2 743e 9eaf 113e 30a2 863d 70b6 f63d
00000130: dfb8 173e 6492 b13d db4a 493e c2cb 2b3e
00000140: 8083 303e 0a90 143e dd51 0e3d feb9 0b3c
00000150: 914c 4f3c 1123 9e3c f304 71bd f8f4 40bd
00000160: ff01 e2bd 1e12 48bd 69e3 643e fc55 e93d
00000170: 93e8 2b3e 77ad 553d ef80 ad3d 3728 973d
00000180: 3a52 933c ca8b 9e3d 8f1f 673d d498 703d
00000190: a53f f73d 7bc9 403e 97a1 fd3d 824e c53d
000001a0: 0e04 fc3d 3263 643e c470 443e 312f 773c
000001b0: dba0 403b a6a3 e13d 94b4 cb3d b28c 18bc
000001c0: 0a45 133c 1756 f1bc 2714 a8bd a7ef c0bc
000001d0: 1d4c 39be 11ee 4f3d 5f59 11bd 2c8a 64bd
000001e0: 6cbb b2bd 9924 74bd e53e 9fbd ce42 2bbc
000001f0: 8164 6bbd 0d80 de3c f6f8 f9bb bf47 28bd
00000200: df78 02bd 6400 d3bc a260 363b 7945 983c
00000210: d7ee 043e 7d7f 293e 9acf c03d 30c1 23bd
00000220: 74fb 61bd ccad 543d 585b 613d 27c6 27bc
00000230: 516c 3dbd dffb 75bd a5fc 303e 6efe e73d
00000240: 6a35 e1bd df89 aabc 3c98 9dbd d9f1 eabd
00000250: 604f ddbd a225 c7bd 9c2f 39bd 6d45 4bbc
00000260: 6355 c1bd 1b14 9ebd e30d 9f3c 1746 95bd
00000270: d004 3cbd 0294 76bd 2c06 31bd 7c57 e7bc
00000280: 67cc b03c 2935 093d c5a6 993d 7737 80bc
00000290: 8c1b 01bd a277 03bd b67e 9e3d a700 abbd
000002a0: 212e a53c f1a5 343d 7558 babd 7bd6 d83c
000002b0: 99b6 00be 05fb c7bd f117 09be ac26 aabd
000002c0: 81bd 89bb da14 45bd 0bb4 73bd 8605 7abd
000002d0: c156 d0bb a59f adbc afeb 933a 3812 a8bd
000002e0: 85bb a8bc fbf7 2a3d 36cf c2bb d9f0 23bd
000002f0: 3023 b1bc 23cf e3bd 9edc 38bd f6a4 133d
00000300: 4e71 f3bb d5c9 f2bd 95dc 39be fa75 6fbe
00000310: e137 1dbc da6e 863c a830 97bd 58c7 4abe
00000320: fe2f fdbd 423f cbbc f298 8bbd b851 5fbd
00000330: d66f dbbd 0ca7 71bd 9236 dcbd e855 87bd
00000340: 1a6c 34bd f021 6fbd c3b1 39bd a2f3 cfbc
00000350: 395b 283d fb5b 2ebc 2c29 97bd f682 ecbc
00000360: 597e 88bd 2bfc 9abd 72e6 1cbe cf4b 92bd
00000370: 739a c0bd 6be2 d3bb 86b2 50bb 1045 00be
00000380: fa7b cc3c 87a9 7b3e 1318 2c3e 3968 4e3d
00000390: 1ddf 353d 641e 6cbd 803b 963c 0108 65bd
000003a0: 0c28 46bd b513 81bc d7a0 dcbd 0f65 a2bc
000003b0: 08fd eabc 65f8 d9bb 5f2b cb3b d468 2cbc
000003c0: ab9f 58bd 7ed2 183a 89f0 543d c819 08bd
000003d0: 7264 d3bc 56e2 82bd 3b76 c9bd 9a06 90bc
000003e0: 14b8 52bd ac32 023d 76f1 1d3e 6495 aebd
000003f0: 4456 c83d e1eb 313e f1ca 4e3e 9050 a93d

decoder/1/b f4 [784]
13.642159 0.019961162 0.03649809 0.077035144 13.612386 0.017669583 13.598907 0.043906596
13.596462 13.602374 0.028353535 0.02052417 13.580846 13.632319 0.019644734 13.625403
13.62781 0.016421746 0.025177103 13.620458 0.041595813 13.646228 0.01620973 13.629541
13.673074 13.627918 13.62078 13.659904 0.021783056 0.011759054 13.580593 13.667074
0.02118993 13.631698 0.020032676 0.042060774 0.0383436 13.676787 0.00923586 0.015836576
0.06160061 0.01343925 13.593108 13.671523 13.612222 13.660178 0.019279335 13.643959
0.050624173 13.615436 0.014401267 0.03057134 13.620205 0.026981775 0.011308509 13.65382
0.021477856 0.043927874 13.673994 0.041422173 13.670611 0.014652537 13.601261 0.016113421
0.018006727 0.03424664 13.653386 13.640233 0.022955721 13.598782 0.01397459 13.607873
13.6051855 0.003710938 0.017053602 0.014022718 13.67651 13.6256895 13.645253 0.015878838
0.046915088 13.67212 0.015518302 0.008439868 13.603763 0.0108527085 13.641086 0.03218689
13.611811 0.018195333 13.650821 0.011161382 13.617917 0.06386648 0.030422583 0.018214284
0.02233903 13.636139 0.055706266 13.623562 0.05249296 13.664574 0.04122876 13.667907
0.012057753 13.630314 0.035802912 0.023691896 0.010645841 0.02094907 0.023637366 0.021648547
0.010701222 0.018901007 13.607205 13.653185 0.012548181 13.636266 0.023736356 13.67068
0.016009059 13.648769 13.602752 -0.003405764 0.010627608 13.617227 13.598747 13.604876
13.607718 0.018823018 13.632604 13.647928 0.039325368 0.016588915 0.0061305556 0.01956061
13.652236 13.675611 0.019753892 0.043693703 13.6219 0.022028038 13.669333 13.657133
13.667386 0.012789122 0.019809972 13.631525 0.026942026 13.589502 13.625938 0.029841263
13.63304 13.631286 -0.010758675 -0.011885145 0.0023178046 13.647119 -0.013481723 13.65336
0.03635812 0.007350824 13.606487 0.020036109 13.646663 0.056256436 0.017427672 0.010826637
0.013946864 0.013504782 0.03468903 13.658629 0.019584382 0.044797003 0.032612592 0.020822167
0.024192818 -0.0003301764 0.033915654 0.008312112 0.0030925681 -0.018151218 -0.010971822 -0.017879961
-0.014492026 13.615349 13.623235 -0.0122495135 0.033376694 0.035531435 0.014503231 0.06944025
0.04244619 0.05003634 0.030300938 13.658448 0.015419483 0.056368005 13.646802 0.016099557
0.022140827 13.65405 13.617995 0.020466443 0.041487526 0.026886195 13.613221 -0.013772389
-0.016655935 -0.01432728 -0.012907361 -0.014398904 -0.0033345607 -0.01363187 13.588914 -0.005333038
0.038657147 13.583748 13.645726 0.029118389 0.009326264 0.029788906 13.663942 0.017330632
0.044397842 13.645309 0.03927635 13.674575 0.05013477 13.592629 0.034219194 0.015118484
-0.018254781 0.017917631 -0.008585642 13.616463 -0.014170766 -0.007025984 0.011031075 -0.0131766945
-0.014080061 -0.015736738 13.585306 13.618847 13.627997 13.622772 13.5920515 13.594788
13.605851 0.012829402 0.0150578385 13.668218 0.036417622 13.604217 13.620871 13.680045
00000000: 4946 5a41 9785 a33c 057f 153d 9ac4 9d3d
00000010: 55cc 5941 cdbf 903c 2095 5941 67d7 333d
00000020: 1c8b 5941 53a3 5941 ac45 e83c 4e22 a83c
00000030: 254b 5941 fb1d 5a41 feed a03c a701 5a41
00000040: 820b 5a41 e686 863c 3640 ce3c 65ed 5941
00000050: 5f60 2a3d f356 5a41 45ca 843c 9a12 5a41
00000060: e9c4 5a41 f40b 5a41 b7ee 5941 f78e 5a41
00000070: 6172 b23c 0ca9 403c 1c4a 5941 56ac 5a41
00000080: 8196 ad3c 6f1b 5a41 911b a43c eb47 2c3d
00000090: 2e0e 1d3d 1fd4 5a41 0152 173c b5bb 813c
000000a0: ec50 7c3d 4d30 5c3c 5f7d 5941 8fbe 5a41
000000b0: a9cb 5941 1790 5a41 b2ef 9d3c a84d 5a41
000000c0: 4b5b 4f3d d3d8 5941 4bf3 6b3c bf70 fa3c
000000d0: 5cec 5941 e208 dd3c 5347 393c 0c76 5a41
000000e0: 54f2 af3c b7ed 333d aec8 5a41 4caa 293d
000000f0: d3ba 5a41 3211 703c c49e 5941 4b00 843c
00000100: d882 933c 3446 0c3d 4574 5a41 653e 5a41
00000110: a30d bc3c 9c94 5941 aef5 643c d9b9 5941
00000120: d7ae 5941 3533 733b ffb3 8b3c 8bbf 653c
00000130: fcd2 5a41 d302 5a41 f552 5a41 5614 823c
00000140: 092a 403d 01c1 5a41 7a40 7e3c 5f47 0a3c
00000150: 03a9 5941 8fcf 313c e341 5a41 66d6 033d
00000160: fac9 5941 610e 953c c369 5a41 3bde 363c
00000170: fde2 5941 6ecc 823d c838 f93c 1f36 953c
00000180: 5700 b73c a02d 5a41 412c 643d 1cfa 5941
00000190: dc02 573d 18a2 5a41 7ddf 283d bfaf 5a41
000001a0: e28d 453c c415 5a41 13a6 123d 8215 c23c
000001b0: e56b 2e3c 629d ab3c 26a3 c13c 4b58 b13c
000001c0: 2e54 2f3c 49d6 9a3c 1db7 5941 7273 5a41
000001d0: e396 4d3c 252e 5a41 bf72 c23c 1bbb 5a41
000001e0: 6e25 833c 5c61 5a41 dfa4 5941 3d33 5fbb
000001f0: 6b1f 2e3c 29e0 5941 7894 5941 92ad 5941
00000200: 37b9 5941 bb32 9a3c 251f 5a41 ea5d 5a41
00000210: a313 213d 7ae5 873c d4e2 c83b 933d a03c
00000220: 8f6f 5a41 4dcf 5a41 ead2 a13c 2bf8 323d
00000230: 4df3 5941 2574 b43c 97b5 5a41 9e83 5a41
00000240: 9dad 5a41 7789 513c 8648 a23c ba1a 5a41
00000250: 86b5 dc3c 9a6e 5941 d803 5a41 aa75 f43c
00000260: ef20 5a41 bf19 5a41 2745 30bc e9b9 42bc
00000270: 4fe6 173b 995a 5a41 72e2 5cbc 2a74 5a41
00000280: 41ec 143d 2edf f03b 2cb4 5941 c422 a43c
00000290: bb58 5a41 266d 663d 7ac4 8e3c 3562 313c
000002a0: 6381 643c 2943 5d3c 1616 0e3d bf89 5a41
000002b0: 6d6f a03c 107d 373d c894 053d 4093 aa3c
000002c0: 0430 c63c 871b adb9 24eb 0a3d 862f 083c
000002d0: afac 4a3b ddb1 94bc 28c3 33bc ff78 92bc
000002e0: f66f 6dbc 78d8 5941 c5f8 5941 2fb2 48bc
000002f0: 00b6 083d 6989 113d f69e 6d3c b136 8e3d
00000300: 0edc 2d3d e8f2 4c3d ac39 f83c 0189 5a41
00000310: 00a2 7c3c 23e2 663d 4d59 5a41 38e3 833c
00000320: ae60 b53c fd76 5a41 4fe3 5941 3ea9 a73c
00000330: d3ee 293d 7040 dc3c c1cf 5941 96a5 61bc
00000340: 0772 88bc f8bc 6abc 6579 53bc 61e9 6bbc
00000350: a588 5abb 3558 5fbc 316c 5941 c4c0 aebb
00000360: f556 1e3d 0857 5941 e554 5a41 b089 ee3c
00000370: 30cd 183c dd07 f43c 829f 5a41 f8f8 8d3c
00000380: 83da 353d 3053 5a41 3de0 203d 0fcb 5a41
00000390: 1e5a 4d3d 697b 5941 6d29 0c3d 85b3 773c
000003a0: 0d8b 95bc ffc7 923c cbaa 0cbc 08dd 5941
000003b0: 802c 68bc 3a3a e6bb afbb 343c 10e3 57bc
000003c0: 0eb0 66bc 55ea 80bc 6a5d 5941 cce6 5941
000003d0: 470c 5a41 e0f6 5941 0b79 5941 4084 5941
000003e0: 91b1 5941 6a32 523c 27b5 763c 05b1 5a41
000003f0: a52a 153d dfaa 5941 16ef 5941 77e1 5a41

decoder/1/W f4 [784, 15]
14.824535 15.090688 14.968671 14.908977 14.91203 14.689202 15.228311 15.576785
15.354772 14.83381 15.198199 15.175221 14.984575 14.75035 15.062604 -0.28606826
0.494725 0.09461313 -0.18051036 -0.17833678 0.12632287 -0.38310695 -0.18010771 0.22319932
-0.5019038 -0.4066236 -0.13359691 0.18731256 -0.38751692 0.5460582 0.11432599 -0.011775442
-0.2215176 0.3385336 -0.29389662 -0.062735274 -0.11477115 0.12482697 0.31461793 0.14217804
0.8577187 0.47913432 -0.4127267 -0.012260439 0.13304341 0.4075113 -0.29098526 -0.44022557
-0.06801024 -0.19215922 0.5999291 0.2139344 -0.38570377 0.013335842 0.11458042 0.22855967
0.18302564 -0.12613177 0.5504555 -0.022409549 14.835408 15.369902 15.053957 15.074333
15.119679 15.246023 15.101394 14.827518 15.344402 14.856054 15.407188 14.9037895
15.202351 15.147368 14.408432 -0.89132726 -0.24802735 -0.17025957 0.2937779 0.35057127
0.29965183 0.26331365 0.022830857 -0.38433015 -0.5597247 -0.19036065 0.06416513 -0.46931368
-0.30244085 -0.056056492 15.081392 15.141771 14.896737 15.236657 15.417248 15.181841
14.9153805 15.106095 15.201098 15.196378 14.931256 15.073321 15.098017 14.9495735
14.825314 0.45700556 0.04155251 -0.10202049 0.17624852 -0.02020156 0.1760461 -0.11954409
-0.00015774662 0.29178578 -0.12826061 0.094850756 -0.019152561 0.08062015 -0.077326275 0.61831576
14.705116 14.931602 14.777619 15.133119 14.826367 15.457274 15.257004 15.205654
15.416412 15.212124 15.140267 15.228023 14.842297 15.0458 15.012316 14.89626
14.852431 14.86237 14.791482 15.346049 14.963623 15.102129 15.223105 14.994589
15.254365 15.24973 14.914182 15.2278185 15.387453 15.0548115 -0.37534836 0.31817162
-0.13175106 -0.09641258 -0.057568867 0.12913844 0.0307072 0.09679674 0.21639282 -0.5303322
0.38832554 -0.062059943 -0.01879215 0.033053532 0.47100335 0.3519939 -0.058762237 -0.22229157
0.33458257 0.29798982 -0.29862893 -0.33469674 -0.41176474 -0.18688196 0.6043196 -0.25344646
0.022547714 -0.3427368 -0.20537922 0.18667568 15.508115 14.909831 14.729245 14.80636
15.292671 15.049436 15.217346 14.953228 15.135574 15.234155 14.897144 15.055934
15.379591 14.945379 15.116025 14.744002 15.282491 14.876564 14.810988 14.811546
15.288077 14.907851 15.11909 15.400033 15.250089 14.971069 15.189292 14.977587
15.130281 14.920583 0.009706101 -0.12535796 0.15072216 0.30149606 0.5196105 -0.36842206
0.02419584 -0.23094974 -0.25811142 -0.16194181 -0.17945573 -0.19206886 -0.09586829 0.08808355
0.12845516 14.955675 14.937959 14.815137 15.341861 14.961354 15.03786 14.898895
14.926256 15.188646 15.000024 14.760897 15.266511 15.081457 15.459877 15.138136
15.109738 15.390931 14.837158 14.702926 15.08881 14.542787 15.07225 15.603921
14.84997 14.648379 14.650923 15.031925 14.559859 15.08913 14.851146 -0.41542456
00000000: 4c31 6d41 7573 7141 ad7f 6f41 2b8b 6e41
00000010: ad97 6e41 f906 6b41 29a7 7341 833a 7941
00000020: 25ad 7541 4957 6d41 d32b 7341 b5cd 7241
00000030: d2c0 6f41 6f01 6c41 6d00 7141 8a77 92be
00000040: 984c fd3e 87c4 c13d b5d7 38be eb9d 36be
00000050: c85a 013e 9826 c4be 286e 38be 5d8e 643e
00000060: c47c 00bf f830 d0be a1cd 08be ddce 3f3e
00000070: 9e68 c6be 78ca 0b3f bf23 ea3d c9ed 40bc
00000080: 82d5 62be 4754 ad3e 9e79 96be 5a7b 80bd
00000090: 230d ebbd 48a5 ff3d 9a15 a13e 1f97 113e
000000a0: 7493 5b3f 1851 f53e ea50 d3be 02e0 48bc
000000b0: 883c 083e 52a5 d03e 05fc 94be 3f65 e1be
000000c0: f448 8bbd 63c5 44be f494 193f 9f11 5b3e
000000d0: f77a c5be 937e 5a3c 24a9 ea3d 8c0b 6a3e
000000e0: 136b 3b3e b028 01be a7ea 0c3f 3b94 b7bc
000000f0: d55d 6d41 1eeb 7541 02dd 7041 7830 7141
00000100: 35ea 7141 b6ef 7341 4f9f 7141 843d 6d41
00000110: ac82 7541 66b2 6d41 d883 7641 ec75 6e41
00000120: d43c 7341 9f5b 7241 f088 6641 062e 64bf
00000130: e2fa 7dbe 8658 2ebe 0f6a 963e 147e b33e
00000140: f76b 993e 0cd1 863e c707 bb3c ecc6 c4be
00000150: 1e4a 0fbf e7ed 42be 0269 833d e249 f0be
00000160: 87d9 9abe 7e9b 65bd 624d 7141 b244 7241
00000170: 0959 6e41 59c9 7341 0cad 7641 d2e8 7241
00000180: 66a5 6e41 91b2 7141 b337 7341 5d24 7341
00000190: 6de6 6e41 532c 7141 7a91 7141 7431 6f41
000001a0: 7c34 6d41 a2fc e93e f732 2a3d 1ef0 d0bd
000001b0: 7e7a 343e be7d a5bc 6e45 343e 88d3 f4bd
000001c0: c968 25b9 f264 953e c056 03be 1d41 c23d
000001d0: d5e5 9cbc 2d1c a53d 3d5d 9ebd f149 1e3f
000001e0: 2848 6b41 d7e7 6e41 2171 6c41 4121 7241
000001f0: cd38 6d41 ff50 7741 b01c 7441 5c4a 7341
00000200: a0a9 7641 dc64 7341 893e 7241 fba5 7341
00000210: 0c7a 6d41 99bb 7041 7232 7041 1557 6e41
00000220: 8fa3 6d41 44cc 6d41 e9a9 6c41 6b89 7541
00000230: 006b 6f41 52a2 7141 d791 7341 d6e9 6f41
00000240: e111 7441 e5fe 7341 7da0 6e41 25a5 7341
00000250: 0233 7641 82e0 7041 a92d c0be 64e7 a23e
00000260: c0e9 06be f573 c5bd 55cd 6bbd de3c 043e
00000270: aa8d fb3c 5f3d c63d 1496 5d3e dac3 07bf
00000280: 9bd2 c63e 9132 7ebd fff1 99bc 2463 073d
00000290: 5a27 f13e 8b38 b43e acb0 70bd 67a0 63be
000002a0: 684e ab3e 1f92 983e e4e5 98be 5f5d abbe
000002b0: d4d2 d2be fc5d 3fbe b0b4 1a3f bcc3 81be
000002c0: fcb5 b83c 337b afbe ee4e 52be e927 3f3e
000002d0: 3d21 7841 ab8e 6e41 fdaa 6b41 dae6 6c41
000002e0: c8ae 7441 7dca 7041 407a 7341 6c40 6f41
000002f0: 502b 7241 19bf 7341 b45a 6e41 1be5 7041
00000300: ce12 7641 4620 6f41 3ddb 7141 6fe7 6b41
00000310: 1585 7441 6806 6e41 cff9 6c41 18fc 6c41
00000320: f79b 7441 8f86 6e41 cbe7 7141 8966 7641
00000330: 5d00 7441 8089 6f41 5707 7341 32a4 6f41
00000340: a215 7241 b5ba 6e41 5706 1f3c d65d 00be
00000350: e956 1a3e b15d 9a3e 3205 053f d1a1 bcbe
00000360: 5b36 c63c 177e 6cbe 2e27 84be 13d4 25be
00000370: 3ec3 37be b3ad 44be 9856 c4bd 2665 b43d
00000380: c089 033e 724a 6f41 e101 6f41 cd0a 6d41
00000390: 4378 7541 b561 6f41 139b 7041 e061 6e41
000003a0: f2d1 6e41 b204 7341 1900 7041 a22c 6c41
000003b0: a143 7441 a64d 7141 a85b 7741 ce35 7241
000003c0: 7dc1 7141 4141 7641 0065 6d41 2f3f 6b41
000003d0: c46b 7141 41af 6841 f027 7141 a9a9 7941
000003e0: 7a99 6d41 c35f 6a41 2e6a 6a41 c482 7041
000003f0: 2ff5 6841 146d 7141 4b9e 6d41 87b2 d4be

encoder/1/b f4 [15]
15.023338 15.008971 15.022249 15.018391 15.002427 15.0135565 15.030138 15.018665
15.012403 15.006444 15.027397 15.004231 15.019061 15.010485 15.021949
00000000: 985f 7041 bf24 7041 225b 7041 544b 7041
00000010: f109 7041 8737 7041 727b 7041 744c 7041
00000020: cd32 7041 651a 7041 3870 7041 5511 7041
00000030: 134e 7041 f22a 7041 e759 7041
