NIPS_3/Models/Weights_167/53/weights.npz (npz, 175939 bytes, 8 tensors)

encoder/1/W f4 [15, 784]
0.043184884 -0.0187086 0.07705157 -0.052482087 0.10801797 -0.0399618 0.015174505 -0.02810479
0.022644104 -0.0019680469 0.0074734627 0.012736256 1.1921544 1.6159085 1.0692986 1.1168897
-0.07964572 -0.043166764 -0.022613691 -0.056077767 0.036594782 0.00518021 -0.04509583 -0.007840108
-0.015335181 -0.0245807 0.026575418 0.029846588 0.06255554 0.028952658 0.028476737 -0.016687393
1.0611753 1.3340124 2.6803203 3.642788 4.46268 5.6545424 7.262078 8.382748
8.921257 8.863449 9.153085 8.692934 8.9490385 8.259156 6.788134 5.7620974
5.1495633 3.1214955 2.497605 1.2224914 -0.0036777626 -0.0058146706 0.022892192 -0.010604837
0.011465821 0.0147260055 1.0618286 1.4459893 2.5166402 3.5547147 5.2909145 8.10663
10.282837 13.109487 15.374111 17.10378 18.394049 19.276112 19.906246 20.146135
20.140896 19.968431 19.47049 18.565018 16.71837 14.030219 11.056357 7.2065454
4.216064 2.2218883 -0.024761839 -0.04608181 -0.009727098 -0.0031454852 1.479795 2.710285
4.376774 6.5727735 9.882807 13.72332 16.783281 18.85835 20.123545 20.985384
21.377731 21.700937 21.885736 22.003572 21.982508 21.904253 21.703344 21.254158
20.401255 18.929829 16.509844 12.5838995 8.734452 4.3268003 1.5467358 -0.032025523
-0.026026644 1.0743518 2.5826619 4.304139 7.04598 12.976822 16.708584 19.376835
20.842117 21.567894 22.009127 22.206165 22.464626 22.484972 22.560978 22.63706
22.604208 22.550253 22.464712 22.408411 22.131012 21.650831 20.754614 18.993685
16.065157 10.78552 4.3642087 1.6555088 -0.012165808 -0.05245508 3.468988 6.371474
13.301992 17.812838 20.254417 21.426239 21.977234 22.361683 22.42347 22.583342
22.685629 22.692627 22.766869 22.734106 22.763876 22.730438 22.748821 22.552284
22.573423 22.331755 21.991034 21.307451 19.938507 16.530514 9.182927 2.5664234
-0.02472686 1.656014 5.0533943 10.342002 16.769318 19.897469 21.406395 22.09843
22.333738 22.579735 22.652666 22.718271 22.664715 22.745415 22.761698 22.784061
22.78632 22.740215 22.755861 22.776573 22.623426 22.516588 22.259804 21.870094
21.046537 18.703089 12.691173 4.3391824 0.99391 4.130124 7.946157 14.488906
19.209301 21.080221 21.981611 22.323053 22.534098 22.579845 22.739576 22.813
22.73504 22.776688 22.841328 22.703245 22.761732 22.714771 22.770046 22.703472
22.71523 22.587776 22.384134 22.08879 21.366535 19.499863 14.008321 4.3985415
1.39445 5.238813 11.842442 17.327211 20.240671 21.580984 22.2038 22.487043
22.58643 22.72556 22.693874 22.796804 22.725887 22.76381 22.837036 22.833025
22.80275 22.79374 22.770447 22.733828 22.719011 22.524824 22.439423 22.042336
21.388233 19.419214 13.284478 3.8901188 1.9506336 5.9770365 13.452618 17.877937
00000000: a2e2 303d c742 99bc 37cd 9d3d 75f7 56bd
00000010: 8738 dd3d fcae 23bd 7d9e 783c 043c e6bc
00000020: 2180 b93c 59fa 00bb f3e3 f43b bbab 503c
00000030: 8498 983f 17d6 ce3f c7de 883f 3ef6 8e3f
00000040: 4c1d a3bd a2cf 30bd 5940 b9bc cdb1 65bd
00000050: 69e4 153d c0be a93b 68b6 38bd cc73 00bc
00000060: 6940 7bbc 775d c9bc b1b4 d93c d580 f43c
00000070: 1e1d 803d 202e ed3c 0c48 e93c 00b4 88bc
00000080: 98d4 873f ebc0 aa3f 5e8a 2b40 7023 6940
00000090: 46ce 8e40 03f2 b440 f162 e840 bc1f 0641
000000a0: 78bd 0e41 b0d0 0d41 0973 1241 4216 0b41
000000b0: 432f 0f41 8125 0441 6538 d940 1a63 b840
000000c0: 39c9 a440 95c6 4740 c3d8 1f40 997a 9c3f
000000d0: 9e06 71bb fe88 bebb 6888 bb3c e9bf 2dbc
000000e0: 24db 3b3c 5845 713c 00ea 873f 2d16 b93f
000000f0: a210 2140 7280 6340 2c4f a940 c2b4 0141
00000100: 8086 2441 75c0 5141 5cfc 7541 8bd4 8841
00000110: 0327 9341 7a35 9a41 fe3f 9f41 492b a141
00000120: 8e20 a141 59bf 9f41 90c3 9b41 2885 9441
00000130: 39bf 8541 c77b 6041 d7e6 3041 059c e640
00000140: ffe9 8640 6b33 0e40 57d9 cabc 48c0 3cbd
00000150: 685e 1fbc 7c24 4ebb ec69 bd3f 4f75 2d40
00000160: 880e 8c40 2954 d240 fa1f 1e41 b892 5b41
00000170: 2944 8641 e7dd 9641 05fd a041 11e2 a741
00000180: 9805 ab41 859b ad41 fd15 af41 5107 b041
00000190: 2ddc af41 e93b af41 73a0 ad41 8408 aa41
000001a0: c535 a341 4a70 9741 2914 8441 a757 4941
000001b0: 51c0 0b41 2675 8a40 70fb c53f 322d 03bd
000001c0: d435 d5bc 5c84 893f 554a 2540 82bb 8940
000001d0: ab78 e140 10a1 4f41 2eab 8541 c203 9b41
000001e0: a8bc a641 0c8b ac41 b112 b041 3aa6 b141
000001f0: 8eb7 b341 39e1 b341 e27c b441 b318 b541
00000200: 6bd5 b441 eb66 b441 bbb7 b341 6d44 b341
00000210: 500c b141 e734 ad41 7309 a641 11f3 9741
00000220: 7185 8041 7d91 2c41 99a7 8b40 b6e7 d33f
00000230: 1953 47bc 23db 56bd e603 5e40 1de3 cb40
00000240: f6d4 5441 b180 8e41 0c09 a241 f068 ab41
00000250: 60d1 af41 bae4 b241 4463 b341 afaa b441
00000260: 2b7c b541 808a b541 8c22 b641 73df b541
00000270: 6b1c b641 f0d7 b541 96fd b541 146b b441
00000280: 5f96 b441 6fa7 b241 a3ed af41 a975 aa41
00000290: 1082 9f41 7e3e 8441 45ed 1241 4840 2440
000002a0: fc8f cabc 44f8 d33f 68b5 a140 d778 2541
000002b0: 9027 8641 042e 9f41 4c40 ab41 96c9 b041
000002c0: 7fab b241 4ca3 b441 a938 b541 05bf b541
000002d0: 5651 b541 9cf6 b541 f517 b641 c245 b641
000002e0: 624a b641 f6eb b541 010c b641 6c36 b641
000002f0: c7fc b441 f921 b441 1414 b241 f4f5 ae41
00000300: 4f5f a841 ed9f 9541 0b0f 4b41 95da 8a40
00000310: e370 7e3f fa29 8440 eb46 fe40 8fd2 6741
00000320: a6ac 9941 4ba4 a841 57da af41 9d95 b241
00000330: d545 b441 86a3 b441 a7ea b541 0681 b641
00000340: 5de1 b541 a836 b641 0abb b641 3fa0 b541
00000350: 0718 b641 dab7 b541 0e29 b641 b6a0 b541
00000360: cbb8 b541 c4b3 b441 b512 b341 d8b5 b041
00000370: aaee aa41 b8ff 9b41 1522 6041 dac0 8c40
00000380: 567d b23f 5ba4 a740 a47a 3d41 219e 8a41
00000390: e5ec a141 dba5 ac41 62a1 b141 77e5 b341
000003a0: 02b1 b441 f2cd b541 0e8d b541 db5f b641
000003b0: 9ece b541 481c b641 40b2 b641 09aa b641
000003c0: 086c b641 9459 b641 e029 b641 e1de b541
000003d0: 89c0 b541 d732 b441 f083 b341 b456 b041
000003e0: 1a1b ab41 8d5a 9b41 398d 5441 b5f7 7840
000003f0: 5dae f93f e243 bf40 ec3d 5741 0406 8f41

encoder/0/b f4 [15]
0.031596296 -0.016824257 0.02268236 0.0325732 0.024928994 0.051070556 0.032731738 0.009762558
0.02538356 0.01576301 0.024243394 -0.019439729 0.0426347 0.024763582 -0.029323058
00000000: 1e6b 013d 06d3 89bc 5bd0 b93c 7a6b 053d
00000010: e437 cc3c 5c2f 513d b711 063d 23f3 1f3c
00000020: 2ff1 cf3c 6e21 813c 159a c63c 1140 9fbc
00000030: b9a1 2e3d ffdc ca3c e936 f0bc

decoder/0/W f4 [784, 15]
0.32313395 -0.023622192 0.050017152 -0.08512581 0.08215137 -0.29111966 0.25320444 0.12544416
-0.03959831 0.046896126 -0.36729872 0.0633415 -0.0008279278 -0.10379887 -0.48838127 -0.52652794
-0.30160838 0.11557722 0.18693358 -0.23285006 -0.34731406 -0.05870811 -0.25840014 -0.052446075
-0.14372945 0.1470985 -0.0855721 0.17940328 0.07599233 0.1491284 18.919157 18.811344
18.841896 19.516832 18.941322 19.110302 18.936556 18.85671 19.756302 19.409033
19.084785 18.917543 19.439203 19.211273 18.330742 18.971333 18.640657 18.953571
19.22936 18.700302 18.805805 19.06038 19.556726 18.775057 19.12955 19.366928
18.594656 18.873573 18.732576 18.773424 -0.014225212 0.084951036 -0.039201275 -0.11384574
0.27689686 0.21312784 0.01651375 -0.40899998 -0.28930864 0.113554865 -0.09550853 -0.3655009
0.4471284 -0.14824048 -0.30604535 0.108765446 -0.33286482 -0.031436954 -0.13850026 -0.014745986
0.22806889 0.3345441 -0.39338067 -0.36415946 -0.02376811 -0.07062834 -0.335788 -0.100106426
-0.114831194 0.3880911 0.014241432 0.19446982 -0.3499049 -0.0069584264 0.3218566 -0.10525371
0.24321784 0.0008957198 -0.038151752 -0.092919424 -0.0729294 -0.26872402 -0.011071397 0.025761908
-0.10482354 19.172342 18.940996 18.87769 19.172607 18.856308 18.929625 19.214445
18.95328 18.731606 19.331276 19.161156 19.066542 18.670025 18.9744 19.255987
0.121939845 -0.4899152 -0.3103935 0.014417675 -0.09689408 0.16474643 0.082624584 0.27584338
0.0096573625 0.03503288 0.2934206 -0.71717423 0.14254782 0.113513194 -0.42019263 0.315505
-0.19243672 -0.14585926 0.16381654 -0.32777923 -0.05704886 0.1495878 0.042608015 0.12995778
0.33523938 -0.14024584 -0.2350295 -0.11532357 -0.34918487 0.16854362 18.944872 18.608395
19.084206 19.100008 18.789577 19.132929 18.920877 19.146082 19.38887 19.099771
18.810062 19.384508 19.183262 19.08558 19.198008 19.322151 18.931623 18.972054
18.78659 19.061127 19.240046 18.90352 19.079012 19.178877 19.480862 19.442757
18.722132 19.191858 19.07268 18.886902 -0.025628833 -0.37134844 -0.39587164 -0.008885807
0.13486212 0.24625798 0.276038 -0.28028077 -0.37747377 -0.039223507 0.2793273 0.059363272
-0.20310965 0.0043574423 0.31081018 0.111133665 -0.2065988 0.12844828 0.25451145 -0.06498593
-0.09885746 0.35975033 -0.019490754 -0.20076045 -0.23028739 -0.10112428 0.18139413 -0.21193796
-0.51978606 0.31967172 18.949266 18.854328 18.960014 19.176003 19.247692 18.921053
19.309027 18.513792 19.107668 18.826698 19.348291 18.761435 19.23665 18.857586
19.176031 0.018563366 -0.065948814 -0.12142959 -0.29269978 -0.12629217 -0.22360727 0.08919839
-0.06162657 0.083396256 -0.3901828 0.13081928 0.17993782 -0.2911014 -0.0356947 -0.03654097
-0.5663876 0.23765337 -0.28516212 -0.2720024 0.30644283 -0.10281849 -0.2215337 0.15397981
0.08753938 0.07878564 0.15038781 0.06870558 0.17298488 -0.44866484 -0.11342075 19.206593
00000000: d071 a53e 5483 c1bc c9de 4c3d 7156 aebd
00000010: fa3e a83d a30d 95be 03a4 813e 6f74 003e
00000020: d631 22bd 2716 403d 940e bcbe 30b9 813d
00000030: 4b09 59ba 8194 d4bd 1c0d fabe 89ca 06bf
00000040: 6a6c 9abe c0b3 ec3d 846b 3f3e 3f70 6ebe
00000050: 26d3 b1be ea77 70bd 064d 84be b2d1 56bd
00000060: d02d 13be fda0 163e 6d40 afbd 7eb5 373e
00000070: dea1 9b3d 1eb5 183e 6f5a 9741 a27d 9641
00000080: 34bc 9641 7922 9c41 d487 9741 e6e1 9841
00000090: 117e 9741 8bda 9641 e80c 9e41 b345 9b41
000000a0: a4ad 9841 2157 9741 7d83 9b41 b0b0 9941
000000b0: 5ca5 9241 4ac5 9741 1120 9541 eaa0 9741
000000c0: bbd5 9941 389a 9541 4a72 9641 a97b 9841
000000d0: 2d74 9c41 5133 9641 5209 9941 78ef 9a41
000000e0: dbc1 9441 14fd 9641 51dc 9541 f92f 9641
000000f0: dd10 69bc cffa ad3d 8491 20bd f527 e9bd
00000100: 6dc5 8d3e 2f3e 5a3e d847 873c 7268 d1be
00000110: 4320 94be 748f e83d fa99 c3bd ef22 bbbe
00000120: 03ee e43e 5acc 17be fab1 9cbe 6bc0 de3d
00000130: 426d aabe 09c4 00bd 03d3 0dbe 2699 71bc
00000140: e48a 693e 5d49 ab3e 3169 c9be 1c73 babe
00000150: 57b5 c2bc 97a5 90bd 68ec abbe 9904 cdbd
00000160: 9e2c ebbd e0b3 c63e e554 693c 1923 473e
00000170: bc26 b3be 8303 e4bb 63ca a43e 428f d7bd
00000180: 190e 793e bdce 6a3a 0345 1cbd 8a4c bebd
00000190: 025c 95bd 3296 89be ce64 35bc a30a d33c
000001a0: b9ad d6bd f560 9941 2987 9741 8205 9741
000001b0: 8061 9941 b8d9 9641 df6f 9741 2fb7 9941
000001c0: 51a0 9741 54da 9541 74a6 9a41 0c4a 9941
000001d0: 4788 9841 365c 9541 92cb 9741 430c 9a41
000001e0: 99bb f93d 2ad6 fabe e6eb 9ebe 1d38 6c3c
000001f0: 6770 c6bd 4ab3 283e 1437 a93d 583b 8d3e
00000200: ea39 1e3c a37e 0f3d 3a3b 963e bb98 37bf
00000210: 0ef8 113e 9b79 e83d 7d23 d7be df89 a13e
00000220: 220e 45be 215c 15be 86bf 273e aed2 a7be
00000230: 11ac 69bd 8b2d 193e be85 2e3d a713 053e
00000240: 7fa4 ab3e 9b9c 0fbe 93ab 70be c42e ecbd
00000250: 5cc8 b2be b396 2c3e 198f 9741 fedd 9441
00000260: 74ac 9841 d1cc 9841 0e51 9641 3d10 9941
00000270: f55d 9741 2d2b 9941 681c 9b41 55cc 9841
00000280: 027b 9641 7913 9b41 5277 9941 45af 9841
00000290: 8595 9941 c493 9a41 f773 9741 c4c6 9741
000002a0: f04a 9641 307d 9841 9deb 9941 693a 9741
000002b0: d1a1 9841 576e 9941 ced8 9b41 c48a 9b41
000002c0: edc6 9541 ed88 9941 d994 9841 6018 9741
000002d0: 8ff3 d1bc 6221 bebe b0af cabe c795 11bc
000002e0: 4c19 0a3e 0d2b 7c3e da54 8d3e f680 8fbe
000002f0: 3e44 c1be d4a8 20bd fd03 8f3e e726 733d
00000300: fafb 4fbe e0c8 8e3b 8322 9f3e 0c9a e33d
00000310: a38e 53be f287 033e 534f 823e 5817 85bd
00000320: c875 cabd 3231 b83e 13ab 9fbc 2694 4dbe
00000330: 75d0 6bbe 3f1a cfbd 62bf 393e 4406 59be
00000340: b310 05bf 03ac a33e 1998 9741 aad5 9641
00000350: 1cae 9741 7468 9941 46fb 9941 515e 9741
00000360: e378 9a41 3f1c 9441 81dc 9841 149d 9641
00000370: 4dc9 9a41 6b17 9641 a9e4 9941 56dc 9641
00000380: 8368 9941 3312 983c 2c10 87bd 14b0 f8bd
00000390: bfdc 95be bc52 01be 4ef9 64be a5ad b63d
000003a0: 246c 7cbd a8cb aa3d 0ac6 c7be 7df5 053e
000003b0: 9f41 383e 3e0b 95be 9b34 12bd fcab 15bd
000003c0: c7fe 10bf 685b 733e c500 92be e643 8bbe
000003d0: 13e6 9c3e 8092 d2bd bbd9 62be e2ac 1d3e
000003e0: d947 b33d 5e5a a13d 43ff 193e 83b5 8c3d
000003f0: f322 313e 66b7 e5be 2349 e8bd 1aa7 9941

decoder/0/b f4 [784]
0.007570402 0.017812159 16.232113 16.120192 0.003658894 -0.0007317313 -0.066731185 16.252378
-0.0064880727 -0.031133447 16.212303 16.208193 -0.07543231 -0.0016592903 16.21783 0.015690926
0.019319084 16.203342 16.210428 -0.055122826 16.230556 0.0021352705 16.210075 -0.02418524
0.017300801 -0.012025884 0.009287032 0.0049698907 16.203386 16.231722 -0.0044473023 0.010845498
16.209148 0.015544604 16.207848 16.208145 16.21697 0.009276989 0.017331215 16.218119
16.228092 16.26039 0.014280279 -0.008619348 0.01008233 0.00346259 16.215063 0.0058666966
16.230377 0.012948011 16.223722 16.20862 -0.022462264 16.214798 16.239964 0.018974373
16.209366 16.2355 0.014814069 16.217258 0.0132194655 16.20598 -0.02971272 0.0133564565
16.205095 16.20762 -0.031728998 0.0020249286 16.207737 -0.023332775 16.244585 -0.0757756
-0.075392455 16.227133 16.252329 16.208788 0.013002752 -0.060187288 0.008167286 0.016436977
16.073818 -0.00062455237 16.206806 16.211773 -0.03303274 16.206226 0.014756333 16.225565
-0.00066045497 16.21175 -0.027414538 0.016665567 -0.004309482 16.254648 16.215717 16.211185
16.206469 -0.00119078 16.215319 -0.046686884 16.236792 0.011062239 16.23112 0.015411419
0.015149038 -0.018047146 16.222387 16.204277 16.241846 16.265537 16.206133 16.206886
16.245592 16.22108 0.00869493 -0.0021880604 16.233717 0.013972641 16.205433 -0.009217488
0.0068788095 -0.004176494 -0.012756556 16.205286 0.016199036 -0.029777931 0.015494644 -0.048453994
0.00926003 16.219294 -0.0034825285 -0.01253935 16.234945 16.209372 16.223097 16.216259
-0.020306222 0.018384835 16.253252 16.232262 -0.03754757 16.210052 0.0060616047 -0.008695911
-0.0025484238 16.29129 16.232508 -0.037829023 16.208096 0.01437944 -0.027188659 16.217663
0.010285603 0.0059044105 16.256737 0.01915863 16.23322 -0.015738886 16.21588 -0.0018096137
16.270748 16.20383 -0.042461663 16.24757 0.005701752 16.216604 16.247124 16.215528
16.211195 16.206015 16.193436 -0.022317471 16.196648 16.245876 15.877924 16.208717
16.217867 16.208546 16.183666 16.215078 16.212166 0.014713653 16.220533 16.288733
16.217207 0.013240567 0.0108483685 16.244326 16.23884 16.158976 0.009421953 15.475127
16.217096 16.173998 16.233198 0.018248096 16.24585 16.241432 0.012572489 16.235607
0.0161933 0.00073459436 -0.067719065 16.22354 16.252325 16.211977 -0.04548492 0.013063361
16.244865 0.019384488 16.220604 16.206928 16.250174 16.262907 -0.07875213 16.21629
16.246895 0.0060055056 -0.02874187 16.214666 16.247107 16.21293 0.0008185057 16.220287
16.229485 -0.0005428517 16.25018 0.006005508 16.253077 -0.037414674 16.238106 16.237797
0.016848313 16.153936 16.228664 0.018726228 16.270166 16.238525 16.227253 16.21732
16.230783 0.012246421 -0.00733838 0.009008728 0.006575506 0.015645176 -0.031042688 -0.07089192
-0.03720195 16.203053 16.246643 0.020614965 16.210653 -0.003816176 -0.05375677 0.01751057
00000000: 2311 f83b ceea 913c 5edb 8141 27f6 8041
00000010: 0eca 6f3b a8d1 3fba 5caa 88bd df04 8241
00000020: e699 d4bb 920b ffbc ccb2 8141 61aa 8141
00000030: 417c 9abd 8b7c d9ba 1ebe 8141 428a 803c
00000040: 0e43 9e3c 72a0 8141 f5ae 8141 79c8 61bd
00000050: 2ed8 8141 e5ef 0b3b 3cae 8141 2020 c6bc
00000060: 69ba 8d3c 3708 45bc a328 183c 77da a23b
00000070: 89a0 8141 91da 8141 adba 91bb 51b1 313c
00000080: 56ac 8141 cbae 7e3c aca9 8141 48aa 8141
00000090: 5bbc 8141 83fe 173c 31fa 8d3c b5be 8141
000000a0: 22d3 8141 4715 8241 d5f7 693c 2a38 0dbc
000000b0: 5b30 253c 9fec 623b 73b8 8141 6b3d c03b
000000c0: d0d7 8141 e523 543c 2fca 8141 41ab 8141
000000d0: c802 b8bc e8b7 8141 72eb 8141 2570 9b3c
000000e0: c8ac 8141 4ee2 8141 b5b6 723c f2bc 8141
000000f0: 7596 583c d9a5 8141 1768 f3bc 0ad5 5a3c
00000100: 09a4 8141 35a9 8141 44f6 01bd aab4 043b
00000110: 72a9 8141 6024 bfbc e9f4 8141 3d30 9bbd
00000120: 5c67 9abd 2bd1 8141 c504 8241 99ab 8141
00000130: 7f09 553c f286 76bd 15d0 053c d7a6 863c
00000140: 2e97 8041 00b9 23ba 8aa7 8141 b6b1 8141
00000150: 574d 07bd 5aa6 8141 8cc4 713c f5cd 8141
00000160: 6222 2dba aab1 8141 7494 e0bc 3a86 883c
00000170: 8e36 8dbb 8509 8241 cab9 8141 82b0 8141
00000180: d9a6 8141 f213 9cba f9b8 8141 bf3a 3fbd
00000190: f3e4 8141 653e 353c 55d9 8141 2d80 7c3c
000001a0: ac33 783c 9cd7 93bc 73c7 8141 5ca2 8141
000001b0: 4def 8141 d21f 8241 29a6 8141 b4a7 8141
000001c0: f9f6 8141 c6c4 8141 2e75 0e3c 9065 0fbb
000001d0: a7de 8141 81ed 643c baa4 8141 f204 17bc
000001e0: a367 e13b f9da 88bb e000 51bc 6da4 8141
000001f0: d7b3 843c d9f0 f3bc 3fdd 7d3c b277 46bd
00000200: 62b7 173c 1dc1 8141 223b 64bb d971 4dbc
00000210: 2be1 8141 cbac 8141 e7c8 8141 e6ba 8141
00000220: 3c59 a6bc cb9b 963c a906 8241 acdb 8141
00000230: 7bcb 19bd 30ae 8141 6da0 c63b 4b79 0ebc
00000240: 7503 27bb 9054 8241 2ddc 8141 9bf2 1abd
00000250: 2eaa 8141 be97 6b3c c0ba debc c6bd 8141
00000260: f284 283c c979 c13b cc0d 8241 8ff2 9c3c
00000270: a2dd 8141 d6ee 80bc 1fba 8141 8f30 edba
00000280: 7e2a 8241 72a1 8141 48ec 2dbd 06fb 8141
00000290: c3d5 ba3b 9bbb 8141 1cfa 8141 67b9 8141
000002a0: 87b0 8141 eba5 8141 288c 8141 21d3 b6bc
000002b0: bc92 8141 8ef7 8141 fa0b 7e41 74ab 8141
000002c0: 31be 8141 1aab 8141 2678 8141 7bb8 8141
000002d0: 84b2 8141 8911 713c a7c3 8141 534f 8241
000002e0: d7bc 8141 f7ee 583c 5bbd 313c 61f4 8141
000002f0: 25e9 8141 9545 8141 895e 1a3c 1f9a 7741
00000300: 9dbc 8141 5964 8141 97dd 8141 087d 953c
00000310: 80f7 8141 74ee 8141 d7fc 4d3c 86e2 8141
00000320: d0a7 843c cb91 403a 4bb0 8abd cfc9 8141
00000330: c304 8241 21b2 8141 654e 3abd b507 563c
00000340: 7cf5 8141 38cc 9e3c ccc3 8141 caa7 8141
00000350: 5b00 8241 6f1a 8241 cc48 a1bd f6ba 8141
00000360: a4f9 8141 d5c9 c43b 1274 ebbc a3b7 8141
00000370: 13fa 8141 15b4 8141 fd90 563a 26c3 8141
00000380: fcd5 8141 294e 0eba 5e00 8241 dac9 c43b
00000390: 4d06 8241 2140 19bd a4e7 8141 02e7 8141
000003a0: 7905 8a3c 433b 8141 4ed4 8141 bf67 993c
000003b0: 4d29 8241 80e8 8141 6ad1 8141 12bd 8141
000003c0: a5d8 8141 36a5 483c cb76 f0bb 5899 133c
000003d0: 5877 d73b 502a 803c 3c4d febc c82f 91bd
000003e0: 1261 18bd da9f 8141 20f9 8141 b7e0 a83c
000003f0: 6baf 8141 cf18 7abb 0f30 5cbd 5472 8f3c

encoder/0/W f4 [15, 784]
0.020628992 0.0043552187 0.033064295 0.014924364 0.029954836 -0.0027206049 -0.040234536 -0.0011721671
0.010086459 0.036094822 -0.08785955 0.06651386 -0.05816288 -0.056596287 0.01664695 -0.059629045
0.015205258 -0.024994235 -0.00984577 0.005366973 0.017744856 -0.077117115 -0.043562446 0.036265496
0.006657927 0.022201648 -0.06783759 -0.013150238 -0.0028690528 -0.051892795 -0.021909272 0.0044816406
0.07831929 0.1157758 -0.00786494 0.18224688 0.13933337 -0.07210762 0.017707003 -0.17797634
-0.33572072 0.005136725 0.059587386 0.3329662 0.24918175 0.118750386 -0.06922419 0.034521107
0.2768628 0.21528757 0.1645915 0.10178849 -0.03484256 -0.011348673 0.01470778 -0.018576002
0.0011477971 0.014568489 -0.051256984 -0.026587766 0.13575564 0.06616961 0.05999507 0.22221078
0.17702171 -0.021889312 -0.109882616 0.16109648 0.13822314 -0.004770181 -0.015288467 0.2048013
0.2382624 0.14227149 0.065739036 0.12046516 0.14816616 0.086705 0.19657461 0.16776946
0.17237663 0.14508072 0.03474604 0.008528231 0.012652532 0.01930383 -0.05884261 -0.04710862
-0.11035537 -0.048845403 0.22352375 0.11393353 0.16787939 0.052167382 0.08471858 0.07380717
0.017983545 0.077415064 0.056372866 0.05832463 0.120639615 0.18826859 0.123843364 0.09634115
0.12305461 0.22303465 0.19183642 0.015086935 0.0029392752 0.110175416 0.09946552 -0.009310888
0.008988628 -0.029459996 -0.08206969 -0.023551775 -0.18095441 0.050764147 -0.03548562 -0.055795833
-0.08727154 -0.059605215 -0.07775668 -0.010452939 -0.057468895 0.027160669 -0.007687368 -0.041178018
-0.031853553 -0.025757022 0.0027828594 0.018587815 0.12981735 0.16552539 0.09414597 -0.03997916
-0.055171445 0.051923558 0.055018753 -0.010240114 -0.046245877 -0.060054656 0.17283876 0.113278255
-0.10996516 -0.020817695 -0.07695052 -0.1147191 -0.10806155 -0.09723975 -0.04521142 -0.012406689
-0.09440114 -0.07718798 0.019347832 -0.072894946 -0.045903027 -0.060199745 -0.043218777 -0.028239958
0.021581842 0.033497963 0.07502512 -0.015651448 -0.03152041 -0.032096513 0.07739012 -0.08349734
0.020163598 0.044103567 -0.09098903 0.02646946 -0.12569655 -0.09764675 -0.13388039 -0.08291044
-0.0023753194 -0.045723192 -0.057213206 -0.059335474 -0.0051931962 -0.020209352 0.0016147965 -0.08188608
-0.020651257 0.041632526 -0.0057698283 -0.039671212 -0.021155298 -0.11115104 -0.04513225 0.03604599
-0.0074292785 -0.11854903 -0.18150552 -0.23384848 -0.024379771 -0.030149287 -0.13405624 -0.23323496
-0.14651252 -0.039974257 -0.074507855 -0.059741974 -0.11052705 -0.06201252 -0.11054083 -0.068795614
-0.04749938 -0.063067645 -0.048947692 -0.029614488 0.037450958 -0.011578608 -0.073125444 -0.03021917
-0.067462616 -0.07581601 -0.15322283 -0.071433656 -0.09404459 -0.0064662 -0.003184469 -0.12526345
0.010177607 0.15540987 0.08962046 -0.005724354 -0.00072941 -0.09148519 -0.017172623 -0.08828844
-0.07096985 -0.03576614 -0.12273645 -0.03296259 -0.04262423 -0.019808844 -0.0066039287 -0.024870228
-0.06813283 -0.01455595 0.034511793 -0.042518165 -0.027263395 -0.06336726 -0.09863649 -0.017581273
-0.05144508 0.031786606 0.15424141 -0.08524588 0.10982007 0.107561834 0.12397388 0.009651841
00000000: 22fe a83c 39b6 8e3b 6d6e 073d 5285 743c
00000010: d863 f53c 2d4c 32bb f8cc 24bd 67a3 99ba
00000020: ad41 253c 2ad8 133d b5ef b3bd 6b38 883d
00000030: 333c 6ebd 82d1 67bd 2f5f 883c 963d 74bd
00000040: 791f 793c b6c0 ccbc 2750 21bc 6fdd af3b
00000050: a95d 913c 94ef 9dbd 896e 32bd 218b 143d
00000060: bd2a da3b 3be0 b53c 6fee 8abd 1974 57bc
00000070: b806 3cbb 8a8d 54bd 137b b3bc bada 923b
00000080: dd65 a03d dd1b ed3d f3db 00bc ed9e 3a3e
00000090: 68ad 0e3e 29ad 93bd 470e 913c 6e3f 36be
000000a0: 96e3 abbe f951 a83b e711 743d 8c7a aa3e
000000b0: 8029 7f3e 6733 f33d 6ac5 8dbd 0166 0d3d
000000c0: f6c0 8d3e 5874 5c3e ad8a 283e 7c76 d03d
000000d0: 12b7 0ebd c9ef 39bc e7f8 703c b32c 98bc
000000e0: ae71 963a acb0 6e3c d8f2 51bd 96ce d9bc
000000f0: 8703 0b3e ef83 873d 64bd 753d 398b 633e
00000100: 2e45 353e 3751 b3bc 230a e1bd 7af6 243e
00000110: 5e8a 0d3e 2e4f 9cbb 7a7c 7abc 6fb7 513e
00000120: 0ffb 733e 9eaf 113e 30a2 863d 70b6 f63d
00000130: dfb8 173e 6492 b13d db4a 493e c2cb 2b3e
00000140: 8083 303e 0a90 143e dd51 0e3d feb9 0b3c
00000150: 914c 4f3c 1123 9e3c f304 71bd f8f4 40bd
00000160: ff01 e2bd 1e12 48bd 69e3 643e fc55 e93d
00000170: 93e8 2b3e 77ad 553d ef80 ad3d 3728 973d
00000180: 3a52 933c ca8b 9e3d 3ce7 663d cfe5 6e3d
00000190: e711 f73d 7bc9 403e 97a1 fd3d 824e c53d
000001a0: 0e04 fc3d 3263 643e c470 443e 312f 773c
000001b0: dba0 403b a6a3 e13d 94b4 cb3d b28c 18bc
000001c0: 0a45 133c 1756 f1bc 2714 a8bd a7ef c0bc
000001d0: 1d4c 39be 11ee 4f3d 5f59 11bd 2c8a 64bd
000001e0: 6cbb b2bd 9924 74bd e53e 9fbd ce42 2bbc
000001f0: 8164 6bbd 0d80 de3c 51e6 fbbb 48aa 28bd
00000200: df78 02bd 6400 d3bc a260 363b 7945 983c
00000210: d7ee 043e 7d7f 293e 9acf c03d 30c1 23bd
00000220: 74fb 61bd ccad 543d 585b 613d 27c6 27bc
00000230: 516c 3dbd dffb 75bd a5fc 303e 6efe e73d
00000240: 6a35 e1bd df89 aabc 3c98 9dbd d9f1 eabd
00000250: 604f ddbd a225 c7bd 9c2f 39bd 6d45 4bbc
00000260: 6355 c1bd bb14 9ebd 587f 9e3c f249 95bd
00000270: d004 3cbd 0294 76bd 2c06 31bd 7c57 e7bc
00000280: 67cc b03c 2935 093d c5a6 993d 7737 80bc
00000290: 8c1b 01bd a277 03bd b67e 9e3d a700 abbd
000002a0: 212e a53c f1a5 343d 7558 babd 7bd6 d83c
000002b0: 99b6 00be 05fb c7bd f117 09be f3cc a9bd
000002c0: 3fab 1bbb 3e48 3bbd 6558 6abd c109 73bd
000002d0: b02b aabb 158e a5bc 94a7 d33a e4b3 a7bd
000002e0: d32c a9bc de86 2a3d d410 bdbb 487e 22bd
000002f0: e04d adbc 28a3 e3bd 98dc 38bd f6a4 133d
00000300: 4e71 f3bb d5c9 f2bd 95dc 39be fa75 6fbe
00000310: 16b8 c7bc a3fb f6bc 0a46 09be 25d5 6ebe
00000320: 6107 16be 0cbc 23bd 9397 98bd 00b4 74bd
00000330: 025c e2bd d700 7ebd 3b63 e2bd b7e4 8cbd
00000340: b68e 42bd 9c29 81bd 607d 48bd 159a f2bc
00000350: 2d66 193d 34b4 3dbc cbc2 95bd 318e f7bc
00000360: d729 8abd 6d45 9bbd 72e6 1cbe cf4b 92bd
00000370: 739a c0bd 6be2 d3bb 86b2 50bb 1045 00be
00000380: fabf 263c c423 1f3e ef8a b73d 5d93 bbbb
00000390: e035 3fba 965c bbbd 9aad 8cbc 92d0 b4bd
000003a0: a458 91bd 847f 12bd 3f5d fbbd c803 07bd
000003b0: bf96 2ebd 2846 a2bc c565 d8bb a6bc cbbc
000003c0: 3a89 8bbd 147c 6ebc 3d5c 0d3d 8727 2ebd
000003d0: 7c57 dfbc b2c6 81bd ee01 cabd 9a06 90bc
000003e0: 14b8 52bd ac32 023d 76f1 1d3e 6495 aebd
000003f0: 58e9 e03d 6149 dc3d 05e6 fd3d c122 1e3c

decoder/1/b f4 [784]
21.069038 0.019961162 0.03649809 0.077035144 21.038776 0.017669583 21.024736 0.043906596
21.022406 21.028429 0.028353535 0.02052417 21.00673 21.059027 0.019644734 21.051975
21.057034 0.016421746 0.025177103 21.046974 0.041595813 21.073488 0.01620973 21.056173
21.10047 21.054598 21.04733 21.087221 0.021783056 0.011759054 21.006107 21.094702
0.02118993 21.058477 0.020032676 0.042060774 0.0383436 21.104849 0.00923586 0.015836576
0.06160061 0.01343925 21.018982 21.09898 21.0385 21.087553 0.019279335 21.07085
0.050624173 21.041788 0.014401267 0.03057134 21.046581 0.026981775 0.011308509 21.082582
0.021477856 0.043927874 21.102299 0.041422173 21.098204 0.014652537 21.027298 0.016113421
0.018006727 0.03424664 21.081024 21.067064 0.022955721 21.024738 0.01397459 21.034712
21.031582 0.003710938 0.017053602 0.014022718 21.104145 21.052458 21.07216 0.015878838
0.046915088 21.100563 0.015518302 0.008439868 21.029888 0.0108527085 21.06789 0.03218689
21.038057 0.018195333 21.077925 0.011161382 21.044441 0.06386648 0.030422583 0.018214284
0.02233903 21.062975 0.055706266 21.050117 0.05249296 21.092815 0.04122876 21.09659
0.012057753 21.057055 0.035802912 0.023691896 0.010645841 0.02094907 0.023637366 0.021648547
0.010701222 0.018901007 21.033442 21.080515 0.012548181 21.063303 0.023736356 21.098663
0.016009059 21.076088 21.028824 -0.003405764 0.010627608 21.043768 21.024885 21.03104
21.03396 0.018823018 21.059368 21.074924 0.039325368 0.016588915 0.0061305556 0.01956061
21.0793 21.103926 0.019753892 0.043693703 21.048454 0.022028038 21.096836 21.08442
21.094809 0.012789122 0.019809972 21.058224 0.026942026 21.01519 21.052755 0.029841263
21.059874 21.058678 -0.010758675 -0.011885145 0.0023178046 21.075539 -0.013481723 21.080498
0.03635812 0.007350824 21.032593 0.020036109 21.073692 0.056256436 0.017427672 0.010826637
0.013946864 0.013504782 0.03468903 21.085896 0.019584382 0.044797003 0.032612592 0.020822167
0.024192818 -0.0003301764 0.033915654 0.008312112 0.0030925681 -0.018151218 -0.010971822 -0.017879961
-0.014492026 21.042181 21.05002 -0.0122495135 0.033376694 0.035531435 0.014503231 0.06944025
0.04244619 0.05003634 0.030300938 21.085447 0.015419483 0.056368005 21.0739 0.016099557
0.022140827 21.081123 21.044886 0.020466443 0.041487526 0.026886195 21.039904 -0.013772389
-0.016655935 -0.01432728 -0.012907361 -0.014398904 -0.0033345607 -0.01363187 21.01486 -0.005333038
0.038657147 21.009315 21.072676 0.029118389 0.009326264 0.029788906 21.091385 0.017330632
0.044397842 21.07225 0.03927635 21.102242 0.05013477 21.018545 0.034219194 0.015118484
-0.018254781 0.017917631 -0.008585642 21.043438 -0.014170766 -0.007025984 0.011031075 -0.0131766945
-0.014080061 -0.015736738 21.011045 21.045614 21.055216 21.049583 21.017704 21.0205
21.03219 0.012829402 0.0150578385 21.095507 0.036417622 21.030325 21.047403 21.10789
00000000: 648d a841 9785 a33c 057f 153d 9ac4 9d3d
00000010: 6a4f a841 cdbf 903c a932 a841 67d7 333d
00000020: e32d a841 393a a841 ac45 e83c 4e22 a83c
00000030: c80d a841 e378 a841 feed a03c 726a a841
00000040: ce74 a841 e686 863c 3640 ce3c 3460 a841
00000050: 5f60 2a3d 8196 a841 45ca 843c 0b73 a841
00000060: c3cd a841 d16f a841 ef60 a841 a1b2 a841
00000070: 6172 b23c 0ca9 403c 820c a841 f3c1 a841
00000080: 8196 ad3c c377 a841 911b a43c eb47 2c3d
00000090: 2e0e 1d3d bbd6 a841 0152 173c b5bb 813c
000000a0: ec50 7c3d 4d30 5c3c e026 a841 b6ca a841
000000b0: d94e a841 4fb3 a841 b2ef 9d3c 1a91 a841
000000c0: 4b5b 4f3d 9555 a841 4bf3 6b3c bf70 fa3c
000000d0: 665f a841 e208 dd3c 5347 393c 21a9 a841
000000e0: 54f2 af3c b7ed 333d 82d1 a841 4caa 293d
000000f0: 1fc9 a841 3211 703c e837 a841 4b00 843c
00000100: d882 933c 3446 0c3d f0a5 a841 5989 a841
00000110: a30d bc3c aa32 a841 aef5 643c 1747 a841
00000120: ae40 a841 3533 733b ffb3 8b3c 8bbf 653c
00000130: 4ad5 a841 6f6b a841 c993 a841 5614 823c
00000140: 092a 403d f4cd a841 7a40 7e3c 5f47 0a3c
00000150: 363d a841 8fcf 313c 0a8b a841 66d6 033d
00000160: f14d a841 610e 953c 979f a841 3bde 363c
00000170: 045b a841 6ecc 823d c838 f93c 1f36 953c
00000180: 5700 b73c f980 a841 412c 643d a466 a841
00000190: dc02 573d 16be a841 7ddf 283d d1c5 a841
000001a0: e28d 453c d974 a841 13a6 123d 8215 c23c
000001b0: e56b 2e3c 629d ab3c 26a3 c13c 4b58 b13c
000001c0: 2e54 2f3c 49d6 9a3c 7d44 a841 e5a4 a841
000001d0: e396 4d3c a581 a841 bf72 c23c 10ca a841
000001e0: 6e25 833c d49b a841 083b a841 3d33 5fbb
000001f0: 6b1f 2e3c a359 a841 f732 a841 923f a841
00000200: 8d45 a841 bb32 9a3c 9679 a841 7299 a841
00000210: a313 213d 7ae5 873c d4e2 c83b 933d a03c
00000220: 68a2 a841 d7d4 a841 ead2 a13c 2bf8 323d
00000230: 3c63 a841 2574 b43c 52c6 a841 e4ac a841
00000240: 2bc2 a841 7789 513c 8648 a23c 3e77 a841
00000250: 86b5 dc3c 1c1f a841 0b6c a841 aa75 f43c
00000260: 9f7a a841 2c78 a841 2745 30bc e9b9 42bc
00000270: 4fe6 173b b49a a841 72e2 5cbc dca4 a841
00000280: 41ec 143d 2edf f03b c042 a841 c422 a43c
00000290: ec96 a841 266d 663d 7ac4 8e3c 3562 313c
000002a0: 6381 643c 2943 5d3c 1616 0e3d eaaf a841
000002b0: 6d6f a03c 107d 373d c894 053d 4093 aa3c
000002c0: 0430 c63c 871b adb9 24eb 0a3d 862f 083c
000002d0: afac 4a3b ddb1 94bc 28c3 33bc ff78 92bc
000002e0: f66f 6dbc 6356 a841 7166 a841 2fb2 48bc
000002f0: 00b6 083d 6989 113d f69e 6d3c b136 8e3d
00000300: 0edc 2d3d e8f2 4c3d ac39 f83c ffae a841
00000310: 00a2 7c3c 23e2 663d 5997 a841 38e3 833c
00000320: ae60 b53c 24a6 a841 ed5b a841 3ea9 a73c
00000330: d3ee 293d 7040 dc3c b951 a841 96a5 61bc
00000340: 0772 88bc f8bc 6abc 6579 53bc 61e9 6bbc
00000350: a588 5abb 3558 5fbc 6f1e a841 c4c0 aebb
00000360: f556 1e3d 1413 a841 d794 a841 b089 ee3c
00000370: 30cd 183c dd07 f43c 28bb a841 f8f8 8d3c
00000380: 83da 353d f893 a841 3de0 203d 64d1 a841
00000390: 1e5a 4d3d fb25 a841 6d29 0c3d 85b3 773c
000003a0: 0d8b 95bc ffc7 923c cbaa 0cbc f658 a841
000003b0: 802c 68bc 3a3a e6bb afbb 343c 10e3 57bc
000003c0: 0eb0 66bc 55ea 80bc 9f16 a841 6b5d a841
000003d0: 1571 a841 8c65 a841 4224 a841 fc29 a841
000003e0: ed41 a841 6a32 523c 27b5 763c 99c3 a841
000003f0: a52a 153d 1b3e a841 1561 a841 f5dc a841

decoder/1/W f4 [784, 15]
22.616713 22.883034 22.76076 22.701216 22.70453 22.481459 23.02035 23.369139
23.146994 22.626236 22.990215 22.96766 22.776857 22.5427 22.854717 -0.28606826
0.494725 0.09461313 -0.18051036 -0.17833678 0.12632287 -0.38310695 -0.18010771 0.22319932
-0.5019038 -0.4066236 -0.13359691 0.18731256 -0.38751692 0.5460582 0.11432599 -0.011775442
-0.2215176 0.3385336 -0.29389662 -0.062735274 -0.11477115 0.12482697 0.31461793 0.14217804
0.8577187 0.47913432 -0.4127267 -0.012260439 0.13304341 0.4075113 -0.29098526 -0.44022557
-0.06801024 -0.19215922 0.5999291 0.2139344 -0.38570377 0.013335842 0.11458042 0.22855967
0.18302564 -0.12613177 0.5504555 -0.022409549 22.627075 23.161747 22.845531 22.866076
22.911654 23.037779 22.892908 22.619362 23.136135 22.647947 23.198692 22.695734
22.994116 22.939182 22.200022 -0.89132726 -0.24802735 -0.17025957 0.2937779 0.35057127
0.29965183 0.26331365 0.022830857 -0.38433015 -0.5597247 -0.19036065 0.06416513 -0.46931368
-0.30244085 -0.056056492 22.872566 22.933105 22.687838 23.02791 23.208715 22.973106
22.706429 22.89745 22.992334 22.987774 22.72228 22.864748 22.889301 22.7409
22.616436 0.45700556 0.04155251 -0.10202049 0.17624852 -0.02020156 0.1760461 -0.11954409
-0.00015774662 0.29178578 -0.12826061 0.094850756 -0.019152561 0.08062015 -0.077326275 0.61831576
22.496384 22.723026 22.568779 22.924465 22.617886 23.248646 23.048143 22.997078
23.207747 23.003586 22.93137 23.01951 22.633677 22.837214 22.803516 22.687647
22.643936 22.653637 22.58292 23.137684 22.75507 22.893349 23.01461 22.786015
23.045923 23.040922 22.705769 23.019285 23.178955 22.846123 -0.37534836 0.31817162
-0.13175106 -0.09641258 -0.057568867 0.12913844 0.0307072 0.09679674 0.21639282 -0.5303322
0.38832554 -0.062059943 -0.01879215 0.033053532 0.47100335 0.3519939 -0.058762237 -0.22229157
0.33458257 0.29798982 -0.29862893 -0.33469674 -0.41176474 -0.18688196 0.6043196 -0.25344646
0.022547714 -0.3427368 -0.20537922 0.18667568 23.299337 22.701199 22.52037 22.597626
23.084158 22.840733 23.008442 22.744608 22.926834 23.025585 22.688198 22.847385
23.170935 22.736736 22.907185 22.53603 23.074635 22.668488 22.603064 22.60383
23.08017 22.699717 22.911247 23.19211 23.04228 22.7629 22.98151 22.769691
22.922405 22.712553 0.009706101 -0.12535796 0.15072216 0.30149606 0.5196105 -0.36842206
0.02419584 -0.23094974 -0.25811142 -0.16194181 -0.17945573 -0.19206886 -0.09586829 0.08808355
0.12845516 22.747555 22.730007 22.606903 23.13382 22.75349 22.829832 22.690605
22.718317 22.980577 22.792107 22.552578 23.058615 22.873446 23.251907 22.929934
22.90422 23.185556 22.631546 22.497475 22.883581 22.337353 22.866581 23.398561
22.644524 22.443068 22.44524 22.826649 22.35444 22.883749 22.645578 -0.41542456
00000000: 07ef b441 7410 b741 0916 b641 179c b541
00000010: e1a2 b541 07da b341 ad29 b841 fff3 ba41
00000020: 0b2d b941 8802 b541 f6eb b741 c5bd b741
00000030: 0137 b641 7357 b441 76d6 b641 8a77 92be
00000040: 984c fd3e 87c4 c13d b5d7 38be eb9d 36be
00000050: c85a 013e 9826 c4be 286e 38be 5d8e 643e
00000060: c47c 00bf f830 d0be a1cd 08be ddce 3f3e
00000070: 9e68 c6be 78ca 0b3f bf23 ea3d c9ed 40bc
00000080: 82d5 62be 4754 ad3e 9e79 96be 5a7b 80bd
00000090: 230d ebbd 48a5 ff3d 9a15 a13e 1f97 113e
000000a0: 7493 5b3f 1851 f53e ea50 d3be 02e0 48bc
000000b0: 883c 083e 52a5 d03e 05fc 94be 3f65 e1be
000000c0: f448 8bbd 63c5 44be f494 193f 9f11 5b3e
000000d0: f77a c5be 937e 5a3c 24a9 ea3d 8c0b 6a3e
000000e0: 136b 3b3e b028 01be a7ea 0c3f 3b94 b7bc
000000f0: 4004 b541 424b b941 a6c3 b641 b9ed b641
00000100: 114b b741 5f4d b841 ad24 b741 74f4 b441
00000110: ce16 b941 ff2e b541 ec96 b941 dd90 b541
00000120: f3f3 b741 7283 b741 a599 b141 062e 64bf
00000130: e2fa 7dbe 8658 2ebe 0f6a 963e 147e b33e
00000140: f76b 993e 0cd1 863e c707 bb3c ecc6 c4be
00000150: 1e4a 0fbf e7ed 42be 0269 833d e249 f0be
00000160: 87d9 9abe 7e9b 65bd 04fb b641 0077 b741
00000170: b180 b541 2939 b841 73ab b941 ecc8 b741
00000180: c4a6 b541 fa2d b741 4df0 b741 f6e6 b741
00000190: 3bc7 b541 01eb b641 4a1d b741 5ded b541
000001a0: 76ee b441 a2fc e93e f732 2a3d 1ef0 d0bd
000001b0: 7e7a 343e be7d a5bc 6e45 343e 88d3 f4bd
000001c0: c968 25b9 f264 953e c056 03be 1d41 c23d
000001d0: d5e5 9cbc 2d1c a53d 3d5d 9ebd f149 1e3f
000001e0: 98f8 b341 c2c8 b541 dc8c b441 4e65 b741
000001f0: 6ef1 b441 3afd b941 9962 b841 04fa b741
00000200: 77a9 b941 5807 b841 7273 b741 f527 b841
00000210: c511 b541 9db2 b641 9a6d b641 4d80 b541
00000220: c826 b541 a63a b541 d2a9 b441 fa19 b941
00000230: 620a b641 9425 b741 ec1d b841 c249 b641
00000240: 0d5e b841 cf53 b841 6aa5 b541 7f27 b841
00000250: 806e b941 dcc4 b641 a92d c0be 64e7 a23e
00000260: c0e9 06be f573 c5bd 55cd 6bbd de3c 043e
00000270: aa8d fb3c 5f3d c63d 1496 5d3e dac3 07bf
00000280: 9bd2 c63e 9132 7ebd fff1 99bc 2463 073d
00000290: 5a27 f13e 8b38 b43e acb0 70bd 67a0 63be
000002a0: 684e ab3e 1f92 983e e4e5 98be 5f5d abbe
000002b0: d4d2 d2be fc5d 3fbe b0b4 1a3f bcc3 81be
000002c0: fcb5 b83c 337b afbe ee4e 52be e927 3f3e
000002d0: 0b65 ba41 0e9c b541 b829 b441 f0c7 b441
000002e0: 5bac b841 d2b9 b641 4a11 b841 f5f4 b541
000002f0: 286a b741 6634 b841 6e81 b541 72c7 b641
00000300: 135e b941 d6e4 b541 ea41 b741 ca49 b441
00000310: da98 b841 1059 b541 13d3 b441 a5d4 b441
00000320: 30a4 b841 0599 b541 3c4a b741 7189 b941
00000330: 9756 b841 6b1a b641 22da b741 5428 b641
00000340: 1661 b741 4fb3 b541 5706 1f3c d65d 00be
00000350: e956 1a3e b15d 9a3e 3205 053f d1a1 bcbe
00000360: 5b36 c63c 177e 6cbe 2e27 84be 13d4 25be
00000370: 3ec3 37be b3ad 44be 9856 c4bd 2665 b43d
00000380: c089 033e fefa b541 0ed7 b541 f0da b441
00000390: 1012 b941 2607 b641 7fa3 b641 5c86 b541
000003a0: 1dbf b541 39d8 b741 3c56 b641 ae6b b441
000003b0: 0b78 b841 d1fc b641 e803 ba41 8170 b741
000003c0: d83b b741 057c b941 680d b541 d4fa b341
000003d0: 9311 b741 e6b2 b241 c2ee b641 4130 bb41
000003e0: fc27 b541 678b b341 da8f b341 fa9c b641
000003f0: e5d5 b241 eb11 b741 252a b541 87b2 d4be

encoder/1/b f4 [15]
22.822176 22.805922 22.82007 22.816154 22.799477 22.811043 22.828215 22.81768
22.809908 22.803595 22.825575 22.801077 22.817438 22.80782 22.81951
00000000: d193 b641 8772 b641 818f b641 7c87 b641
00000010: 5465 b641 047d b641 2fa0 b641 9c8a b641
00000020: b17a b641 c36d b641 c79a b641 9b68 b641
00000030: 1d8a b641 6a76 b641 5b8e b641
