NIPS_3/Models/Weights_167/45/weights.npz (npz, 176029 bytes, 8 tensors)

encoder/1/W f4 [15, 784]
00000000: a2e2 303d c742 99bc 37cd 9d3d 75f7 56bd
00000010: 8738 dd3d fcae 23bd 7d9e 783c 043c e6bc
00000020: 2180 b93c 59fa 00bb f3e3 f43b bbab 503c
00000030: d025 843f 3318 b43f 0bc3 6c3f 1af2 783f
00000040: 4c1d a3bd a2cf 30bd 5940 b9bc cdb1 65bd
00000050: 69e4 153d c0be a93b 68b6 38bd cc73 00bc
00000060: 6940 7bbc 775d c9bc b1b4 d93c d580 f43c
00000070: 1e1d 803d 202e ed3c 0c48 e93c 00b4 88bc
00000080: 765b 6a3f 1bae 943f 7ac2 1540 d93c 4c40
00000090: e2b5 7940 dadd 9e40 4006 cc40 2f8a eb40
000000a0: 7bf5 fa40 b61f f940 42b6 0041 46ab f440
000000b0: 2c22 fc40 25a8 e740 6366 be40 effa a140
000000c0: 7104 9140 2c06 2f40 e896 0b40 d844 883f
000000d0: 9e06 71bb fe88 bebb 6888 bb3c e9bf 2dbc
000000e0: 24db 3b3c 5845 713c da4b 693f 6767 a13f
000000f0: 23ff 0c40 fa4d 4740 3cb0 9440 3d6e e340
00000100: 6c30 1041 6318 3841 51f3 5741 c708 7041
00000110: e22d 8141 b76a 8741 4af4 8b41 398c 8d41
00000120: 5b83 8d41 7065 8c41 d5e5 8841 a98e 8241
00000130: 3000 6b41 b61b 4541 5a2d 1b41 2240 ca40
00000140: ae76 6c40 a0b2 f83f 57d9 cabc 48c0 3cbd
00000150: 685e 1fbc 7c24 4ebb 7f36 a53f 3a5d 1740
00000160: 8454 7540 ab0e b940 961d 0b41 b6d9 4041
00000170: bbef 6b41 8c9b 8441 9b75 8d41 1a88 9341
00000180: c838 9641 5e80 9841 d8ca 9941 05ab 9a41
00000190: 117e 9a41 b9f0 9941 f498 9841 9b6d 9541
000001a0: 0b60 8f41 f6ff 8441 cfd3 6741 c1d0 3041
000001b0: 4a4b f640 bf9f 7340 abca ad3f 322d 03bd
000001c0: d435 d5bc bc0f 6e3f 4aa9 1040 a9a7 7140
000001d0: 659b c540 766c 3641 6dd7 6a41 9c22 8841
000001e0: e17d 9241 1091 9741 7fa7 9a41 70fd 9b41
000001f0: 55ea 9d41 43fc 9d41 b28a 9e41 801e 9f41
00000200: c7db 9e41 7378 9e41 46de 9d41 368b 9d41
00000210: 4b8f 9b41 8032 9841 49ea 9141 b67d 8541
00000220: 1c1f 6241 daf9 1741 48b8 7440 2a59 b83f
00000230: 1953 47bc 23db 56bd 6d4b 4240 11fc b240
00000240: 551a 3b41 8961 7a41 4f6b 8e41 7e9d 9641
00000250: 8971 9a41 cf35 9d41 e985 9d41 f2b1 9e41
00000260: 6574 9f41 0b79 9f41 860b a041 eec5 9f41
00000270: 7103 a041 66c2 9f41 40ef 9f41 3e6a 9e41
00000280: 58b3 9e41 d2f5 9c41 fd98 9a41 54cd 9541
00000290: 9e2d 8c41 0476 6841 f4e8 0041 b37e 0f40
000002a0: fc8f cabc e8d0 b83f 070b 8e40 af7d 1141
000002b0: 0fb6 6b41 3dbf 8b41 726e 9641 8e59 9b41
000002c0: b6e9 9c41 31b6 9e41 dc34 9f41 16ae 9f41
000002d0: 7a38 9f41 dad8 9f41 89f6 9f41 b022 a041
000002e0: e527 a041 5ecb 9f41 b0ef 9f41 a923 a041
000002f0: 3efb 9e41 c53e 9e41 c267 9c41 d9ac 9941
00000300: 04ed 9341 0c63 8341 c99a 3241 9e7c 7340
00000310: 7c53 593f d33f 6840 8e4e df40 92e1 4b41
00000320: d81f 8741 0722 9441 1d80 9a41 52d9 9c41
00000330: 0e5a 9e41 b19e 9e41 5ad8 9f41 f265 a041
00000340: 6ec1 9f41 a413 a041 2e96 a041 1c7b 9f41
00000350: 84f3 9f41 5794 9f41 0608 a041 0f86 9f41
00000360: 0baa 9f41 72ba 9e41 0242 9d41 8432 9b41
00000370: 6d20 9641 6c05 8941 13a7 4441 aacd 7640
00000380: 96d7 9b3f 4e51 9340 67ae 2641 1cb4 7341
00000390: fb58 8e41 39b4 9741 cb0e 9c41 ab0b 9e41
000003a0: 55b5 9e41 b9bf 9f41 4d73 9f41 5440 a041
000003b0: 84ac 9f41 2af9 9f41 168f a041 d486 a041
000003c0: 1d49 a041 9536 a041 bc08 a041 03c2 9f41
000003d0: edad 9f41 fb31 9e41 05aa 9d41 d3cd 9a41
000003e0: 9155 9641 0b73 8841 6bb6 3a41 4a53 5a40
000003f0: a2f7 d93f 4769 a740 6948 3d41 7c3f 7b41
0.043184884 -0.0187086 0.07705157 -0.052482087 0.10801797 -0.0399618 0.015174505 -0.02810479
0.022644104 -0.0019680469 0.0074734627 0.012736256 1.032404 1.4069885 0.9248511 0.9724442
-0.07964572 -0.043166764 -0.022613691 -0.056077767 0.036594782 0.00518021 -0.04509583 -0.007840108
-0.015335181 -0.0245807 0.026575418 0.029846588 0.06255554 0.028952658 0.028476737 -0.016687393
0.9154581 1.1615633 2.339995 3.1912138 3.9017262 4.9645815 6.375763 7.360618
7.842466 7.785121 8.044497 7.6459074 7.8791714 7.2392755 5.9499984 5.0618815
4.531792 2.7347517 2.1810856 1.064601 -0.0036777626 -0.0058146706 0.022892192 -0.010604837
0.011465821 0.0147260055 0.91131365 1.2609681 2.2030723 3.1141343 4.646513 7.107207
9.011822 11.505954 13.496903 15.002143 16.147404 16.927107 17.494282 17.693468
17.689138 17.54953 17.112223 16.319658 14.687546 12.319265 9.698572 6.3203287
3.6947436 1.9429512 -0.024761839 -0.04608181 -0.009727098 -0.0031454852 1.2907256 2.365065
3.8332834 5.7830405 8.694723 12.053152 14.746028 16.57595 17.682425 18.441456
18.777725 19.06268 19.224045 19.333506 19.311556 19.24254 19.074684 18.678518
17.921896 16.62498 14.489211 11.050965 7.6966906 3.8066251 1.3577474 -0.032025523
-0.026026644 0.9299276 2.2603326 3.7758582 6.175219 11.40148 14.677594 17.0169
18.311464 18.945831 19.331785 19.498749 19.73942 19.748175 19.817722 19.889893
19.857313 19.808813 19.733532 19.692974 19.444967 19.024658 18.239397 16.686382
14.132595 9.498499 3.8237476 1.4402211 -0.012165808 -0.05245508 3.0358536 5.59327
11.693929 15.648812 17.802397 18.8269 19.305437 19.651274 19.690386 19.836887
19.931833 19.934103 20.005627 19.971645 20.00168 19.969921 19.991821 19.801876
19.83757 19.62003 19.324701 18.725258 17.522274 14.528812 8.056873 2.242108
-0.02472686 1.4438753 4.438846 9.093184 14.731948 17.468378 18.803928 19.418728
19.614117 19.83896 19.90081 19.960003 19.902576 19.980885 19.995378 20.016937
20.01948 19.9743 19.992035 20.017412 19.872677 19.78065 19.550663 19.209398
18.49073 16.423363 11.162789 3.804481 0.8489301 3.6288955 6.978339 12.742571
16.890549 18.516615 19.312555 19.606113 19.793972 19.827486 19.98064 20.049778
19.969448 20.00959 20.07333 19.935112 19.993904 19.947432 20.003918 19.940458
19.958029 19.841038 19.65723 19.399666 18.765833 17.127647 12.29079 3.8563027
1.2175167 4.603675 10.417579 15.231472 17.793447 18.963 19.507223 19.755697
19.838541 19.968615 19.9313 20.03141 19.959236 19.996662 20.069866 20.065834
20.0357 20.026651 20.004265 19.969732 19.959925 19.774405 19.708017 19.3505
18.79178 17.056173 11.669536 3.4113336 1.7028697 5.231601 11.830178 15.702999

encoder/0/b f4 [15]
00000000: d08e 0c3d 06d3 89bc 5bd0 b93c 7a6b 053d
00000010: da64 e63c b568 f73c b711 063d 3508 033d
00000020: 2ff1 cf3c 0817 ac3c 159a c63c 1140 9fbc
00000030: b9a1 2e3d ffdc ca3c 7ce7 e63b
0.034315884 -0.016824257 0.02268236 0.0325732 0.028124262 0.030201295 0.032731738 0.03199025
0.02538356 0.021007076 0.024243394 -0.019439729 0.0426347 0.024763582 0.007046638

decoder/0/W f4 [784, 15]
00000000: d071 a53e 5483 c1bc c9de 4c3d 7156 aebd
00000010: fa3e a83d a30d 95be 03a4 813e 6f74 003e
00000020: d631 22bd 2716 403d 940e bcbe 30b9 813d
00000030: 4b09 59ba 8194 d4bd 1c0d fabe 89ca 06bf
00000040: 6a6c 9abe c0b3 ec3d 846b 3f3e 3f70 6ebe
00000050: 26d3 b1be ea77 70bd 064d 84be b2d1 56bd
00000060: d02d 13be fda0 163e 6d40 afbd 7eb5 373e
00000070: dea1 9b3d 1eb5 183e ca18 8341 e13b 8241
00000080: 987a 8241 c8e0 8741 fe45 8341 30a0 8441
00000090: 833c 8341 cd98 8241 36cb 8941 eb03 8741
000000a0: 1c6c 8441 5215 8341 c741 8741 f06e 8541
000000b0: 90c7 7c41 a583 8341 50de 8041 4e5f 8341
000000c0: 0a94 8541 6258 8141 9430 8241 1c3a 8441
000000d0: 6e32 8841 9ff1 8141 8ac7 8441 f0ad 8641
000000e0: 0d80 8041 5ebb 8241 919a 8141 55ee 8141
000000f0: dd10 69bc cffa ad3d 8491 20bd f527 e9bd
00000100: 6dc5 8d3e 2f3e 5a3e d847 873c 7268 d1be
00000110: 4320 94be 748f e83d fa99 c3bd ef22 bbbe
00000120: 03ee e43e 5acc 17be fab1 9cbe 6bc0 de3d
00000130: 426d aabe 09c4 00bd 03d3 0dbe 2699 71bc
00000140: e48a 693e 5d49 ab3e 3169 c9be 1c73 babe
00000150: 57b5 c2bc 97a5 90bd 68ec abbe 9904 cdbd
00000160: 9e2c ebbd e0b3 c63e e554 693c 1923 473e
00000170: bc26 b3be 8303 e4bb 63ca a43e 428f d7bd
00000180: 190e 793e bdce 6a3a 0345 1cbd 8a4c bebd
00000190: 025c 95bd 3296 89be ce64 35bc a30a d33c
000001a0: b9ad d6bd 501f 8541 6845 8341 e6c3 8241
000001b0: cf1f 8541 e297 8241 292e 8341 a275 8541
000001c0: 935e 8341 a298 8141 ac64 8641 8408 8541
000001d0: 7946 8441 801a 8141 d289 8341 9fca 8541
000001e0: 99bb f93d 2ad6 fabe e6eb 9ebe 1d38 6c3c
000001f0: 6770 c6bd 4ab3 283e 1437 a93d 583b 8d3e
00000200: ea39 1e3c a37e 0f3d 3a3b 963e bb98 37bf
00000210: 0ef8 113e 9b79 e83d 7d23 d7be df89 a13e
00000220: 220e 45be 215c 15be 86bf 273e aed2 a7be
00000230: 11ac 69bd 8b2d 193e be85 2e3d a713 053e
00000240: 7fa4 ab3e 9b9c 0fbe 93ab 70be c42e ecbd
00000250: 5cc8 b2be b396 2c3e 744d 8341 3d9c 8041
00000260: d86a 8441 208b 8441 380f 8241 87ce 8441
00000270: 681c 8341 6fe9 8441 b6da 8641 8d8a 8441
00000280: 7a39 8241 abd1 8641 9c35 8541 856d 8441
00000290: e153 8541 1f52 8641 3632 8341 2985 8341
000002a0: 3f09 8241 5b3b 8441 e7a9 8541 dcf8 8241
000002b0: 1360 8441 a52c 8541 0697 8741 3c49 8741
000002c0: 1e85 8141 3747 8541 1953 8441 bcd6 8241
000002d0: 8ff3 d1bc 6221 bebe b0af cabe c795 11bc
000002e0: 4c19 0a3e 0d2b 7c3e da54 8d3e f680 8fbe
000002f0: 3e44 c1be d4a8 20bd fd03 8f3e e726 733d
00000300: fafb 4fbe e0c8 8e3b 8322 9f3e 0c9a e33d
00000310: a38e 53be f287 033e 534f 823e 5817 85bd
00000320: c875 cabd 3231 b83e 13ab 9fbc 2694 4dbe
00000330: 75d0 6bbe 3f1a cfbd 62bf 393e 4406 59be
00000340: b310 05bf 03ac a33e 7456 8341 e993 8241
00000350: 806c 8341 c326 8541 70b9 8541 9b1c 8341
00000360: 5637 8641 04b5 7f41 cf9a 8441 4c5b 8241
00000370: c587 8641 9dd5 8141 f3a2 8541 969a 8241
00000380: df26 8541 3312 983c 2c10 87bd 14b0 f8bd
00000390: bfdc 95be bc52 01be 4ef9 64be a5ad b63d
000003a0: 246c 7cbd a8cb aa3d 0ac6 c7be 7df5 053e
000003b0: 9f41 383e 3e0b 95be 9b34 12bd fcab 15bd
000003c0: c7fe 10bf 685b 733e c500 92be e643 8bbe
000003d0: 13e6 9c3e 8092 d2bd bbd9 62be e2ac 1d3e
000003e0: d947 b33d 5e5a a13d 43ff 193e 83b5 8c3d
000003f0: f322 313e 66b7 e5be 2349 e8bd 7565 8541
0.32313395 -0.023622192 0.050017152 -0.08512581 0.08215137 -0.29111966 0.25320444 0.12544416
-0.03959831 0.046896126 -0.36729872 0.0633415 -0.0008279278 -0.10379887 -0.48838127 -0.52652794
-0.30160838 0.11557722 0.18693358 -0.23285006 -0.34731406 -0.05870811 -0.25840014 -0.052446075
-0.14372945 0.1470985 -0.0855721 0.17940328 0.07599233 0.1491284 16.387104 16.279238
16.30986 16.984756 16.409176 16.578217 16.404547 16.32461 17.224224 16.876913
16.552788 16.38541 16.907118 16.679169 15.798721 16.43928 16.108551 16.421535
16.697285 16.168156 16.27372 16.528374 17.024624 16.24298 16.597431 16.83493
16.062525 16.341488 16.200472 16.241373 -0.014225212 0.084951036 -0.039201275 -0.11384574
0.27689686 0.21312784 0.01651375 -0.40899998 -0.28930864 0.113554865 -0.09550853 -0.3655009
0.4471284 -0.14824048 -0.30604535 0.108765446 -0.33286482 -0.031436954 -0.13850026 -0.014745986
0.22806889 0.3345441 -0.39338067 -0.36415946 -0.02376811 -0.07062834 -0.335788 -0.100106426
-0.114831194 0.3880911 0.014241432 0.19446982 -0.3499049 -0.0069584264 0.3218566 -0.10525371
0.24321784 0.0008957198 -0.038151752 -0.092919424 -0.0729294 -0.26872402 -0.011071397 0.025761908
-0.10482354 16.64029 16.40889 16.345654 16.640532 16.324162 16.39754 16.682438
16.421179 16.199528 16.799156 16.629158 16.53441 16.13794 16.442295 16.723936
0.121939845 -0.4899152 -0.3103935 0.014417675 -0.09689408 0.16474643 0.082624584 0.27584338
0.0096573625 0.03503288 0.2934206 -0.71717423 0.14254782 0.113513194 -0.42019263 0.315505
-0.19243672 -0.14585926 0.16381654 -0.32777923 -0.05704886 0.1495878 0.042608015 0.12995778
0.33523938 -0.14024584 -0.2350295 -0.11532357 -0.34918487 0.16854362 16.412819 16.076288
16.55217 16.567932 16.257431 16.600843 16.38887 16.613981 16.856792 16.567652
16.278065 16.852377 16.651176 16.553476 16.665956 16.790098 16.399517 16.44002
16.254515 16.528982 16.70796 16.371513 16.546911 16.6468 16.948742 16.910759
16.189999 16.659773 16.540575 16.35485 -0.025628833 -0.37134844 -0.39587164 -0.008885807
0.13486212 0.24625798 0.276038 -0.28028077 -0.37747377 -0.039223507 0.2793273 0.059363272
-0.20310965 0.0043574423 0.31081018 0.111133665 -0.2065988 0.12844828 0.25451145 -0.06498593
-0.09885746 0.35975033 -0.019490754 -0.20076045 -0.23028739 -0.10112428 0.18139413 -0.21193796
-0.51978606 0.31967172 16.417213 16.322222 16.427979 16.643927 16.715546 16.388968
16.77702 15.981693 16.57559 16.294579 16.816294 16.229303 16.704565 16.325481
16.64398 0.018563366 -0.065948814 -0.12142959 -0.29269978 -0.12629217 -0.22360727 0.08919839
-0.06162657 0.083396256 -0.3901828 0.13081928 0.17993782 -0.2911014 -0.0356947 -0.03654097
-0.5663876 0.23765337 -0.28516212 -0.2720024 0.30644283 -0.10281849 -0.2215337 0.15397981
0.08753938 0.07878564 0.15038781 0.06870558 0.17298488 -0.44866484 -0.11342075 16.67454

decoder/0/b f4 [784]
00000000: 2311 f83b ceea 913c 444d 5d41 6682 5b41
00000010: 0eca 6f3b a8d1 3fba 5caa 88bd 5aa0 5d41
00000020: e699 d4bb 920b ffbc 0dfc 5c41 32eb 5c41
00000030: 417c 9abd 8b7c d9ba b512 5d41 428a 803c
00000040: 0e43 9e3c 50d7 5c41 5cf4 5c41 79c8 61bd
00000050: e346 5d41 e5ef 0b3b eaf2 5c41 2020 c6bc
00000060: 69ba 8d3c 3708 45bc a328 183c 77da a23b
00000070: 7dd7 5c41 a94b 5d41 adba 91bb 51b1 313c
00000080: 1eef 5c41 cbae 7e3c c8e9 5c41 00eb 5c41
00000090: 2f0f 5d41 83fe 173c 31fa 8d3c e513 5d41
000000a0: c83c 5d41 32c1 5d41 d5f7 693c 2a38 0dbc
000000b0: 5b30 253c 9fec 623b 5e07 5d41 6b3d c03b
000000c0: 2646 5d41 e523 543c dd2a 5d41 f2ec 5c41
000000d0: c802 b8bc 4706 5d41 746d 5d41 2570 9b3c
000000e0: 01f0 5c41 275b 5d41 b5b6 723c 5e10 5d41
000000f0: 7596 583c 21e2 5c41 1768 f3bc 0ad5 5a3c
00000100: 80de 5c41 dae8 5c41 44f6 01bd aab4 043b
00000110: 53e9 5c41 6024 bfbc 6680 5d41 3d30 9bbd
00000120: 5c67 9abd d938 5d41 26a0 5d41 a3ed 5c41
00000130: 7f09 553c f286 76bd 15d0 053c d7a6 863c
00000140: 46c4 5a41 00b9 23ba 82e5 5c41 dff9 5c41
00000150: 574d 07bd 22e3 5c41 8cc4 713c 6c32 5d41
00000160: 6222 2dba c8f9 5c41 7494 e0bc 3a86 883c
00000170: 8e36 8dbb a8a9 5d41 0b0a 5d41 77f7 5c41
00000180: 21e4 5c41 f213 9cba 6908 5d41 bf3a 3fbd
00000190: 7260 5d41 653e 353c 3249 5d41 2d80 7c3c
000001a0: ac33 783c 9cd7 93bc 6525 5d41 25db 5c41
000001b0: 2c75 5d41 4ed6 5d41 c1e2 5c41 d6e5 5c41
000001c0: 8784 5d41 0920 5d41 2e75 0e3c 9065 0fbb
000001d0: d753 5d41 81ed 643c e2df 5c41 f204 17bc
000001e0: a367 e13b f9da 88bb e000 51bc 48df 5c41
000001f0: d7b3 843c d9f0 f3bc 3fdd 7d3c b277 46bd
00000200: 62b7 173c b518 5d41 223b 64bb d971 4dbc
00000210: e158 5d41 08f0 5c41 4e28 5d41 450c 5d41
00000220: 3c59 a6bc cb9b 963c efa3 5d41 e04d 5d41
00000230: 7bcb 19bd d2f2 5c41 6da0 c63b 4b79 0ebc
00000240: 7503 27bb e33f 5e41 e24e 5d41 9bf2 1abd
00000250: ccea 5c41 be97 6b3c c0ba debc 0612 5d41
00000260: f284 283c c979 c13b 38b2 5d41 8ff2 9c3c
00000270: cd51 5d41 d6ee 80bc b50a 5d41 8f30 edba
00000280: abeb 5d41 4fd9 5c41 48ec 2dbd a38c 5d41
00000290: c3d5 ba3b ae0d 5d41 d08a 5d41 4609 5d41
000002a0: 81f7 5c41 45e2 5c41 b2ae 5c41 21d3 b6bc
000002b0: dcbb 5c41 b285 5d41 9aa1 5741 58ed 5c41
000002c0: dc12 5d41 a5ec 5c41 a486 5c41 6d07 5d41
000002d0: 7cfb 5c41 8911 713c cb1d 5d41 6735 5e41
000002e0: 2810 5d41 f7ee 583c 5bbd 313c 567f 5d41
000002f0: d868 5d41 6a21 5c41 895e 1a3c bf2f 5141
00000300: b40f 5d41 005f 5c41 b751 5d41 087d 953c
00000310: 9585 5d41 7973 5d41 d7fc 4d3c 985b 5d41
00000320: d0a7 843c cb91 403a 4bb0 8abd 1e2a 5d41
00000330: 22a0 5d41 b6fa 5c41 654e 3abd b507 563c
00000340: 8c81 5d41 38cc 9e3c 141e 5d41 03e6 5c41
00000350: 5097 5d41 86cb 5d41 cc48 a1bd 640c 5d41
00000360: df89 5d41 d5c9 c43b 1274 ebbc bd05 5d41
00000370: be8a 5d41 9ffe 5c41 fd90 563a c81c 5d41
00000380: 7d42 5d41 294e 0eba 5797 5d41 dac9 c43b
00000390: 38a3 5d41 2140 19bd d665 5d41 9264 5d41
000003a0: 7905 8a3c c00c 5c41 213f 5d41 bf67 993c
000003b0: 48e9 5d41 8f67 5d41 5839 5d41 9e10 5d41
000003c0: d147 5d41 36a5 483c cb76 f0bb 5899 133c
000003d0: 5877 d73b 502a 803c 3c4d febc c82f 91bd
000003e0: 1261 18bd 1fd6 5c41 d788 5d41 b7e0 a83c
000003f0: 49f5 5c41 cf18 7abb 0f30 5cbd 5472 8f3c
0.007570402 0.017812159 13.831364 13.719336 0.003658894 -0.0007317313 -0.066731185 13.851648
-0.0064880727 -0.031133447 13.811536 13.807421 -0.07543231 -0.0016592903 13.817067 0.015690926
0.019319084 13.802567 13.809658 -0.055122826 13.829806 0.0021352705 13.809305 -0.02418524
0.017300801 -0.012025884 0.009287032 0.0049698907 13.802609 13.830972 -0.0044473023 0.010845498
13.808378 0.015544604 13.8070755 13.807373 13.816207 0.009276989 0.017331215 13.817357
13.827339 13.859667 0.014280279 -0.008619348 0.01008233 0.00346259 13.814299 0.0058666966
13.829626 0.012948011 13.822965 13.807848 -0.022462264 13.814033 13.839222 0.018974373
13.808595 13.834754 0.014814069 13.816496 0.0132194655 13.805207 -0.02971272 0.0133564565
13.804321 13.806849 -0.031728998 0.0020249286 13.806964 -0.023332775 13.843847 -0.0757756
-0.075392455 13.826379 13.851599 13.808017 0.013002752 -0.060187288 0.008167286 0.016436977
13.672918 -0.00062455237 13.806032 13.811004 -0.03303274 13.805452 0.014756333 13.82481
-0.00066045497 13.810982 -0.027414538 0.016665567 -0.004309482 13.85392 13.814952 13.810416
13.805696 -0.00119078 13.814553 -0.046686884 13.836046 0.011062239 13.83037 0.015411419
0.015149038 -0.018047146 13.82163 13.803502 13.841106 13.8648205 13.80536 13.806112
13.844855 13.820321 0.00869493 -0.0021880604 13.832969 0.013972641 13.804659 -0.009217488
0.0068788095 -0.004176494 -0.012756556 13.804512 0.016199036 -0.029777931 0.015494644 -0.048453994
0.00926003 13.818532 -0.0034825285 -0.01253935 13.834199 13.808601 13.82234 13.8154955
-0.020306222 0.018384835 13.852523 13.831512 -0.03754757 13.809282 0.0060616047 -0.008695911
-0.0025484238 13.890597 13.8317585 -0.037829023 13.807323 0.01437944 -0.027188659 13.8169
0.010285603 0.0059044105 13.85601 0.01915863 13.832471 -0.015738886 13.815114 -0.0018096137
13.870036 13.803054 -0.042461663 13.846835 0.005701752 13.81584 13.84639 13.814764
13.810426 13.805242 13.79265 -0.022317471 13.795864 13.84514 13.4769535 13.807945
13.817104 13.807775 13.782871 13.814313 13.811398 0.014713653 13.819774 13.888038
13.816444 0.013240567 0.0108483685 13.843588 13.838097 13.758158 0.009421953 13.074157
13.816334 13.773193 13.83245 0.018248096 13.845113 13.840692 0.012572489 13.834862
0.0161933 0.00073459436 -0.067719065 13.8227825 13.851595 13.811209 -0.04548492 0.013063361
13.844128 0.019384488 13.819843 13.806155 13.849442 13.862188 -0.07875213 13.815525
13.84616 0.0060055056 -0.02874187 13.813901 13.846373 13.812163 0.0008185057 13.819527
13.8287325 -0.0005428517 13.849448 0.006005508 13.852348 -0.037414674 13.837362 13.837053
0.016848313 13.753113 13.827912 0.018726228 13.869453 13.837783 13.8265 13.816557
13.830033 0.012246421 -0.00733838 0.009008728 0.006575506 0.015645176 -0.031042688 -0.07089192
-0.03720195 13.802276 13.845908 0.020614965 13.809884 -0.003816176 -0.05375677 0.01751057

encoder/0/W f4 [15, 784]
00000000: 22fe a83c 39b6 8e3b 6d6e 073d 5285 743c
00000010: d863 f53c 2d4c 32bb f8cc 24bd 67a3 99ba
00000020: ad41 253c 2ad8 133d b5ef b3bd 6b38 883d
00000030: 333c 6ebd 82d1 67bd 2f5f 883c 963d 74bd
00000040: 791f 793c b6c0 ccbc 2750 21bc 6fdd af3b
00000050: a95d 913c 94ef 9dbd 896e 32bd 218b 143d
00000060: bd2a da3b 3be0 b53c 6fee 8abd 1974 57bc
00000070: b806 3cbb 8a8d 54bd 137b b3bc bada 923b
00000080: dd65 a03d dd1b ed3d f3db 00bc ed9e 3a3e
00000090: 68ad 0e3e 29ad 93bd 470e 913c 6e3f 36be
000000a0: 96e3 abbe f951 a83b e711 743d 8c7a aa3e
000000b0: 8029 7f3e 6733 f33d 6ac5 8dbd 0166 0d3d
000000c0: f6c0 8d3e 5874 5c3e ad8a 283e 7c76 d03d
000000d0: 12b7 0ebd c9ef 39bc e7f8 703c b32c 98bc
000000e0: ae71 963a acb0 6e3c d8f2 51bd 96ce d9bc
000000f0: 8703 0b3e ef83 873d 64bd 753d 398b 633e
00000100: 2e45 353e 3751 b3bc 230a e1bd 7af6 243e
00000110: 5e8a 0d3e 2e4f 9cbb 7a7c 7abc 6fb7 513e
00000120: 0ffb 733e 9eaf 113e 30a2 863d 70b6 f63d
00000130: dfb8 173e 6492 b13d db4a 493e c2cb 2b3e
00000140: 8083 303e 0a90 143e dd51 0e3d feb9 0b3c
00000150: 914c 4f3c 1123 9e3c f304 71bd f8f4 40bd
00000160: ff01 e2bd 1e12 48bd 69e3 643e fc55 e93d
00000170: 93e8 2b3e 77ad 553d ef80 ad3d 3728 973d
00000180: 3a52 933c ca8b 9e3d 3ce7 663d cfe5 6e3d
00000190: e711 f73d 7bc9 403e 97a1 fd3d 824e c53d
000001a0: 0e04 fc3d 3263 643e c470 443e 312f 773c
000001b0: dba0 403b a6a3 e13d 94b4 cb3d b28c 18bc
000001c0: 0a45 133c 1756 f1bc 2714 a8bd a7ef c0bc
000001d0: 1d4c 39be 11ee 4f3d 5f59 11bd 2c8a 64bd
000001e0: 6cbb b2bd 9924 74bd e53e 9fbd ce42 2bbc
000001f0: 8164 6bbd 0d80 de3c 51e6 fbbb 48aa 28bd
00000200: df78 02bd 6400 d3bc a260 363b 7945 983c
00000210: d7ee 043e 7d7f 293e 9acf c03d 30c1 23bd
00000220: 74fb 61bd ccad 543d 585b 613d 27c6 27bc
00000230: 516c 3dbd dffb 75bd a5fc 303e 6efe e73d
00000240: 6a35 e1bd df89 aabc 3c98 9dbd d9f1 eabd
00000250: 604f ddbd a225 c7bd 9c2f 39bd 6d45 4bbc
00000260: 6355 c1bd bb14 9ebd 587f 9e3c f249 95bd
00000270: d004 3cbd 0294 76bd 2c06 31bd 7c57 e7bc
00000280: 67cc b03c 2935 093d c5a6 993d 7737 80bc
00000290: 8c1b 01bd a277 03bd b67e 9e3d a700 abbd
000002a0: 212e a53c f1a5 343d 7558 babd 7bd6 d83c
000002b0: 99b6 00be 05fb c7bd f117 09be f3cc a9bd
000002c0: 3fab 1bbb 3e48 3bbd 6558 6abd c109 73bd
000002d0: b02b aabb 158e a5bc 94a7 d33a e4b3 a7bd
000002e0: d32c a9bc de86 2a3d d410 bdbb 487e 22bd
000002f0: e04d adbc 28a3 e3bd 98dc 38bd f6a4 133d
00000300: 4e71 f3bb d5c9 f2bd 95dc 39be fa75 6fbe
00000310: 16b8 c7bc a3fb f6bc 0a46 09be 25d5 6ebe
00000320: 6107 16be 0cbc 23bd 9397 98bd 00b4 74bd
00000330: 025c e2bd d700 7ebd 3b63 e2bd b7e4 8cbd
00000340: 735f 42bd 17f6 80bd cfbe 45bd f267 eabc
00000350: ec1e 1e3d a547 34bc 81b5 95bd 318e f7bc
00000360: d729 8abd 6d45 9bbd 72e6 1cbe cf4b 92bd
00000370: 739a c0bd 6be2 d3bb 86b2 50bb 1045 00be
00000380: fabf 263c c423 1f3e ef8a b73d 5d93 bbbb
00000390: e035 3fba 965c bbbd ad2f 72bc 139d aabd
000003a0: 8b86 89bd 8cc8 06bd 0009 f7bd f204 fbbc
000003b0: 711d 1ebd 8dd3 7cbc 9c53 11bb fc62 a7bc
000003c0: ef79 82bd 382b 2abc 98ba 183d 8727 2ebd
000003d0: 7c57 dfbc b2c6 81bd ee01 cabd 9a06 90bc
000003e0: 14b8 52bd ac32 023d 76f1 1d3e 6495 aebd
000003f0: 58e9 e03d 6149 dc3d 05e6 fd3d c122 1e3c
0.020628992 0.0043552187 0.033064295 0.014924364 0.029954836 -0.0027206049 -0.040234536 -0.0011721671
0.010086459 0.036094822 -0.08785955 0.06651386 -0.05816288 -0.056596287 0.01664695 -0.059629045
0.015205258 -0.024994235 -0.00984577 0.005366973 0.017744856 -0.077117115 -0.043562446 0.036265496
0.006657927 0.022201648 -0.06783759 -0.013150238 -0.0028690528 -0.051892795 -0.021909272 0.0044816406
0.07831929 0.1157758 -0.00786494 0.18224688 0.13933337 -0.07210762 0.017707003 -0.17797634
-0.33572072 0.005136725 0.059587386 0.3329662 0.24918175 0.118750386 -0.06922419 0.034521107
0.2768628 0.21528757 0.1645915 0.10178849 -0.03484256 -0.011348673 0.01470778 -0.018576002
0.0011477971 0.014568489 -0.051256984 -0.026587766 0.13575564 0.06616961 0.05999507 0.22221078
0.17702171 -0.021889312 -0.109882616 0.16109648 0.13822314 -0.004770181 -0.015288467 0.2048013
0.2382624 0.14227149 0.065739036 0.12046516 0.14816616 0.086705 0.19657461 0.16776946
0.17237663 0.14508072 0.03474604 0.008528231 0.012652532 0.01930383 -0.05884261 -0.04710862
-0.11035537 -0.048845403 0.22352375 0.11393353 0.16787939 0.052167382 0.08471858 0.07380717
0.017983545 0.077415064 0.056372866 0.05832463 0.120639615 0.18826859 0.123843364 0.09634115
0.12305461 0.22303465 0.19183642 0.015086935 0.0029392752 0.110175416 0.09946552 -0.009310888
0.008988628 -0.029459996 -0.08206969 -0.023551775 -0.18095441 0.050764147 -0.03548562 -0.055795833
-0.08727154 -0.059605215 -0.07775668 -0.010452939 -0.057468895 0.027160669 -0.007687368 -0.041178018
-0.031853553 -0.025757022 0.0027828594 0.018587815 0.12981735 0.16552539 0.09414597 -0.03997916
-0.055171445 0.051923558 0.055018753 -0.010240114 -0.046245877 -0.060054656 0.17283876 0.113278255
-0.10996516 -0.020817695 -0.07695052 -0.1147191 -0.10806155 -0.09723975 -0.04521142 -0.012406689
-0.09440114 -0.07718798 0.019347832 -0.072894946 -0.045903027 -0.060199745 -0.043218777 -0.028239958
0.021581842 0.033497963 0.07502512 -0.015651448 -0.03152041 -0.032096513 0.07739012 -0.08349734
0.020163598 0.044103567 -0.09098903 0.02646946 -0.12569655 -0.09764675 -0.13388039 -0.08291044
-0.0023753194 -0.045723192 -0.057213206 -0.059335474 -0.0051931962 -0.020209352 0.0016147965 -0.08188608
-0.020651257 0.041632526 -0.0057698283 -0.039671212 -0.021155298 -0.11115104 -0.04513225 0.03604599
-0.0074292785 -0.11854903 -0.18150552 -0.23384848 -0.024379771 -0.030149287 -0.13405624 -0.23323496
-0.14651252 -0.039974257 -0.074507855 -0.059741974 -0.11052705 -0.06201252 -0.11054083 -0.068795614
-0.04745431 -0.06296938 -0.048277672 -0.028614018 0.03860371 -0.0110034095 -0.0731001 -0.03021917
-0.067462616 -0.07581601 -0.15322283 -0.071433656 -0.09404459 -0.0064662 -0.003184469 -0.12526345
0.010177607 0.15540987 0.08962046 -0.005724354 -0.00072941 -0.09148519 -0.014781875 -0.08330741
-0.06715115 -0.0329061 -0.120622635 -0.030642007 -0.038602296 -0.015431297 -0.002217508 -0.020432942
-0.06370913 -0.010386281 0.037287325 -0.042518165 -0.027263395 -0.06336726 -0.09863649 -0.017581273
-0.05144508 0.031786606 0.15424141 -0.08524588 0.10982007 0.107561834 0.12397388 0.009651841

decoder/1/b f4 [784]
00000000: bf4d 9341 9785 a33c 057f 153d 9ac4 9d3d
00000010: 0910 9341 cdbf 903c 99f3 9241 67d7 333d
00000020: c1ee 9241 0cfb 9241 ac45 e83c 4e22 a83c
00000030: afce 9241 5339 9341 feed a03c f62a 9341
00000040: 0634 9341 e686 863c 3640 ce3c c020 9341
00000050: 5f60 2a3d a856 9341 45ca 843c 8633 9341
00000060: da8d 9341 4330 9341 7721 9341 c272 9341
00000070: 6172 b23c 0ca9 403c 92cd 9241 eb81 9341
00000080: 8196 ad3c 2b38 9341 911b a43c eb47 2c3d
00000090: 2e0e 1d3d 7d96 9341 0152 173c b5bb 813c
000000a0: ec50 7c3d 4d30 5c3c c7e7 9241 c08a 9341
000000b0: 870f 9341 6a73 9341 b2ef 9d3c 7451 9341
000000c0: 4b5b 4f3d 3916 9341 4bf3 6b3c bf70 fa3c
000000d0: 0620 9341 e208 dd3c 5347 393c 8e68 9341
000000e0: 54f2 af3c b7ed 333d 2b91 9341 4caa 293d
000000f0: 1d89 9341 3211 703c bef8 9241 4b00 843c
00000100: d882 933c 3446 0c3d e665 9341 b949 9341
00000110: a30d bc3c 87f3 9241 aef5 643c 7707 9341
00000120: 4d01 9341 3533 733b ffb3 8b3c 8bbf 653c
00000130: 4095 9341 d92b 9341 2054 9341 5614 823c
00000140: 092a 403d 8f8d 9341 7a40 7e3c 5f47 0a3c
00000150: fffd 9241 8fcf 313c 6e4b 9341 66d6 033d
00000160: a20e 9341 610e 953c d05f 9341 3bde 363c
00000170: 901b 9341 6ecc 823d c838 f93c 1f36 953c
00000180: 5700 b73c 5941 9341 412c 643d 2c27 9341
00000190: dc02 573d c27d 9341 7ddf 283d 4c85 9341
000001a0: e28d 453c 4735 9341 13a6 123d 8215 c23c
000001b0: e56b 2e3c 629d ab3c 26a3 c13c 4b58 b13c
000001c0: 2e54 2f3c 49d6 9a3c 3005 9341 0665 9341
000001d0: e396 4d3c e841 9341 bf72 c23c dc89 9341
000001e0: 6e25 833c f55b 9341 d9fb 9241 3d33 5fbb
000001f0: 6b1f 2e3c 2c1a 9341 bff3 9241 5200 9341
00000200: 3f06 9341 bb32 9a3c 003a 9341 ba59 9341
00000210: a313 213d 7ae5 873c d4e2 c83b 933d a03c
00000220: a762 9341 8094 9341 ead2 a13c 2bf8 323d
00000230: c423 9341 2574 b43c 5886 9341 076d 9341
00000240: 3d82 9341 7789 513c 8648 a23c ae37 9341
00000250: 86b5 dc3c 16e0 9241 6e2c 9341 aa75 f43c
00000260: ff3a 9341 4438 9341 2745 30bc e9b9 42bc
00000270: 4fe6 173b 515a 9341 72e2 5cbc 1565 9341
00000280: 41ec 143d 2edf f03b 8b03 9341 c422 a43c
00000290: 3057 9341 266d 663d 7ac4 8e3c 3562 313c
000002a0: 6381 643c 2943 5d3c 1616 0e3d 1070 9341
000002b0: 6d6f a03c 107d 373d c894 053d 4093 aa3c
000002c0: 0430 c63c 871b adb9 24eb 0a3d 862f 083c
000002d0: afac 4a3b ddb1 94bc 28c3 33bc ff78 92bc
000002e0: f66f 6dbc c316 9341 d826 9341 2fb2 48bc
000002f0: 00b6 083d 6989 113d f69e 6d3c b136 8e3d
00000300: 0edc 2d3d e8f2 4c3d ac39 f83c 476f 9341
00000310: 00a2 7c3c 23e2 663d 9257 9341 38e3 833c
00000320: ae60 b53c 6166 9341 471c 9341 3ea9 a73c
00000330: d3ee 293d 7040 dc3c 2b12 9341 96a5 61bc
00000340: 0772 88bc f8bc 6abc 6579 53bc 61e9 6bbc
00000350: a588 5abb 3558 5fbc 4ddf 9241 c4c0 aebb
00000360: f556 1e3d 1dd4 9241 2455 9341 b089 ee3c
00000370: 30cd 183c dd07 f43c 357b 9341 f8f8 8d3c
00000380: 83da 353d 4854 9341 3de0 203d 5691 9341
00000390: 1e5a 4d3d dce6 9241 6d29 0c3d 85b3 773c
000003a0: 0d8b 95bc ffc7 923c cbaa 0cbc 4119 9341
000003b0: 802c 68bc 3a3a e6bb afbb 343c 10e3 57bc
000003c0: 0eb0 66bc 55ea 80bc 96d7 9241 d51d 9341
000003d0: 4131 9341 f025 9341 43e5 9241 f5ea 9241
000003e0: 9302 9341 6a32 523c 27b5 763c bc83 9341
000003f0: a52a 153d e6fe 9241 a021 9341 d49c 9341
18.412962 0.019961162 0.03649809 0.077035144 18.38283 0.017669583 18.368944 0.043906596
18.36658 18.372581 0.028353535 0.02052417 18.35092 18.40299 0.019644734 18.395977
18.400402 0.016421746 0.025177103 18.390991 0.041595813 18.417313 0.01620973 18.400158
18.444263 18.398565 18.39134 18.431034 0.021783056 0.011759054 18.350376 18.438437
0.02118993 18.402426 0.020032676 0.042060774 0.0383436 18.44848 0.00923586 0.015836576
0.06160061 0.01343925 18.363173 18.442749 18.382582 18.431355 0.019279335 18.414772
0.050624173 18.38585 0.014401267 0.03057134 18.390636 0.026981775 0.011308509 18.426052
0.021477856 0.043927874 18.445883 0.041422173 18.44195 0.014652537 18.371456 0.016113421
0.018006727 0.03424664 18.424755 18.410997 0.022955721 18.36891 0.01397459 18.378645
18.375635 0.003710938 0.017053602 0.014022718 18.447876 18.39641 18.416077 0.015878838
0.046915088 18.44412 0.015518302 0.008439868 18.374022 0.0108527085 18.41183 0.03218689
18.382145 0.018195333 18.421783 0.011161382 18.388458 0.06386648 0.030422583 0.018214284
0.02233903 18.406908 0.055706266 18.394127 0.05249296 18.436405 0.04122876 18.440086
0.012057753 18.401014 0.035802912 0.023691896 0.010645841 0.02094907 0.023637366 0.021648547
0.010701222 0.018901007 18.377533 18.424328 0.012548181 18.40718 0.023736356 18.442314
0.016009059 18.4199 18.372972 -0.003405764 0.010627608 18.38778 18.369017 18.375156
18.37805 0.018823018 18.40332 18.418812 0.039325368 0.016588915 0.0061305556 0.01956061
18.42317 18.44751 0.019753892 0.043693703 18.392464 0.022028038 18.440598 18.428236
18.438593 0.012789122 0.019809972 18.402187 0.026942026 18.359417 18.396694 0.029841263
18.403807 18.402473 -0.010758675 -0.011885145 0.0023178046 18.4191 -0.013481723 18.424356
0.03635812 0.007350824 18.37673 0.020036109 18.417572 0.056256436 0.017427672 0.010826637
0.013946864 0.013504782 0.03468903 18.429718 0.019584382 0.044797003 0.032612592 0.020822167
0.024192818 -0.0003301764 0.033915654 0.008312112 0.0030925681 -0.018151218 -0.010971822 -0.017879961
-0.014492026 18.386114 18.393967 -0.0122495135 0.033376694 0.035531435 0.014503231 0.06944025
0.04244619 0.05003634 0.030300938 18.429335 0.015419483 0.056368005 18.417759 0.016099557
0.022140827 18.42499 18.388807 0.020466443 0.041487526 0.026886195 18.383871 -0.013772389
-0.016655935 -0.01432728 -0.012907361 -0.014398904 -0.0033345607 -0.01363187 18.359034 -0.005333038
0.038657147 18.35357 18.416573 0.029118389 0.009326264 0.029788906 18.43516 0.017330632
0.044397842 18.416153 0.03927635 18.445965 0.05013477 18.362724 0.034219194 0.015118484
-0.018254781 0.017917631 -0.008585642 18.387331 -0.014170766 -0.007025984 0.011031075 -0.0131766945
-0.014080061 -0.015736738 18.355267 18.389566 18.39905 18.393524 18.361944 18.364725
18.376257 0.012829402 0.0150578385 18.439323 0.036417622 18.374462 18.391418 18.451576

decoder/1/W f4 [784, 15]
00000000: e6c3 9e41 32e5 a041 efea 9f41 ea70 9f41
00000010: 8877 9f41 d7ae 9d41 9bfe a141 c1c8 a441
00000020: e001 a341 3dd7 9e41 eac0 a141 7492 a141
00000030: d00b a041 322c 9e41 57ab a041 8a77 92be
00000040: 984c fd3e 87c4 c13d b5d7 38be eb9d 36be
00000050: c85a 013e 9826 c4be 286e 38be 5d8e 643e
00000060: c47c 00bf f830 d0be a1cd 08be ddce 3f3e
00000070: 9e68 c6be 78ca 0b3f bf23 ea3d c9ed 40bc
00000080: 82d5 62be 4754 ad3e 9e79 96be 5a7b 80bd
00000090: 230d ebbd 48a5 ff3d 9a15 a13e 1f97 113e
000000a0: 7493 5b3f 1851 f53e ea50 d3be 02e0 48bc
000000b0: 883c 083e 52a5 d03e 05fc 94be 3f65 e1be
000000c0: f448 8bbd 63c5 44be f494 193f 9f11 5b3e
000000d0: f77a c5be 937e 5a3c 24a9 ea3d 8c0b 6a3e
000000e0: 136b 3b3e b028 01be a7ea 0c3f 3b94 b7bc
000000f0: 63d9 9e41 4a20 a341 d398 a041 d1c2 a041
00000100: 0820 a141 7622 a241 e2f9 a041 7ec9 9e41
00000110: e7eb a241 0104 9f41 256c a341 d765 9f41
00000120: 08c9 a141 7d58 a141 cf6e 9b41 062e 64bf
00000130: e2fa 7dbe 8658 2ebe 0f6a 963e 147e b33e
00000140: f76b 993e 0cd1 863e c707 bb3c ecc6 c4be
00000150: 1e4a 0fbf e7ed 42be 0269 833d e249 f0be
00000160: 87d9 9abe 7e9b 65bd 67d0 a041 4c4c a141
00000170: 1e56 9f41 820e a241 af80 a341 449e a141
00000180: 357c 9f41 4703 a141 a7c5 a141 3bbc a141
00000190: b09c 9f41 40c0 a041 a1f2 a041 abc2 9f41
000001a0: e0c3 9e41 a2fc e93e f732 2a3d 1ef0 d0bd
000001b0: 7e7a 343e be7d a5bc 6e45 343e 88d3 f4bd
000001c0: c968 25b9 f264 953e c056 03be 1d41 c23d
000001d0: d5e5 9cbc 2d1c a53d 3d5d 9ebd f149 1e3f
000001e0: f1cd 9d41 009e 9f41 4062 9e41 9d3a a141
000001f0: 9fc6 9e41 86d2 a341 0238 a241 48cf a141
00000200: c77e a341 93dc a141 df48 a141 2dfd a141
00000210: 10e7 9e41 e087 a041 f742 a041 9955 9f41
00000220: fafb 9e41 ff0f 9f41 117f 9e41 1def a241
00000230: 9edf 9f41 f1fa a041 23f3 a141 021f a041
00000240: 3933 a241 2f29 a241 947a 9f41 bafc a141
00000250: b843 a341 2d9a a041 a92d c0be 64e7 a23e
00000260: c0e9 06be f573 c5bd 55cd 6bbd de3c 043e
00000270: aa8d fb3c 5f3d c63d 1496 5d3e dac3 07bf
00000280: 9bd2 c63e 9132 7ebd fff1 99bc 2463 073d
00000290: 5a27 f13e 8b38 b43e acb0 70bd 67a0 63be
000002a0: 684e ab3e 1f92 983e e4e5 98be 5f5d abbe
000002b0: d4d2 d2be fc5d 3fbe b0b4 1a3f bcc3 81be
000002c0: fcb5 b83c 337b afbe ee4e 52be e927 3f3e
000002d0: 693a a441 5671 9f41 22ff 9d41 439d 9e41
000002e0: 9481 a241 258f a041 b7e6 a141 41ca 9f41
000002f0: 823f a141 a509 a241 e056 9f41 ad9c a041
00000300: 6133 a341 21ba 9f41 4f17 a141 bf1e 9e41
00000310: b56d a241 102e 9f41 fca7 9e41 70a9 9e41
00000320: 1479 a241 0d6e 9f41 1b1f a141 575e a341
00000330: 6d2b a241 76ef 9f41 f1ae a141 39fd 9f41
00000340: f535 a141 4888 9f41 5706 1f3c d65d 00be
00000350: e956 1a3e b15d 9a3e 3205 053f d1a1 bcbe
00000360: 5b36 c63c 177e 6cbe 2e27 84be 13d4 25be
00000370: 3ec3 37be b3ad 44be 9856 c4bd 2665 b43d
00000380: c089 033e 06d0 9f41 f8ab 9f41 04b0 9e41
00000390: 0be7 a241 01dc 9f41 7878 a041 785b 9f41
000003a0: 0b94 9f41 34ad a141 212b a041 ce40 9e41
000003b0: ec4c a241 c7d1 a041 d4d8 a341 8c45 a141
000003c0: 520f a141 664f a341 f2e0 9e41 42ce 9d41
000003d0: e2e4 a041 5186 9c41 54c2 a041 a503 a541
000003e0: 6afb 9e41 c25e 9d41 6e63 9d41 4d70 a041
000003f0: 50a9 9c41 4ee5 a041 a7fd 9e41 87b2 d4be
19.845654 20.111912 19.989714 19.930134 19.933365 19.710371 20.24932 20.598024
20.375916 19.855097 20.219196 20.19651 20.005768 19.77158 20.083662 -0.28606826
0.494725 0.09461313 -0.18051036 -0.17833678 0.12632287 -0.38310695 -0.18010771 0.22319932
-0.5019038 -0.4066236 -0.13359691 0.18731256 -0.38751692 0.5460582 0.11432599 -0.011775442
-0.2215176 0.3385336 -0.29389662 -0.062735274 -0.11477115 0.12482697 0.31461793 0.14217804
0.8577187 0.47913432 -0.4127267 -0.012260439 0.13304341 0.4075113 -0.29098526 -0.44022557
-0.06801024 -0.19215922 0.5999291 0.2139344 -0.38570377 0.013335842 0.11458042 0.22855967
0.18302564 -0.12613177 0.5504555 -0.022409549 19.856146 20.390766 20.074621 20.095125
20.14064 20.266827 20.122013 19.848385 20.365187 19.876955 20.427805 19.924726
20.22316 20.168207 19.429106 -0.89132726 -0.24802735 -0.17025957 0.2937779 0.35057127
0.29965183 0.26331365 0.022830857 -0.38433015 -0.5597247 -0.19036065 0.06416513 -0.46931368
-0.30244085 -0.056056492 20.101759 20.162254 19.91705 20.257084 20.437834 20.202278
19.935648 20.1266 20.22151 20.21691 19.951508 20.093872 20.118471 19.970053
19.845642 0.45700556 0.04155251 -0.10202049 0.17624852 -0.02020156 0.1760461 -0.11954409
-0.00015774662 0.29178578 -0.12826061 0.094850756 -0.019152561 0.08062015 -0.077326275 0.61831576
19.725557 19.952148 19.797974 20.15362 19.846983 20.477795 20.277348 20.226212
20.436903 20.232702 20.160582 20.248621 19.862823 20.066345 20.032698 19.916796
19.873035 19.88281 19.812044 20.366755 19.984188 20.12253 20.24372 20.01514
20.275011 20.27011 19.934853 20.248402 20.408066 20.075281 -0.37534836 0.31817162
-0.13175106 -0.09641258 -0.057568867 0.12913844 0.0307072 0.09679674 0.21639282 -0.5303322
0.38832554 -0.062059943 -0.01879215 0.033053532 0.47100335 0.3519939 -0.058762237 -0.22229157
0.33458257 0.29798982 -0.29862893 -0.33469674 -0.41176474 -0.18688196 0.6043196 -0.25344646
0.022547714 -0.3427368 -0.20537922 0.18667568 20.52852 19.93034 19.749577 19.826788
20.31327 20.069895 20.237654 19.973757 20.15601 20.25471 19.91742 20.076502
20.400087 19.965883 20.136381 19.765013 20.303568 19.897491 19.832024 19.832733
20.30912 19.928736 20.140188 20.421064 20.271204 19.991924 20.21042 19.998644
20.151346 19.941544 0.009706101 -0.12535796 0.15072216 0.30149606 0.5196105 -0.36842206
0.02419584 -0.23094974 -0.25811142 -0.16194181 -0.17945573 -0.19206886 -0.09586829 0.08808355
0.12845516 19.976574 19.95897 19.835945 20.362814 19.982424 20.058823 19.919662
19.947287 20.209572 20.021059 19.781643 20.28756 20.10243 20.480873 20.158958
20.13248 20.413769 19.859837 19.725712 20.11176 19.565584 20.094887 20.62678
19.87276 19.671268 19.67355 20.054834 19.582672 20.111965 19.873854 -0.41542456

encoder/1/b f4 [15]
00000000: e163 a041 a543 a041 3060 a041 3458 a041
00000010: 6d36 a041 de4d a041 c070 a041 945a a041
00000020: 8b4b a041 cb3e a041 476b a041 c839 a041
00000030: 7b5a a041 5b47 a041 2f5f a041
20.048769 20.03303 20.046967 20.043068 20.026575 20.038021 20.055054 20.044228
20.036886 20.03066 20.052382 20.028214 20.04418 20.034842 20.046476
