NIPS_3/Models/Weights_167/43/weights.npz (npz, 176422 bytes, 8 tensors)

encoder/1/W f4 [15, 784]
0.043184884 -0.0187086 0.07705157 -0.052482087 0.10801797 -0.0399618 0.015174505 -0.02810479
0.022644104 -0.0019680469 0.0074734627 0.012736256 0.99315125 1.3596448 0.8882969 0.93588996
-0.07964572 -0.043166764 -0.022613691 -0.056077767 0.036594782 0.00518021 -0.04509583 -0.007840108
-0.015335181 -0.0245807 0.026575418 0.029846588 0.06255554 0.028952658 0.028476737 -0.016687393
0.8794209 1.1188483 2.2508926 3.072031 3.7588208 4.7920923 6.1452346 7.096352
7.562868 7.5114565 7.768903 7.3752594 7.600465 6.979434 5.7370687 4.884062
4.3721676 2.6366546 2.0997376 1.0227488 -0.0036777626 -0.0058146706 0.022892192 -0.010604837
0.011465821 0.0147260055 0.87902063 1.2128849 2.1223254 2.9992037 4.478391 6.8552313
8.683875 11.10364 13.026376 14.476737 15.580627 16.336735 16.883123 17.070917
17.069632 16.93843 16.513458 15.751077 14.178189 11.896518 9.360424 6.1019397
3.5672731 1.872413 -0.024761839 -0.04608181 -0.009727098 -0.0031454852 1.2480601 2.2791355
3.694951 5.581946 8.39281 11.626107 14.226232 15.99975 17.06522 17.798452
18.120792 18.393663 18.550732 18.658356 18.636255 18.568247 18.406797 18.023575
17.293379 16.041859 13.981832 10.669878 7.43079 3.6705835 1.3078599 -0.032025523
-0.026026644 0.89228207 2.1761484 3.64502 5.9565077 11.000704 14.161096 16.417274
17.670176 18.282469 18.655043 18.814432 19.050472 19.056242 19.124054 19.195404
19.162813 19.114622 19.040611 19.003931 18.764544 18.358084 17.598917 16.097197
13.638751 9.166366 3.6857188 1.3833606 -0.012165808 -0.05245508 2.9271784 5.398908
11.287321 15.101994 17.179802 18.16646 18.627403 18.964573 18.999153 19.142017
19.234962 19.236212 19.306969 19.27225 19.302347 19.270878 19.29351 19.1053
19.144222 18.932348 18.64697 18.06576 16.906086 14.01799 7.7643113 2.1635578
-0.02472686 1.3886611 4.279557 8.776804 14.220753 16.85694 18.144846 18.739613
18.926332 19.145983 19.204462 19.26155 19.203386 19.280962 19.294855 19.316109
19.318771 19.273851 19.292053 19.31848 19.17606 19.087118 18.863335 18.534594
17.845211 15.847562 10.766486 3.6638339 0.8117523 3.4977765 6.7272496 12.295621
16.30554 17.867191 18.636677 18.919674 19.10108 19.130865 19.281694 19.349974
19.269293 19.308842 19.37232 19.23403 19.29292 19.246593 19.303455 19.240694
19.259481 19.145006 18.96572 18.718088 18.105896 16.523743 11.85122 3.717413
1.1713835 4.4356422 10.046295 14.696158 17.174376 18.299606 18.824932 19.065176
19.142792 19.270319 19.2317 19.331121 19.258644 19.295864 19.369154 19.365377
19.335169 19.32593 19.303648 19.26947 19.26076 19.077473 19.015087 18.667448
18.132519 16.453533 11.257189 3.2895539 1.6407028 5.039985 11.415546 15.154287
00000000: a2e2 303d c742 99bc 37cd 9d3d 75f7 56bd
00000010: 8738 dd3d fcae 23bd 7d9e 783c 043c e6bc
00000020: 2180 b93c 59fa 00bb f3e3 f43b bbab 503c
00000030: 293f 7e3f d708 ae3f 6d67 633f 7c96 6f3f
00000040: 4c1d a3bd a2cf 30bd 5940 b9bc cdb1 65bd
00000050: 69e4 153d c0be a93b 68b6 38bd cc73 00bc
00000060: 6940 7bbc 775d c9bc b1b4 d93c d580 f43c
00000070: 1e1d 803d 202e ed3c 0c48 e93c 00b4 88bc
00000080: ba21 613f 6c36 8f3f a00e 1040 289c 4440
00000090: 8590 7040 d258 9940 c3a5 c440 5115 e340
000000a0: 0403 f240 da5d f040 da9a f840 2002 ec40
000000b0: 0237 f340 8657 df40 1196 b740 3c4a 9c40
000000c0: cce8 8b40 f3be 2840 1a62 0640 6fe9 823f
000000d0: 9e06 71bb fe88 bebb 6888 bb3c e9bf 2dbc
000000e0: 24db 3b3c 5845 713c 7f07 613f d03f 9b3f
000000f0: 2ed4 0740 f4f2 3f40 fb4e 8f40 0e5e db40
00000100: 27f1 0a41 82a8 3141 096c 5041 b7a0 6741
00000110: 404a 7941 a2b1 8241 a310 8741 3d91 8841
00000120: 9b8e 8841 e881 8741 901b 8441 6904 7c41
00000130: ddd9 6241 2358 3e41 4cc4 1541 1743 c340
00000140: 344e 6440 3bab ef3f 57d9 cabc 48c0 3cbd
00000150: 685e 1fbc 7c24 4ebb 6fc0 9f3f 5bdd 1140
00000160: 147a 6c40 4d9f b240 f348 0641 8904 3a41
00000170: a59e 6341 fafe 7f41 9285 8841 3b63 8e41
00000180: 62f7 9041 3926 9341 e667 9441 5044 9541
00000190: 0d17 9541 c58b 9441 1f41 9341 4830 9041
000001a0: d758 8a41 ba55 8041 95b5 5f41 d2b7 2a41
000001b0: 08c9 ed40 d7ea 6a40 f467 a73f 322d 03bd
000001c0: d435 d5bc 996c 643f 0446 0b40 0248 6940
000001d0: b69b be40 e202 3041 d993 6241 9456 8341
000001e0: 855c 8d41 7f42 9241 873d 9541 f583 9641
000001f0: 5e67 9841 2f73 9841 10fe 9841 3090 9941
00000200: 714d 9941 bfea 9841 2c53 9841 0d08 9841
00000210: c91d 9641 5bdd 9241 95ca 8c41 0fc7 8041
00000220: 5338 5a41 6fa9 1241 d1e2 6b40 f611 b13f
00000230: 1953 47bc 23db 56bd e456 3b40 dbc3 ac40
00000240: de98 3441 c4a1 7141 3c70 8941 e954 9141
00000250: ec04 9541 72b7 9741 44fe 9741 da22 9941
00000260: 34e1 9941 c3e3 9941 ac74 9a41 912d 9a41
00000270: 356b 9a41 c22a 9a41 1c59 9a41 a8d7 9841
00000280: 5e27 9941 7375 9741 ff2c 9541 ad86 9041
00000290: aa3f 8741 b049 6041 3d75 f840 bb77 0a40
000002a0: fc8f cabc a6bf b13f 22f2 8840 ca6d 0c41
000002b0: 3488 6341 03db 8641 a528 9141 baea 9541
000002c0: 2169 9741 f92a 9941 bda2 9941 a817 9a41
000002d0: 89a0 9941 693f 9a41 dd5b 9a41 6487 9a41
000002e0: d88c 9a41 d930 9a41 2056 9a41 3f8c 9a41
000002f0: 9268 9941 6bb2 9841 1ce8 9641 d946 9441
00000300: fec2 8e41 9d8f 7d41 8743 2c41 417c 6a40
00000310: 00cf 4f3f 92db 5f40 a145 d740 ddba 4441
00000320: bf71 8241 02f0 8e41 ea17 9541 7e5b 9741
00000330: 03cf 9841 030c 9941 e940 9a41 bfcc 9a41
00000340: 8327 9a41 8278 9a41 83fa 9a41 4bdf 9941
00000350: e657 9a41 06f9 9941 7a6d 9a41 f1ec 9941
00000360: 6b13 9a41 f928 9941 cbb9 9741 a5be 9541
00000370: e0d8 9041 a030 8441 999e 3d41 18ea 6d40
00000380: e5ef 953f c8f0 8d40 a0bd 2041 7723 6b41
00000390: 1f65 8941 9865 9241 7699 9641 7b85 9841
000003a0: 7024 9941 9d29 9a41 86da 9941 23a6 9a41
000003b0: b411 9a41 ee5d 9a41 07f4 9a41 4bec 9a41
000003c0: 6dae 9a41 819b 9a41 df6d 9a41 e027 9a41
000003d0: 0916 9a41 aa9e 9841 e61e 9841 ef56 9541
000003e0: 660f 9141 d6a0 8341 721d 3441 0d88 5240
000003f0: 8d02 d23f 8f47 a140 14a6 3641 f677 7241

encoder/0/b f4 [15]
0.036223207 -0.016824257 0.02268236 0.0325732 0.029670281 0.031892706 0.032731738 0.02990036
0.02538356 0.031307954 0.024243394 -0.019439729 0.044297755 0.024763582 0.009052056
00000000: c95e 143d 06d3 89bc 5bd0 b93c 7a6b 053d
00000010: 170f f33c eda1 023d b711 063d 9af1 f43c
00000020: 2ff1 cf3c c53c 003d 159a c63c 1140 9fbc
00000030: 9071 353d ffdc ca3c 134f 143c

decoder/0/W f4 [784, 15]
0.32313395 -0.023622192 0.050017152 -0.08512581 0.08215137 -0.29111966 0.25320444 0.12544416
-0.03959831 0.046896126 -0.36729872 0.0633415 -0.0008279278 -0.10379887 -0.48838127 -0.52652794
-0.30160838 0.11557722 0.18693358 -0.23285006 -0.34731406 -0.05870811 -0.25840014 -0.052446075
-0.14372945 0.1470985 -0.0855721 0.17940328 0.07599233 0.1491284 15.750654 15.642769
15.673419 16.348293 15.772707 15.941757 15.768115 15.68815 16.58776 16.240442
15.916361 15.748942 16.270655 16.042702 15.16228 15.802829 15.472085 15.7851
16.060822 15.531675 15.637255 15.89194 16.388157 15.606519 15.960963 16.198498
15.426051 15.7050295 15.564007 15.604922 -0.014225212 0.084951036 -0.039201275 -0.11384574
0.27689686 0.21312784 0.01651375 -0.40899998 -0.28930864 0.113554865 -0.09550853 -0.3655009
0.4471284 -0.14824048 -0.30604535 0.108765446 -0.33286482 -0.031436954 -0.13850026 -0.014745986
0.22806889 0.3345441 -0.39338067 -0.36415946 -0.02376811 -0.07062834 -0.335788 -0.100106426
-0.114831194 0.3880911 0.014241432 0.19446982 -0.3499049 -0.0069584264 0.3218566 -0.10525371
0.24321784 0.0008957198 -0.038151752 -0.092919424 -0.0729294 -0.26872402 -0.011071397 0.025761908
-0.10482354 16.003832 15.772436 15.709216 16.004068 15.687687 15.761081 16.046003
15.784723 15.563067 16.162685 15.992725 15.897941 15.501477 15.805836 16.087482
0.121939845 -0.4899152 -0.3103935 0.014417675 -0.09689408 0.16474643 0.082624584 0.27584338
0.0096573625 0.03503288 0.2934206 -0.71717423 0.14254782 0.113513194 -0.42019263 0.315505
-0.19243672 -0.14585926 0.16381654 -0.32777923 -0.05704886 0.1495878 0.042608015 0.12995778
0.33523938 -0.14024584 -0.2350295 -0.11532357 -0.34918487 0.16854362 15.776371 15.439823
15.915732 15.931476 15.620951 15.964381 15.752437 15.977518 16.22033 15.93119
15.64163 16.215899 16.014713 15.917017 16.029503 16.15364 15.763059 15.80358
15.61805 15.892502 16.071495 15.735082 15.910454 16.010336 16.312271 16.274326
15.553523 16.02331 15.904116 15.718408 -0.025628833 -0.37134844 -0.39587164 -0.008885807
0.13486212 0.24625798 0.276038 -0.28028077 -0.37747377 -0.039223507 0.2793273 0.059363272
-0.20310965 0.0043574423 0.31081018 0.111133665 -0.2065988 0.12844828 0.25451145 -0.06498593
-0.09885746 0.35975033 -0.019490754 -0.20076045 -0.23028739 -0.10112428 0.18139413 -0.21193796
-0.51978606 0.31967172 15.780765 15.6857605 15.791543 16.007463 16.079062 15.752508
16.140585 15.345239 15.939134 15.658109 16.179861 15.59283 16.068102 15.689022
16.007526 0.018563366 -0.065948814 -0.12142959 -0.29269978 -0.12629217 -0.22360727 0.08919839
-0.06162657 0.083396256 -0.3901828 0.13081928 0.17993782 -0.2911014 -0.0356947 -0.03654097
-0.5663876 0.23765337 -0.28516212 -0.2720024 0.30644283 -0.10281849 -0.2215337 0.15397981
0.08753938 0.07878564 0.15038781 0.06870558 0.17298488 -0.44866484 -0.11342075 16.038082
00000000: d071 a53e 5483 c1bc c9de 4c3d 7156 aebd
00000010: fa3e a83d a30d 95be 03a4 813e 6f74 003e
00000020: d631 22bd 2716 403d 940e bcbe 30b9 813d
00000030: 4b09 59ba 8194 d4bd 1c0d fabe 89ca 06bf
00000040: 6a6c 9abe c0b3 ec3d 846b 3f3e 3f70 6ebe
00000050: 26d3 b1be ea77 70bd 064d 84be b2d1 56bd
00000060: d02d 13be fda0 163e 6d40 afbd 7eb5 373e
00000070: dea1 9b3d 1eb5 183e ae02 7c41 c848 7a41
00000080: 53c6 7a41 4ec9 8241 025d 7c41 7011 7f41
00000090: 334a 7c41 aa02 7b41 bcb3 8441 6dec 8141
000000a0: 6aa9 7e41 abfb 7b41 4d2a 8241 7457 8041
000000b0: b398 7241 63d8 7c41 a98d 7741 c58f 7c41
000000c0: 907c 8041 be81 7841 3232 7a41 6345 7e41
000000d0: f21a 8341 4db4 7941 1b60 7f41 8696 8141
000000e0: 1bd1 7641 cd47 7b41 2c06 7941 c3ad 7941
000000f0: dd10 69bc cffa ad3d 8491 20bd f527 e9bd
00000100: 6dc5 8d3e 2f3e 5a3e d847 873c 7268 d1be
00000110: 4320 94be 748f e83d fa99 c3bd ef22 bbbe
00000120: 03ee e43e 5acc 17be fab1 9cbe 6bc0 de3d
00000130: 426d aabe 09c4 00bd 03d3 0dbe 2699 71bc
00000140: e48a 693e 5d49 ab3e 3169 c9be 1c73 babe
00000150: 57b5 c2bc 97a5 90bd 68ec abbe 9904 cdbd
00000160: 9e2c ebbd e0b3 c63e e554 693c 1923 473e
00000170: bc26 b3be 8303 e4bb 63ca a43e 428f d7bd
00000180: 190e 793e bdce 6a3a 0345 1cbd 8a4c bebd
00000190: 025c 95bd 3296 89be ce64 35bc a30a d33c
000001a0: b9ad d6bd d907 8041 e65b 7c41 f358 7b41
000001b0: 5508 8041 c400 7b41 632d 7c41 375e 8041
000001c0: 3a8e 7c41 5302 7941 2e4d 8141 34e2 7f41
000001d0: f75d 7e41 0d06 7841 b4e4 7c41 2ab3 8041
000001e0: 99bb f93d 2ad6 fabe e6eb 9ebe 1d38 6c3c
000001f0: 6770 c6bd 4ab3 283e 1437 a93d 583b 8d3e
00000200: ea39 1e3c a37e 0f3d 3a3b 963e bb98 37bf
00000210: 0ef8 113e 9b79 e83d 7d23 d7be df89 a13e
00000220: 220e 45be 215c 15be 86bf 273e aed2 a7be
00000230: 11ac 69bd 8b2d 193e be85 2e3d a713 053e
00000240: 7fa4 ab3e 9b9c 0fbe 93ab 70be c42e ecbd
00000250: 5cc8 b2be b396 2c3e 046c 7c41 8409 7741
00000260: d7a6 7e41 53e7 7e41 6aef 7941 1b6e 7f41
00000270: fb09 7c41 eaa3 7f41 3cc3 8141 27e6 7e41
00000280: 1e44 7a41 29ba 8141 221e 8041 1aac 7e41
00000290: 6c3c 8041 a83a 8141 7d35 7c41 77db 7c41
000002a0: 88e3 7941 b047 7e41 6c92 8041 e5c2 7b41
000002b0: 3891 7e41 2b15 8041 887f 8241 d231 8241
000002c0: 3bdb 7841 bd2f 8041 4277 7e41 997e 7b41
000002d0: 8ff3 d1bc 6221 bebe b0af cabe c795 11bc
000002e0: 4c19 0a3e 0d2b 7c3e da54 8d3e f680 8fbe
000002f0: 3e44 c1be d4a8 20bd fd03 8f3e e726 733d
00000300: fafb 4fbe e0c8 8e3b 8322 9f3e 0c9a e33d
00000310: a38e 53be f287 033e 534f 823e 5817 85bd
00000320: c875 cabd 3231 b83e 13ab 9fbc 2694 4dbe
00000330: 75d0 6bbe 3f1a cfbd 62bf 393e 4406 59be
00000340: b310 05bf 03ac a33e 037e 7c41 e0f8 7a41
00000350: 29aa 7c41 490f 8041 eba1 8041 460a 7c41
00000360: eb1f 8141 1986 7541 b106 7f41 9d87 7a41
00000370: 5b70 8141 3b7c 7941 798b 8041 3c06 7b41
00000380: 6a0f 8041 3312 983c 2c10 87bd 14b0 f8bd
00000390: bfdc 95be bc52 01be 4ef9 64be a5ad b63d
000003a0: 246c 7cbd a8cb aa3d 0ac6 c7be 7df5 053e
000003b0: 9f41 383e 3e0b 95be 9b34 12bd fcab 15bd
000003c0: c7fe 10bf 685b 733e c500 92be e643 8bbe
000003d0: 13e6 9c3e 8092 d2bd bbd9 62be e2ac 1d3e
000003e0: d947 b33d 5e5a a13d 43ff 193e 83b5 8c3d
000003f0: f322 313e 66b7 e5be 2349 e8bd fe4d 8041

decoder/0/b f4 [784]
0.007570402 0.017812159 13.231121 13.119093 0.003658894 -0.0007317313 -0.066731185 13.251406
-0.0064880727 -0.031133447 13.211293 13.207178 -0.07543231 -0.0016592903 13.216825 0.015690926
0.019319084 13.202324 13.209415 -0.055122826 13.229564 0.0021352705 13.209063 -0.02418524
0.017300801 -0.012025884 0.009287032 0.0049698907 13.202367 13.230729 -0.0044473023 0.010845498
13.208136 0.015544604 13.206833 13.20713 13.215964 0.009276989 0.017331215 13.217114
13.227097 13.259424 0.014280279 -0.008619348 0.01008233 0.00346259 13.214056 0.0058666966
13.229383 0.012948011 13.222722 13.207605 -0.022462264 13.21379 13.238979 0.018974373
13.208352 13.234511 0.014814069 13.216253 0.0132194655 13.204965 -0.02971272 0.0133564565
13.204079 13.206606 -0.031728998 0.0020249286 13.206721 -0.023332775 13.243605 -0.0757756
-0.075392455 13.226136 13.251356 13.207774 0.013002752 -0.060187288 0.008167286 0.016436977
13.072676 -0.00062455237 13.20579 13.210761 -0.03303274 13.20521 0.014756333 13.224567
-0.00066045497 13.210739 -0.027414538 0.016665567 -0.004309482 13.253677 13.214709 13.210174
13.205453 -0.00119078 13.214311 -0.046686884 13.235804 0.011062239 13.230127 0.015411419
0.015149038 -0.018047146 13.221387 13.203259 13.240864 13.264578 13.205117 13.20587
13.244613 13.220078 0.00869493 -0.0021880604 13.232726 0.013972641 13.204416 -0.009217488
0.0068788095 -0.004176494 -0.012756556 13.204269 0.016199036 -0.029777931 0.015494644 -0.048453994
0.00926003 13.218289 -0.0034825285 -0.01253935 13.233956 13.208359 13.222097 13.215253
-0.020306222 0.018384835 13.25228 13.23127 -0.03754757 13.20904 0.0060616047 -0.008695911
-0.0025484238 13.290355 13.231516 -0.037829023 13.207081 0.01437944 -0.027188659 13.216658
0.010285603 0.0059044105 13.255768 0.01915863 13.232228 -0.015738886 13.214871 -0.0018096137
13.2697935 13.202811 -0.042461663 13.2465925 0.005701752 13.215597 13.246147 13.214521
13.210183 13.204999 13.192408 -0.022317471 13.1956215 13.244898 12.876711 13.207703
13.216862 13.207532 13.182629 13.21407 13.211155 0.014713653 13.219531 13.287795
13.216202 0.013240567 0.0108483685 13.243345 13.237854 13.157915 0.009421953 12.473914
13.216091 13.172951 13.232207 0.018248096 13.24487 13.240449 0.012572489 13.234619
0.0161933 0.00073459436 -0.067719065 13.22254 13.251352 13.210966 -0.04548492 0.013063361
13.243885 0.019384488 13.219601 13.205913 13.249199 13.261946 -0.07875213 13.215282
13.245917 0.0060055056 -0.02874187 13.213658 13.24613 13.211921 0.0008185057 13.219284
13.22849 -0.0005428517 13.249206 0.006005508 13.252106 -0.037414674 13.23712 13.236811
0.016848313 13.15287 13.22767 0.018726228 13.269211 13.23754 13.226257 13.216314
13.229791 0.012246421 -0.00733838 0.009008728 0.006575506 0.015645176 -0.031042688 -0.07089192
-0.03720195 13.202033 13.245666 0.020614965 13.209641 -0.003816176 -0.05375677 0.01751057
00000000: 2311 f83b ceea 913c acb2 5341 cee7 5141
00000010: 0eca 6f3b a8d1 3fba 5caa 88bd c205 5441
00000020: e699 d4bb 920b ffbc 7561 5341 9a50 5341
00000030: 417c 9abd 8b7c d9ba 1d78 5341 428a 803c
00000040: 0e43 9e3c b83c 5341 c459 5341 79c8 61bd
00000050: 4bac 5341 e5ef 0b3b 5258 5341 2020 c6bc
00000060: 69ba 8d3c 3708 45bc a328 183c 77da a23b
00000070: e53c 5341 11b1 5341 adba 91bb 51b1 313c
00000080: 8654 5341 cbae 7e3c 304f 5341 6850 5341
00000090: 9774 5341 83fe 173c 31fa 8d3c 4d79 5341
000000a0: 30a2 5341 9a26 5441 d5f7 693c 2a38 0dbc
000000b0: 5b30 253c 9fec 623b c66c 5341 6b3d c03b
000000c0: 8eab 5341 e523 543c 4590 5341 5a52 5341
000000d0: c802 b8bc af6b 5341 dcd2 5341 2570 9b3c
000000e0: 6955 5341 8fc0 5341 b5b6 723c c675 5341
000000f0: 7596 583c 8947 5341 1768 f3bc 0ad5 5a3c
00000100: e843 5341 424e 5341 44f6 01bd aab4 043b
00000110: bb4e 5341 6024 bfbc cee5 5341 3d30 9bbd
00000120: 5c67 9abd 419e 5341 8e05 5441 0b53 5341
00000130: 7f09 553c f286 76bd 15d0 053c d7a6 863c
00000140: ae29 5141 00b9 23ba ea4a 5341 475f 5341
00000150: 574d 07bd 8a48 5341 8cc4 713c d497 5341
00000160: 6222 2dba 305f 5341 7494 e0bc 3a86 883c
00000170: 8e36 8dbb 100f 5441 736f 5341 df5c 5341
00000180: 8949 5341 f213 9cba d16d 5341 bf3a 3fbd
00000190: dac5 5341 653e 353c 9aae 5341 2d80 7c3c
000001a0: ac33 783c 9cd7 93bc cd8a 5341 8d40 5341
000001b0: 94da 5341 b63b 5441 2948 5341 3e4b 5341
000001c0: efe9 5341 7185 5341 2e75 0e3c 9065 0fbb
000001d0: 3fb9 5341 81ed 643c 4a45 5341 f204 17bc
000001e0: a367 e13b f9da 88bb e000 51bc b044 5341
000001f0: d7b3 843c d9f0 f3bc 3fdd 7d3c b277 46bd
00000200: 62b7 173c 1d7e 5341 223b 64bb d971 4dbc
00000210: 49be 5341 7055 5341 b68d 5341 ad71 5341
00000220: 3c59 a6bc cb9b 963c 5709 5441 48b3 5341
00000230: 7bcb 19bd 3a58 5341 6da0 c63b 4b79 0ebc
00000240: 7503 27bb 4ba5 5441 4ab4 5341 9bf2 1abd
00000250: 3450 5341 be97 6b3c c0ba debc 6e77 5341
00000260: f284 283c c979 c13b a017 5441 8ff2 9c3c
00000270: 35b7 5341 d6ee 80bc 1d70 5341 8f30 edba
00000280: 1351 5441 b73e 5341 48ec 2dbd 0bf2 5341
00000290: c3d5 ba3b 1673 5341 38f0 5341 ae6e 5341
000002a0: e95c 5341 ad47 5341 1a14 5341 21d3 b6bc
000002b0: 4421 5341 1aeb 5341 0207 4e41 c052 5341
000002c0: 4478 5341 0d52 5341 0cec 5241 d56c 5341
000002d0: e460 5341 8911 713c 3383 5341 cf9a 5441
000002e0: 9075 5341 f7ee 583c 5bbd 313c bee4 5341
000002f0: 40ce 5341 d286 5241 895e 1a3c 2795 4741
00000300: 1c75 5341 68c4 5241 1fb7 5341 087d 953c
00000310: fdea 5341 e1d8 5341 d7fc 4d3c 00c1 5341
00000320: d0a7 843c cb91 403a 4bb0 8abd 868f 5341
00000330: 8a05 5441 1e60 5341 654e 3abd b507 563c
00000340: f4e6 5341 38cc 9e3c 7c83 5341 6b4b 5341
00000350: b8fc 5341 ee30 5441 cc48 a1bd cc71 5341
00000360: 47ef 5341 d5c9 c43b 1274 ebbc 256b 5341
00000370: 26f0 5341 0764 5341 fd90 563a 3082 5341
00000380: e5a7 5341 294e 0eba bffc 5341 dac9 c43b
00000390: a008 5441 2140 19bd 3ecb 5341 fac9 5341
000003a0: 7905 8a3c 2872 5241 89a4 5341 bf67 993c
000003b0: b04e 5441 f7cc 5341 c09e 5341 0676 5341
000003c0: 39ad 5341 36a5 483c cb76 f0bb 5899 133c
000003d0: 5877 d73b 502a 803c 3c4d febc c82f 91bd
000003e0: 1261 18bd 873b 5341 3fee 5341 b7e0 a83c
000003f0: b15a 5341 cf18 7abb 0f30 5cbd 5472 8f3c

encoder/0/W f4 [15, 784]
0.020628992 0.0043552187 0.033064295 0.014924364 0.029954836 -0.0027206049 -0.040234536 -0.0011721671
0.010086459 0.036094822 -0.08785955 0.06651386 -0.05816288 -0.056596287 0.01664695 -0.059629045
0.015205258 -0.024994235 -0.00984577 0.005366973 0.017744856 -0.077117115 -0.043562446 0.036265496
0.006657927 0.022201648 -0.06783759 -0.013150238 -0.0028690528 -0.051892795 -0.021909272 0.0044816406
0.07831929 0.1157758 -0.00786494 0.18224688 0.13933337 -0.07210762 0.017707003 -0.17797634
-0.33572072 0.005136725 0.059587386 0.3329662 0.24918175 0.118750386 -0.06922419 0.034521107
0.2768628 0.21528757 0.1645915 0.10178849 -0.03484256 -0.011348673 0.01470778 -0.018576002
0.0011477971 0.014568489 -0.051256984 -0.026587766 0.13575564 0.06616961 0.05999507 0.22221078
0.17702171 -0.021889312 -0.109882616 0.16109648 0.13822314 -0.004770181 -0.015288467 0.2048013
0.2382624 0.14227149 0.065739036 0.12046516 0.14816616 0.086705 0.19657461 0.16776946
0.17237663 0.14508072 0.03474604 0.008528231 0.012652532 0.01930383 -0.05884261 -0.04710862
-0.11035537 -0.048845403 0.22352375 0.11393353 0.16787939 0.052167382 0.08471858 0.07380717
0.017983545 0.077415064 0.056372866 0.05832463 0.120639615 0.18826859 0.123843364 0.09634115
0.12305461 0.22303465 0.19183642 0.015086935 0.0029392752 0.110175416 0.09946552 -0.009310888
0.008988628 -0.029459996 -0.08206969 -0.023551775 -0.18095441 0.050764147 -0.03548562 -0.055795833
-0.08727154 -0.059605215 -0.07775668 -0.010452939 -0.057468895 0.027160669 -0.007687368 -0.041178018
-0.031853553 -0.025757022 0.0027828594 0.018587815 0.12981735 0.16552539 0.09414597 -0.03997916
-0.055171445 0.051923558 0.055018753 -0.010240114 -0.046245877 -0.060054656 0.17283876 0.113278255
-0.10996516 -0.020817695 -0.07695052 -0.1147191 -0.10806155 -0.09723975 -0.04521142 -0.012406689
-0.09440114 -0.07718798 0.019347832 -0.072894946 -0.045903027 -0.060199745 -0.043218777 -0.028239958
0.021581842 0.033497963 0.07502512 -0.015651448 -0.03152041 -0.032096513 0.07739012 -0.08349734
0.020163598 0.044103567 -0.09098903 0.02646946 -0.12569655 -0.09764675 -0.13388039 -0.08291044
-0.0023753194 -0.045723192 -0.057213206 -0.059335474 -0.0051931962 -0.020209352 0.0016147965 -0.08188608
-0.020651257 0.041632526 -0.0057698283 -0.039671212 -0.021155298 -0.11115104 -0.04513225 0.03604599
-0.0074292785 -0.11854903 -0.18150552 -0.23384848 -0.024379771 -0.030149287 -0.13405624 -0.23323496
-0.14651252 -0.039974257 -0.074507855 -0.059741974 -0.11052705 -0.06201252 -0.11054083 -0.06880243
-0.04745356 -0.062983215 -0.048234984 -0.028565204 0.038621444 -0.0111458935 -0.07288531 -0.028637247
-0.0666331 -0.07581601 -0.15322283 -0.071433656 -0.09404459 -0.0064662 -0.003184469 -0.12526345
0.010177607 0.15540987 0.08962046 -0.0041722315 0.0012854383 -0.088587 -0.012016187 -0.082401745
-0.065848716 -0.0316771 -0.11953781 -0.029245272 -0.037047844 -0.0132455 -0.0005179014 -0.018703436
-0.062294193 -0.010099147 0.037252326 -0.04143655 -0.027194377 -0.06336726 -0.09863649 -0.017581273
-0.05144508 0.031786606 0.15424141 -0.08524588 0.10982007 0.11026575 0.13444339 0.01740318
00000000: 22fe a83c 39b6 8e3b 6d6e 073d 5285 743c
00000010: d863 f53c 2d4c 32bb f8cc 24bd 67a3 99ba
00000020: ad41 253c 2ad8 133d b5ef b3bd 6b38 883d
00000030: 333c 6ebd 82d1 67bd 2f5f 883c 963d 74bd
00000040: 791f 793c b6c0 ccbc 2750 21bc 6fdd af3b
00000050: a95d 913c 94ef 9dbd 896e 32bd 218b 143d
00000060: bd2a da3b 3be0 b53c 6fee 8abd 1974 57bc
00000070: b806 3cbb 8a8d 54bd 137b b3bc bada 923b
00000080: dd65 a03d dd1b ed3d f3db 00bc ed9e 3a3e
00000090: 68ad 0e3e 29ad 93bd 470e 913c 6e3f 36be
000000a0: 96e3 abbe f951 a83b e711 743d 8c7a aa3e
000000b0: 8029 7f3e 6733 f33d 6ac5 8dbd 0166 0d3d
000000c0: f6c0 8d3e 5874 5c3e ad8a 283e 7c76 d03d
000000d0: 12b7 0ebd c9ef 39bc e7f8 703c b32c 98bc
000000e0: ae71 963a acb0 6e3c d8f2 51bd 96ce d9bc
000000f0: 8703 0b3e ef83 873d 64bd 753d 398b 633e
00000100: 2e45 353e 3751 b3bc 230a e1bd 7af6 243e
00000110: 5e8a 0d3e 2e4f 9cbb 7a7c 7abc 6fb7 513e
00000120: 0ffb 733e 9eaf 113e 30a2 863d 70b6 f63d
00000130: dfb8 173e 6492 b13d db4a 493e c2cb 2b3e
00000140: 8083 303e 0a90 143e dd51 0e3d feb9 0b3c
00000150: 914c 4f3c 1123 9e3c f304 71bd f8f4 40bd
00000160: ff01 e2bd 1e12 48bd 69e3 643e fc55 e93d
00000170: 93e8 2b3e 77ad 553d ef80 ad3d 3728 973d
00000180: 3a52 933c ca8b 9e3d 3ce7 663d cfe5 6e3d
00000190: e711 f73d 7bc9 403e 97a1 fd3d 824e c53d
000001a0: 0e04 fc3d 3263 643e c470 443e 312f 773c
000001b0: dba0 403b a6a3 e13d 94b4 cb3d b28c 18bc
000001c0: 0a45 133c 1756 f1bc 2714 a8bd a7ef c0bc
000001d0: 1d4c 39be 11ee 4f3d 5f59 11bd 2c8a 64bd
000001e0: 6cbb b2bd 9924 74bd e53e 9fbd ce42 2bbc
000001f0: 8164 6bbd 0d80 de3c 51e6 fbbb 48aa 28bd
00000200: df78 02bd 6400 d3bc a260 363b 7945 983c
00000210: d7ee 043e 7d7f 293e 9acf c03d 30c1 23bd
00000220: 74fb 61bd ccad 543d 585b 613d 27c6 27bc
00000230: 516c 3dbd dffb 75bd a5fc 303e 6efe e73d
00000240: 6a35 e1bd df89 aabc 3c98 9dbd d9f1 eabd
00000250: 604f ddbd a225 c7bd 9c2f 39bd 6d45 4bbc
00000260: 6355 c1bd bb14 9ebd 587f 9e3c f249 95bd
00000270: d004 3cbd 0294 76bd 2c06 31bd 7c57 e7bc
00000280: 67cc b03c 2935 093d c5a6 993d 7737 80bc
00000290: 8c1b 01bd a277 03bd b67e 9e3d a700 abbd
000002a0: 212e a53c f1a5 343d 7558 babd 7bd6 d83c
000002b0: 99b6 00be 05fb c7bd f117 09be f3cc a9bd
000002c0: 3fab 1bbb 3e48 3bbd 6558 6abd c109 73bd
000002d0: b02b aabb 158e a5bc 94a7 d33a e4b3 a7bd
000002e0: d32c a9bc de86 2a3d d410 bdbb 487e 22bd
000002f0: e04d adbc 28a3 e3bd 98dc 38bd f6a4 133d
00000300: 4e71 f3bb d5c9 f2bd 95dc 39be fa75 6fbe
00000310: 16b8 c7bc a3fb f6bc 0a46 09be 25d5 6ebe
00000320: 6107 16be 0cbc 23bd 9397 98bd 00b4 74bd
00000330: 025c e2bd d700 7ebd 3b63 e2bd 4ae8 8cbd
00000340: aa5e 42bd 58fd 80bd 0c92 45bd 9301 eabc
00000350: 8531 1e3d 449d 36bc e544 95bd a998 eabc
00000360: ef76 88bd 6d45 9bbd 72e6 1cbe cf4b 92bd
00000370: 739a c0bd 6be2 d3bb 86b2 50bb 1045 00be
00000380: fabf 263c c423 1f3e ef8a b73d 37b7 88bb
00000390: 277c a83a 1a6d b5bd 8bdf 44bc 3fc2 a8bd
000003a0: b1db 86bd d9bf 01bd 3dd0 f4bd c893 efbc
000003b0: 7bbf 17bd a703 59bc c6c3 07ba f337 99bc
000003c0: 3228 7fbd e576 25bc e595 183d 5fb9 29bd
000003d0: bec6 debc b2c6 81bd ee01 cabd 9a06 90bc
000003e0: 14b8 52bd ac32 023d 76f1 1d3e 6495 aebd
000003f0: 58e9 e03d 02d3 e13d 87ab 093e 1d91 8e3c

decoder/1/b f4 [784]
17.742523 0.019961162 0.03649809 0.077035144 17.712439 0.017669583 17.698595 0.043906596
17.696222 17.702217 0.028353535 0.02052417 17.680569 17.732573 0.019644734 17.725569
17.729784 0.016421746 0.025177103 17.72059 0.041595813 17.746847 0.01620973 17.729748
17.77379 17.72815 17.720934 17.760565 0.021783056 0.011759054 17.680054 17.767944
0.02118993 17.731998 0.020032676 0.042060774 0.0383436 17.77795 0.00923586 0.015836576
0.06160061 0.01343925 17.692822 17.772274 17.712202 17.760881 0.019279335 17.744331
0.050624173 17.71546 0.014401267 0.03057134 17.720245 0.026981775 0.011308509 17.755468
0.021477856 0.043927874 17.775331 0.041422173 17.77146 0.014652537 17.701092 0.016113421
0.018006727 0.03424664 17.754261 17.740562 0.022955721 17.698553 0.01397459 17.70821
17.705244 0.003710938 0.017053602 0.014022718 17.777382 17.725985 17.745636 0.015878838
0.046915088 17.773561 0.015518302 0.008439868 17.703651 0.0108527085 17.741402 0.03218689
17.711765 0.018195333 17.751328 0.011161382 17.718056 0.06386648 0.030422583 0.018214284
0.02233903 17.736473 0.055706266 17.72372 0.05249296 17.765862 0.04122876 17.769506
0.012057753 17.73059 0.035802912 0.023691896 0.010645841 0.02094907 0.023637366 0.021648547
0.010701222 0.018901007 17.707153 17.753855 0.012548181 17.73673 0.023736356 17.77179
0.016009059 17.749432 17.702606 -0.003405764 0.010627608 17.717375 17.698647 17.704786
17.70767 0.018823018 17.732895 17.748365 0.039325368 0.016588915 0.0061305556 0.01956061
17.752716 17.776958 0.019753892 0.043693703 17.722057 0.022028038 17.770113 17.757767
17.76812 0.012789122 0.019809972 17.73177 0.026942026 17.689083 17.726265 0.029841263
17.733372 17.732 -0.010758675 -0.011885145 0.0023178046 17.74854 -0.013481723 17.753895
0.03635812 0.007350824 17.706362 0.020036109 17.747124 0.056256436 0.017427672 0.010826637
0.013946864 0.013504782 0.03468903 17.759253 0.019584382 0.044797003 0.032612592 0.020822167
0.024192818 -0.0003301764 0.033915654 0.008312112 0.0030925681 -0.018151218 -0.010971822 -0.017879961
-0.014492026 17.715681 17.72354 -0.0122495135 0.033376694 0.035531435 0.014503231 0.06944025
0.04244619 0.05003634 0.030300938 17.758888 0.015419483 0.056368005 17.747305 0.016099557
0.022140827 17.754536 17.718367 0.020466443 0.041487526 0.026886195 17.713455 -0.013772389
-0.016655935 -0.01432728 -0.012907361 -0.014398904 -0.0033345607 -0.01363187 17.688677 -0.005333038
0.038657147 17.683245 17.74613 0.029118389 0.009326264 0.029788906 17.764687 0.017330632
0.044397842 17.74571 0.03927635 17.775469 0.05013477 17.692371 0.034219194 0.015118484
-0.018254781 0.017917631 -0.008585642 17.716888 -0.014170766 -0.007025984 0.011031075 -0.0131766945
-0.014080061 -0.015736738 17.684929 17.719141 17.728584 17.723095 17.69161 17.69439
17.705872 0.012829402 0.0150578385 17.768854 0.036417622 17.704094 17.721016 17.781067
00000000: b0f0 8d41 9785 a33c 057f 153d 9ac4 9d3d
00000010: 13b3 8d41 cdbf 903c b996 8d41 67d7 333d
00000020: dd91 8d41 249e 8d41 ac45 e83c 4e22 a83c
00000030: ce71 8d41 4fdc 8d41 feed a03c f7cd 8d41
00000040: 99d6 8d41 e686 863c 3640 ce3c c5c3 8d41
00000050: 5f60 2a3d 8bf9 8d41 45ca 843c 86d6 8d41
00000060: b930 8e41 40d3 8d41 79c4 8d41 a315 8e41
00000070: 6172 b23c 0ca9 403c c070 8d41 c024 8e41
00000080: 8196 ad3c 22db 8d41 911b a43c eb47 2c3d
00000090: 2e0e 1d3d 3e39 8e41 0152 173c b5bb 813c
000000a0: ec50 7c3d 4d30 5c3c e68a 8d41 9e2d 8e41
000000b0: 97b2 8d41 4916 8e41 b2ef 9d3c 64f4 8d41
000000c0: 4b5b 4f3d 43b9 8d41 4bf3 6b3c bf70 fa3c
000000d0: 10c3 8d41 e208 dd3c 5347 393c 330b 8e41
000000e0: 54f2 af3c b7ed 333d e133 8e41 4caa 293d
000000f0: f32b 8e41 3211 703c d69b 8d41 4b00 843c
00000100: d882 933c 3446 0c3d ba08 8e41 acec 8d41
00000110: a30d bc3c a396 8d41 aef5 643c 6aaa 8d41
00000120: 57a4 8d41 3533 733b ffb3 8b3c 8bbf 653c
00000130: 1438 8e41 d1ce 8d41 10f7 8d41 5614 823c
00000140: 092a 403d 4130 8e41 7a40 7e3c 5f47 0a3c
00000150: 14a1 8d41 8fcf 313c 64ee 8d41 66d6 033d
00000160: b2b1 8d41 610e 953c b802 8e41 3bde 363c
00000170: 94be 8d41 6ecc 823d c838 f93c 1f36 953c
00000180: 5700 b73c 4ce4 8d41 412c 643d 2eca 8d41
00000190: dc02 573d 7c20 8e41 7ddf 283d f327 8e41
000001a0: e28d 453c 40d8 8d41 13a6 123d 8215 c23c
000001b0: e56b 2e3c 629d ab3c 26a3 c13c 4b58 b13c
000001c0: 2e54 2f3c 49d6 9a3c 40a8 8d41 e507 8e41
000001d0: e396 4d3c d3e4 8d41 bf72 c23c a02c 8e41
000001e0: 6e25 833c d6fe 8d41 f09e 8d41 3d33 5fbb
000001f0: 6b1f 2e3c 2fbd 8d41 d496 8d41 67a3 8d41
00000200: 4fa9 8d41 bb32 9a3c f8dc 8d41 a7fc 8d41
00000210: a313 213d 7ae5 873c d4e2 c83b 933d a03c
00000220: 9005 8e41 3637 8e41 ead2 a13c 2bf8 323d
00000230: c6c6 8d41 2574 b43c 3129 8e41 e80f 8e41
00000240: 1c25 8e41 7789 513c 8648 a23c aada 8d41
00000250: 86b5 dc3c 3e83 8d41 64cf 8d41 aa75 f43c
00000260: f2dd 8d41 23db 8d41 2745 30bc e9b9 42bc
00000270: 4fe6 173b 03fd 8d41 72e2 5cbc fa07 8e41
00000280: 41ec 143d 2edf f03b a1a6 8d41 c422 a43c
00000290: 1cfa 8d41 266d 663d 7ac4 8e3c 3562 313c
000002a0: 6381 643c 2943 5d3c 1616 0e3d f312 8e41
000002b0: 6d6f a03c 107d 373d c894 053d 4093 aa3c
000002c0: 0430 c63c 871b adb9 24eb 0a3d 862f 083c
000002d0: afac 4a3b ddb1 94bc 28c3 33bc ff78 92bc
000002e0: f66f 6dbc b7b9 8d41 cfc9 8d41 2fb2 48bc
000002f0: 00b6 083d 6989 113d f69e 6d3c b136 8e3d
00000300: 0edc 2d3d e8f2 4c3d ac39 f83c 3412 8e41
00000310: 00a2 7c3c 23e2 663d 7bfa 8d41 38e3 833c
00000320: ae60 b53c 4a09 8e41 37bf 8d41 3ea9 a73c
00000330: d3ee 293d 7040 dc3c 28b5 8d41 96a5 61bc
00000340: 0772 88bc f8bc 6abc 6579 53bc 61e9 6bbc
00000350: a588 5abb 3558 5fbc 6982 8d41 c4c0 aebb
00000360: f556 1e3d 4977 8d41 13f8 8d41 b089 ee3c
00000370: 30cd 183c dd07 f43c 141e 8e41 f8f8 8d3c
00000380: 83da 353d 37f7 8d41 3de0 203d 2934 8e41
00000390: 1e5a 4d3d fa89 8d41 6d29 0c3d 85b3 773c
000003a0: 0d8b 95bc ffc7 923c cbaa 0cbc 30bc 8d41
000003b0: 802c 68bc 3a3a e6bb afbb 343c 10e3 57bc
000003c0: 0eb0 66bc 55ea 80bc bc7a 8d41 cdc0 8d41
000003d0: 24d4 8d41 e6c8 8d41 6b88 8d41 1c8e 8d41
000003e0: a0a5 8d41 6a32 523c 27b5 763c 9d26 8e41
000003f0: a52a 153d fca1 8d41 a4c4 8d41 a03f 8e41

decoder/1/W f4 [784, 15]
19.143936 19.41018 19.288 19.228415 19.23162 19.008646 19.54761 19.896294
19.674194 19.15336 19.517487 19.494768 19.304045 19.069847 19.381948 -0.28606826
0.494725 0.09461313 -0.18051036 -0.17833678 0.12632287 -0.38310695 -0.18010771 0.22319932
-0.5019038 -0.4066236 -0.13359691 0.18731256 -0.38751692 0.5460582 0.11432599 -0.011775442
-0.2215176 0.3385336 -0.29389662 -0.062735274 -0.11477115 0.12482697 0.31461793 0.14217804
0.8577187 0.47913432 -0.4127267 -0.012260439 0.13304341 0.4075113 -0.29098526 -0.44022557
-0.06801024 -0.19215922 0.5999291 0.2139344 -0.38570377 0.013335842 0.11458042 0.22855967
0.18302564 -0.12613177 0.5504555 -0.022409549 19.15447 19.689068 19.37296 19.393448
19.438932 19.565144 19.420355 19.146688 19.663507 19.175253 19.726147 19.223022
19.52148 19.466513 18.727442 -0.89132726 -0.24802735 -0.17025957 0.2937779 0.35057127
0.29965183 0.26331365 0.022830857 -0.38433015 -0.5597247 -0.19036065 0.06416513 -0.46931368
-0.30244085 -0.056056492 19.400126 19.460602 19.215416 19.555439 19.736177 19.500631
19.234022 19.424948 19.519867 19.515255 19.249884 19.392216 19.416822 19.2684
19.144009 0.45700556 0.04155251 -0.10202049 0.17624852 -0.02020156 0.1760461 -0.11954409
-0.00015774662 0.29178578 -0.12826061 0.094850756 -0.019152561 0.08062015 -0.077326275 0.61831576
19.02391 19.250494 19.09634 19.451967 19.145325 19.776142 19.575714 19.524557
19.735252 19.531044 19.45895 19.546963 19.161171 19.36469 19.33106 19.215143
19.171377 19.181162 19.11039 19.665089 19.282532 19.42089 19.54206 19.313484
19.57335 19.568474 19.23319 19.546745 19.706408 19.37363 -0.37534836 0.31817162
-0.13175106 -0.09641258 -0.057568867 0.12913844 0.0307072 0.09679674 0.21639282 -0.5303322
0.38832554 -0.062059943 -0.01879215 0.033053532 0.47100335 0.3519939 -0.058762237 -0.22229157
0.33458257 0.29798982 -0.29862893 -0.33469674 -0.41176474 -0.18688196 0.6043196 -0.25344646
0.022547714 -0.3427368 -0.20537922 0.18667568 19.826883 19.228687 19.047943 19.125141
19.611612 19.368244 19.536026 19.272102 19.454363 19.553053 19.215796 19.374846
19.698437 19.26423 19.434748 19.063303 19.60185 19.19579 19.130312 19.131006
19.607407 19.227037 19.43847 19.719355 19.569485 19.290236 19.5087 19.29693
19.44963 19.239836 0.009706101 -0.12535796 0.15072216 0.30149606 0.5196105 -0.36842206
0.02419584 -0.23094974 -0.25811142 -0.16194181 -0.17945573 -0.19206886 -0.09586829 0.08808355
0.12845516 19.274872 19.25726 19.134264 19.661112 19.280708 19.357115 19.217985
19.245577 19.507868 19.319345 19.07997 19.585844 19.400723 19.779163 19.457272
19.430573 19.711843 19.157938 19.023794 19.409824 18.86366 19.392998 19.924852
19.170841 18.969337 18.97166 19.352901 18.88075 19.410038 19.17195 -0.41542456
00000000: c826 9941 0c48 9b41 d34d 9a41 cbd3 9941
00000010: 5cda 9941 b511 9841 8161 9c41 9c2b 9f41
00000020: c064 9d41 153a 9941 d023 9c41 49f5 9b41
00000030: af6e 9a41 0c8f 9841 3b0e 9b41 8a77 92be
00000040: 984c fd3e 87c4 c13d b5d7 38be eb9d 36be
00000050: c85a 013e 9826 c4be 286e 38be 5d8e 643e
00000060: c47c 00bf f830 d0be a1cd 08be ddce 3f3e
00000070: 9e68 c6be 78ca 0b3f bf23 ea3d c9ed 40bc
00000080: 82d5 62be 4754 ad3e 9e79 96be 5a7b 80bd
00000090: 230d ebbd 48a5 ff3d 9a15 a13e 1f97 113e
000000a0: 7493 5b3f 1851 f53e ea50 d3be 02e0 48bc
000000b0: 883c 083e 52a5 d03e 05fc 94be 3f65 e1be
000000c0: f448 8bbd 63c5 44be f494 193f 9f11 5b3e
000000d0: f77a c5be 937e 5a3c 24a9 ea3d 8c0b 6a3e
000000e0: 136b 3b3e b028 01be a7ea 0c3f 3b94 b7bc
000000f0: 5b3c 9941 3683 9d41 d2fb 9a41 c825 9b41
00000100: ef82 9b41 6a85 9c41 e35c 9b41 6b2c 9941
00000110: dd4e 9d41 eb66 9941 26cf 9d41 c0c8 9941
00000120: fe2b 9c41 6bbb 9b41 cdd1 9541 062e 64bf
00000130: e2fa 7dbe 8658 2ebe 0f6a 963e 147e b33e
00000140: f76b 993e 0cd1 863e c707 bb3c ecc6 c4be
00000150: 1e4a 0fbf e7ed 42be 0269 833d e249 f0be
00000160: 87d9 9abe 7e9b 65bd 7533 9b41 50af 9b41
00000170: 2cb9 9941 8a71 9c41 b1e3 9d41 4b01 9c41
00000180: 47df 9941 4b66 9b41 b028 9c41 3e1f 9c41
00000190: c3ff 9941 4223 9b41 a755 9b41 af25 9a41
000001a0: ee26 9941 a2fc e93e f732 2a3d 1ef0 d0bd
000001b0: 7e7a 343e be7d a5bc 6e45 343e 88d3 f4bd
000001c0: c968 25b9 f264 953e c056 03be 1d41 c23d
000001d0: d5e5 9cbc 2d1c a53d 3d5d 9ebd f149 1e3f
000001e0: f830 9841 0301 9a41 4ec5 9841 a19d 9b41
000001f0: a029 9941 8a35 9e41 109b 9c41 4b32 9c41
00000200: cce1 9d41 943f 9c41 eeab 9b41 2e60 9c41
00000210: 144a 9941 e3ea 9a41 03a6 9a41 9db8 9941
00000220: fb5e 9941 0573 9941 14e2 9841 1a52 9d41
00000230: a042 9a41 fc5d 9b41 2456 9c41 0482 9a41
00000240: 3996 9c41 3c8c 9c41 93dd 9941 bc5f 9c41
00000250: b9a6 9d41 32fd 9a41 a92d c0be 64e7 a23e
00000260: c0e9 06be f573 c5bd 55cd 6bbd de3c 043e
00000270: aa8d fb3c 5f3d c63d 1496 5d3e dac3 07bf
00000280: 9bd2 c63e 9132 7ebd fff1 99bc 2463 073d
00000290: 5a27 f13e 8b38 b43e acb0 70bd 67a0 63be
000002a0: 684e ab3e 1f92 983e e4e5 98be 5f5d abbe
000002b0: d4d2 d2be fc5d 3fbe b0b4 1a3f bcc3 81be
000002c0: fcb5 b83c 337b afbe ee4e 52be e927 3f3e
000002d0: 759d 9e41 5ad4 9941 3062 9841 4a00 9941
000002e0: 95e4 9c41 2af2 9a41 c849 9c41 442d 9a41
000002f0: 89a2 9b41 a76c 9c41 f3b9 9941 afff 9a41
00000300: 6696 9d41 251d 9a41 5d7a 9b41 a581 9841
00000310: 97d0 9c41 fa90 9941 e10a 9941 4d0c 9941
00000320: f8db 9c41 f9d0 9941 fd81 9b41 3dc1 9d41
00000330: 4e8e 9c41 6752 9a41 d111 9c41 1d60 9a41
00000340: d898 9b41 2feb 9941 5706 1f3c d65d 00be
00000350: e956 1a3e b15d 9a3e 3205 053f d1a1 bcbe
00000360: 5b36 c63c 177e 6cbe 2e27 84be 13d4 25be
00000370: 3ec3 37be b3ad 44be 9856 c4bd 2665 b43d
00000380: c089 033e f032 9a41 de0e 9a41 f912 9941
00000390: f549 9d41 e43e 9a41 5fdb 9a41 6fbe 9941
000003a0: f1f6 9941 1d10 9c41 058e 9a41 c7a3 9841
000003b0: cfaf 9c41 ae34 9b41 ba3b 9e41 7ea8 9b41
000003c0: d071 9b41 dbb1 9d41 7543 9941 bb30 9841
000003d0: 5247 9b41 c7e8 9641 dc24 9b41 1966 9f41
000003e0: e25d 9941 34c1 9741 f6c5 9741 bed2 9a41
000003f0: c70b 9741 c247 9b41 2760 9941 87b2 d4be

encoder/1/b f4 [15]
19.346321 19.330751 19.344606 19.340714 19.324286 19.335686 19.352665 19.341766
19.334549 19.328362 19.349983 19.325945 19.341759 19.332527 19.344137
00000000: 44c5 9a41 61a5 9a41 c1c1 9a41 c8b9 9a41
00000010: 2398 9a41 7caf 9a41 42d2 9a41 f0bb 9a41
00000020: 28ad 9a41 7ca0 9a41 c4cc 9a41 899b 9a41
00000030: ecbb 9a41 04a9 9a41 cbc0 9a41
