NIPS_3/Models/Weights_167/62/weights.npz (npz, 175992 bytes, 8 tensors)

encoder/1/W f4 [15, 784]
0.043184884 -0.0187086 0.07705157 -0.052482087 0.10801797 -0.0399618 0.015174505 -0.02810479
0.022644104 -0.0019680469 0.0074734627 0.012736256 1.3693422 1.8549972 1.233228 1.2808189
-0.07964572 -0.043166764 -0.022613691 -0.056077767 0.036594782 0.00518021 -0.04509583 -0.007840108
-0.015335181 -0.0245807 0.026575418 0.029846588 0.06255554 0.028952658 0.028476737 -0.016687393
1.2239145 1.5259228 3.0501077 4.1319675 5.074257 6.4193773 8.2444935 9.513355
10.119536 10.053487 10.375288 9.8571825 10.157302 9.3595085 7.707282 6.549948
5.840444 3.5495687 2.847916 1.3983942 -0.0036777626 -0.0058146706 0.022892192 -0.010604837
0.011465821 0.0147260055 1.2233436 1.6548709 2.880446 4.046085 5.9968734 9.212329
11.680025 14.870988 17.431562 19.406015 20.85416 21.845686 22.561504 22.842703
22.852093 22.647339 22.087124 21.05987 18.989029 15.905294 12.523311 8.160166
4.7934732 2.5366962 -0.024761839 -0.04608181 -0.009727098 -0.0031454852 1.6851348 3.093281
4.9674587 7.4659934 11.218291 15.5724535 19.031885 21.386177 22.832075 23.791508
24.244894 24.610352 24.824232 24.95696 24.935926 24.844784 24.613825 24.106802
23.133806 21.456766 18.716658 14.273241 9.918844 4.919413 1.7643526 -0.032025523
-0.026026644 1.2369516 2.9374404 4.8816476 8.004135 14.747859 18.987133 21.980606
23.634365 24.468582 24.966257 25.196318 25.474781 25.508251 25.5912 25.6709
25.6379 25.57738 25.480179 25.40548 25.09669 24.554552 23.545385 21.567644
18.203165 12.217325 4.9690404 1.8926322 -0.012165808 -0.05245508 3.9383957 7.235788
15.099044 20.228708 22.970682 24.29584 24.93263 25.359327 25.443237 25.61687
25.727983 25.740564 25.81811 25.786516 25.81566 25.779438 25.792786 25.588562
25.59673 25.331467 24.945107 24.171705 22.615881 18.751593 10.431411 2.9211843
-0.02472686 1.8989351 5.7341585 11.721528 19.006884 22.585129 24.280537 25.059893
25.338194 25.606882 25.692598 25.765978 25.717327 25.800909 25.818594 25.841524
25.8434 25.795822 25.80845 25.82477 25.6639 25.543169 25.255701 24.809587
23.86324 21.221594 14.379397 4.9336376 1.1561978 4.6800838 9.012025 16.429304
21.774015 23.917032 24.928715 25.322926 25.559072 25.619822 25.78834 25.866507
25.790918 25.834148 25.899357 25.761675 25.820322 25.772896 25.82635 25.756481
25.76248 25.624544 25.398903 25.05916 24.239004 22.111738 15.894812 4.9993005
1.592058 5.9522686 13.421518 19.64448 22.948053 24.4746 25.18107 25.50262
25.621424 25.772072 25.746151 25.851784 25.782269 25.820448 25.894009 25.890114
25.860353 25.85133 25.827082 25.78766 25.768187 25.564613 25.460361 25.020018
24.263096 22.034927 15.0687275 4.426785 2.222252 6.8038554 15.266249 20.277855
00000000: a2e2 303d c742 99bc 37cd 9d3d 75f7 56bd
00000010: 8738 dd3d fcae 23bd 7d9e 783c 043c e6bc
00000020: 2180 b93c 59fa 00bb f3e3 f43b bbab 503c
00000030: 9b46 af3f 8c70 ed3f 6ada 9d3f e0f1 a33f
00000040: 4c1d a3bd a2cf 30bd 5940 b9bc cdb1 65bd
00000050: 69e4 153d c0be a93b 68b6 38bd cc73 00bc
00000060: 6940 7bbc 775d c9bc b1b4 d93c d580 f43c
00000070: 1e1d 803d 202e ed3c 0c48 e93c 00b4 88bc
00000080: 3ba9 9c3f 7051 c33f f734 4340 1439 8440
00000090: 5060 a240 8a6b cd40 72e9 0341 b436 1841
000000a0: 9fe9 2141 15db 2041 2e01 2641 05b7 1d41
000000b0: 4f84 2241 8cc0 1541 0ea2 f640 2d99 d140
000000c0: ebe4 ba40 222c 6340 4144 3640 95fe b23f
000000d0: 9e06 71bb fe88 bebb 6888 bb3c e9bf 2dbc
000000e0: 24db 3b3c 5845 713c 8696 9c3f cfd2 d33f
000000f0: 3a59 3840 8779 8140 63e6 bf40 b365 1341
00000100: 62e1 3a41 91ef 6d41 d773 8b41 853f 9b41
00000110: 52d5 a641 f7c3 ae41 f67d b441 dbbd b641
00000120: 16d1 b641 c02d b541 6eb2 b041 9d7a a841
00000130: 88e9 9741 167c 7e41 7b5f 4841 0a90 0241
00000140: 2264 9940 3b59 2240 57d9 cabc 48c0 3cbd
00000150: 685e 1fbc 7c24 4ebb 7fb2 d73f 51f8 4540
00000160: 6cf5 9e40 6be9 ee40 1f7e 3341 c528 7941
00000170: 4d41 9841 e416 ab41 17a8 b641 0255 be41
00000180: 8bf5 c141 00e2 c441 0798 c641 dba7 c741
00000190: c77c c741 1ec2 c641 1de9 c441 bbda c041
000001a0: 0912 b941 75a7 ab41 b7bb 9541 325f 6441
000001b0: 96b3 1e41 d56b 9d40 4ed6 e13f 322d 03bd
000001c0: d435 d5bc 6e54 9e3f 06ff 3b40 7536 9c40
000001d0: f010 0041 3bf7 6b41 a6e5 9741 48d8 af41
000001e0: 2e13 bd41 a8bf c341 e5ba c741 0f92 c941
000001f0: 5acc cb41 e610 cc41 c7ba cc41 015e cd41
00000200: 6b1a cd41 799e cc41 68d7 cb41 6c3e cb41
00000210: 05c6 c841 b96f c441 f35c bc41 898a ac41
00000220: 15a0 9141 2a7a 4341 6102 9f40 c641 f23f
00000230: 1953 47bc 23db 56bd ad0e 7c40 938b e740
00000240: af95 7141 65d4 a141 f5c3 b741 e15d c241
00000250: 0776 c741 e7df ca41 c08b cb41 5aef cc41
00000260: e9d2 cd41 adec cd41 7d8b ce41 c94a ce41
00000270: 7986 ce41 4a3c ce41 a057 ce41 60b5 cc41
00000280: 1ac6 cc41 d8a6 ca41 948f c741 a75f c141
00000290: 53ed b441 4303 9641 0fe7 2641 aff4 3a40
000002a0: fc8f cabc 4e10 f33f 3a7e b740 618b 3b41
000002b0: 190e 9841 58ae b441 8a3e c241 a97a c841
000002c0: 9fb4 ca41 e5da cc41 718a cd41 b920 ce41
000002d0: 16bd cd41 4368 ce41 7b8c ce41 71bb ce41
000002e0: 48bf ce41 d85d ce41 b577 ce41 2199 ce41
000002f0: ab4f cd41 6958 cc41 ad0b ca41 097a c641
00000300: eae7 be41 d3c5 a941 0312 6641 5ce0 9d40
00000310: 4afe 933f 3fc3 9540 4131 1041 376f 8341
00000320: 2f31 ae41 1556 bf41 026e c741 5a95 ca41
00000330: fb78 cc41 65f5 cc41 854e ce41 9bee ce41
00000340: cd53 ce41 56ac ce41 e231 cf41 e917 ce41
00000350: 0590 ce41 e42e ce41 5d9c ce41 460d ce41
00000360: 8f19 ce41 11ff cc41 f430 cb41 2979 c841
00000370: 7be9 c141 d7e4 b041 2651 7e41 45fa 9f40
00000380: 8ec8 cb3f fc78 be40 8abe 5641 e527 9d41
00000390: 9d95 b741 fbcb c341 d572 c941 5e05 cc41
000003a0: adf8 cc41 342d ce41 1ef8 cd41 74d0 ce41
000003b0: 1642 ce41 4790 ce41 ee26 cf41 f41e cf41
000003c0: 01e2 ce41 86cf ce41 dd9d ce41 214d ce41
000003d0: 3f25 ce41 5484 cc41 d2ae cb41 ff28 c841
000003e0: d21a c241 8847 b041 8219 7141 39a8 8d40
000003f0: 6039 0e40 2fb9 d940 8e42 7441 0c39 a241

encoder/0/b f4 [15]
0.031596296 -0.016824257 0.02268236 0.0325732 0.024928994 0.031113805 0.032731738 0.009762558
0.02538356 0.01576301 0.024243394 -0.019439729 0.0426347 0.024763582 -0.029323058
00000000: 1e6b 013d 06d3 89bc 5bd0 b93c 7a6b 053d
00000010: e437 cc3c 61e2 fe3c b711 063d 23f3 1f3c
00000020: 2ff1 cf3c 6e21 813c 159a c63c 1140 9fbc
00000030: b9a1 2e3d ffdc ca3c e936 f0bc

decoder/0/W f4 [784, 15]
0.32313395 -0.023622192 0.050017152 -0.08512581 0.08215137 -0.29111966 0.25320444 0.12544416
-0.03959831 0.046896126 -0.36729872 0.0633415 -0.0008279278 -0.10379887 -0.48838127 -0.52652794
-0.30160838 0.11557722 0.18693358 -0.23285006 -0.34731406 -0.05870811 -0.25840014 -0.052446075
-0.14372945 0.1470985 -0.0855721 0.17940328 0.07599233 0.1491284 21.74671 21.638962
21.669443 22.344416 21.768974 21.937899 21.76408 21.684313 22.583885 22.236656
21.9123 21.745176 22.266792 22.038877 21.158295 21.798885 21.468275 21.781118
22.056944 21.527954 21.633402 21.887905 22.384329 21.60264 21.957174 22.194443
21.422289 21.701164 21.560179 21.600977 -0.014225212 0.084951036 -0.039201275 -0.11384574
0.27689686 0.21312784 0.01651375 -0.40899998 -0.28930864 0.113554865 -0.09550853 -0.3655009
0.4471284 -0.14824048 -0.30604535 0.108765446 -0.33286482 -0.031436954 -0.13850026 -0.014745986
0.22806889 0.3345441 -0.39338067 -0.36415946 -0.02376811 -0.07062834 -0.335788 -0.100106426
-0.114831194 0.3880911 0.014241432 0.19446982 -0.3499049 -0.0069584264 0.3218566 -0.10525371
0.24321784 0.0008957198 -0.038151752 -0.092919424 -0.0729294 -0.26872402 -0.011071397 0.025761908
-0.10482354 21.999895 21.768614 21.705236 22.00019 21.68396 21.757221 22.04197
21.780882 21.559189 22.1589 21.98867 21.894175 21.497616 21.802004 22.08354
0.121939845 -0.4899152 -0.3103935 0.014417675 -0.09689408 0.16474643 0.082624584 0.27584338
0.0096573625 0.03503288 0.2934206 -0.71717423 0.14254782 0.113513194 -0.42019263 0.315505
-0.19243672 -0.14585926 0.16381654 -0.32777923 -0.05704886 0.1495878 0.042608015 0.12995778
0.33523938 -0.14024584 -0.2350295 -0.11532357 -0.34918487 0.16854362 21.772425 21.436012
21.911753 21.927591 21.61723 21.960526 21.748402 21.973684 22.216454 21.927395
21.637577 22.212141 22.010853 21.913183 22.02556 22.149704 21.759241 21.7996
21.614174 21.888779 22.067642 21.731045 21.906614 22.00646 22.308485 22.270271
21.549765 22.019447 21.900282 21.714455 -0.025628833 -0.37134844 -0.39587164 -0.008885807
0.13486212 0.24625798 0.276038 -0.28028077 -0.37747377 -0.039223507 0.2793273 0.059363272
-0.20310965 0.0043574423 0.31081018 0.111133665 -0.2065988 0.12844828 0.25451145 -0.06498593
-0.09885746 0.35975033 -0.019490754 -0.20076045 -0.23028739 -0.10112428 0.18139413 -0.21193796
-0.51978606 0.31967172 21.77682 21.681946 21.787561 22.003586 22.075344 21.74865
22.13655 21.341394 21.935251 21.654322 22.175806 21.589067 22.06424 21.68519
22.003584 0.018563366 -0.065948814 -0.12142959 -0.29269978 -0.12629217 -0.22360727 0.08919839
-0.06162657 0.083396256 -0.3901828 0.13081928 0.17993782 -0.2911014 -0.0356947 -0.03654097
-0.5663876 0.23765337 -0.28516212 -0.2720024 0.30644283 -0.10281849 -0.2215337 0.15397981
0.08753938 0.07878564 0.15038781 0.06870558 0.17298488 -0.44866484 -0.11342075 22.034145
00000000: d071 a53e 5483 c1bc c9de 4c3d 7156 aebd
00000010: fa3e a83d a30d 95be 03a4 813e 6f74 003e
00000020: d631 22bd 2716 403d 940e bcbe 30b9 813d
00000030: 4b09 59ba 8194 d4bd 1c0d fabe 89ca 06bf
00000040: 6a6c 9abe c0b3 ec3d 846b 3f3e 3f70 6ebe
00000050: 26d3 b1be ea77 70bd 064d 84be b2d1 56bd
00000060: d02d 13be fda0 163e 6d40 afbd 7eb5 373e
00000070: dea1 9b3d 1eb5 183e 43f9 ad41 981c ad41
00000080: 055b ad41 5dc1 b241 dc26 ae41 d180 af41
00000090: d61c ae41 7979 ad41 ccab b441 ace4 b141
000000a0: 644c af41 1ff6 ad41 6422 b241 9f4f b041
000000b0: 3044 a941 1e64 ae41 07bf ab41 bb3f ae41
000000c0: 9f74 b041 4039 ac41 3511 ad41 6e1a af41
000000d0: 1b13 b341 35d2 ac41 4ba8 af41 388e b141
000000e0: d960 ab41 fc9b ad41 3f7b ac41 cdce ac41
000000f0: dd10 69bc cffa ad3d 8491 20bd f527 e9bd
00000100: 6dc5 8d3e 2f3e 5a3e d847 873c 7268 d1be
00000110: 4320 94be 748f e83d fa99 c3bd ef22 bbbe
00000120: 03ee e43e 5acc 17be fab1 9cbe 6bc0 de3d
00000130: 426d aabe 09c4 00bd 03d3 0dbe 2699 71bc
00000140: e48a 693e 5d49 ab3e 3169 c9be 1c73 babe
00000150: 57b5 c2bc 97a5 90bd 68ec abbe 9904 cdbd
00000160: 9e2c ebbd e0b3 c63e e554 693c 1923 473e
00000170: bc26 b3be 8303 e4bb 63ca a43e 428f d7bd
00000180: 190e 793e bdce 6a3a 0345 1cbd 8a4c bebd
00000190: 025c 95bd 3296 89be ce64 35bc a30a d33c
000001a0: b9ad d6bd c9ff af41 1f26 ae41 53a4 ad41
000001b0: 6400 b041 c078 ad41 ca0e ae41 f455 b041
000001c0: 3f3f ae41 3879 ac41 6d45 b141 cce8 af41
000001d0: 4527 af41 1efb ab41 816a ae41 17ab b041
000001e0: 99bb f93d 2ad6 fabe e6eb 9ebe 1d38 6c3c
000001f0: 6770 c6bd 4ab3 283e 1437 a93d 583b 8d3e
00000200: ea39 1e3c a37e 0f3d 3a3b 963e bb98 37bf
00000210: 0ef8 113e 9b79 e83d 7d23 d7be df89 a13e
00000220: 220e 45be 215c 15be 86bf 273e aed2 a7be
00000230: 11ac 69bd 8b2d 193e be85 2e3d a713 053e
00000240: 7fa4 ab3e 9b9c 0fbe 93ab 70be c42e ecbd
00000250: 5cc8 b2be b396 2c3e ed2d ae41 f47c ab41
00000260: 454b af41 b56b af41 16f0 ac41 28af af41
00000270: bafc ad41 1bca af41 4cbb b141 4e6b af41
00000280: c219 ad41 77b2 b141 3a16 b041 334e af41
00000290: 5934 b041 9832 b141 ed12 ae41 9565 ae41
000002a0: d4e9 ac41 381c af41 888a b041 2ed9 ad41
000002b0: bf40 af41 3b0d b041 c777 b241 8429 b241
000002c0: eb65 ac41 d427 b041 c733 af41 34b7 ad41
000002d0: 8ff3 d1bc 6221 bebe b0af cabe c795 11bc
000002e0: 4c19 0a3e 0d2b 7c3e da54 8d3e f680 8fbe
000002f0: 3e44 c1be d4a8 20bd fd03 8f3e e726 733d
00000300: fafb 4fbe e0c8 8e3b 8322 9f3e 0c9a e33d
00000310: a38e 53be f287 033e 534f 823e 5817 85bd
00000320: c875 cabd 3231 b83e 13ab 9fbc 2694 4dbe
00000330: 75d0 6bbe 3f1a cfbd 62bf 393e 4406 59be
00000340: b310 05bf 03ac a33e ed36 ae41 a074 ad41
00000350: ed4c ae41 5807 b041 4e9a b041 3cfd ad41
00000360: a817 b141 2dbb aa41 657b af41 0d3c ad41
00000370: 0d68 b141 69b6 ac41 9083 b041 457b ad41
00000380: 5707 b041 3312 983c 2c10 87bd 14b0 f8bd
00000390: bfdc 95be bc52 01be 4ef9 64be a5ad b63d
000003a0: 246c 7cbd a8cb aa3d 0ac6 c7be 7df5 053e
000003b0: 9f41 383e 3e0b 95be 9b34 12bd fcab 15bd
000003c0: c7fe 10bf 685b 733e c500 92be e643 8bbe
000003d0: 13e6 9c3e 8092 d2bd bbd9 62be e2ac 1d3e
000003e0: d947 b33d 5e5a a13d 43ff 193e 83b5 8c3d
000003f0: f322 313e 66b7 e5be 2349 e8bd ee45 b041

decoder/0/b f4 [784]
0.007570402 0.017812159 18.93063 18.818708 0.003658894 -0.0007317313 -0.066731185 18.950895
-0.0064880727 -0.031133447 18.91082 18.90671 -0.07543231 -0.0016592903 18.916348 0.015690926
0.019319084 18.90186 18.908945 -0.055122826 18.929073 0.0021352705 18.908592 -0.02418524
0.017300801 -0.012025884 0.009287032 0.0049698907 18.901903 18.930239 -0.0044473023 0.010845498
18.907665 0.015544604 18.906364 18.906662 18.915487 0.009276989 0.017331215 18.916636
18.926609 18.958906 0.014280279 -0.008619348 0.01008233 0.00346259 18.91358 0.0058666966
18.928894 0.012948011 18.92224 18.907137 -0.022462264 18.913315 18.93848 0.018974373
18.907883 18.934017 0.014814069 18.915775 0.0132194655 18.904497 -0.02971272 0.0133564565
18.903612 18.906137 -0.031728998 0.0020249286 18.906254 -0.023332775 18.943102 -0.0757756
-0.075392455 18.92565 18.950846 18.907305 0.013002752 -0.060187288 0.008167286 0.016436977
18.772335 -0.00062455237 18.905323 18.91029 -0.03303274 18.904743 0.014756333 18.924082
-0.00066045497 18.910267 -0.027414538 0.016665567 -0.004309482 18.953165 18.914234 18.909702
18.904985 -0.00119078 18.913836 -0.046686884 18.935308 0.011062239 18.929636 0.015411419
0.015149038 -0.018047146 18.920904 18.902794 18.940363 18.964054 18.90465 18.905403
18.944109 18.919598 0.00869493 -0.0021880604 18.932234 0.013972641 18.90395 -0.009217488
0.0068788095 -0.004176494 -0.012756556 18.903803 0.016199036 -0.029777931 0.015494644 -0.048453994
0.00926003 18.91781 -0.0034825285 -0.01253935 18.933462 18.907888 18.921614 18.914776
-0.020306222 0.018384835 18.951769 18.930779 -0.03754757 18.90857 0.0060616047 -0.008695911
-0.0025484238 18.989807 18.931025 -0.037829023 18.906612 0.01437944 -0.027188659 18.91618
0.010285603 0.0059044105 18.955254 0.01915863 18.931736 -0.015738886 18.914396 -0.0018096137
18.969265 18.902348 -0.042461663 18.946087 0.005701752 18.915121 18.94564 18.914045
18.909712 18.904531 18.891953 -0.022317471 18.895164 18.944393 18.576557 18.907234
18.916384 18.907063 18.882183 18.913595 18.910683 0.014713653 18.91905 18.98725
18.915724 0.013240567 0.0108483685 18.942842 18.937357 18.857492 0.009421953 18.174145
18.915613 18.872515 18.931715 0.018248096 18.944366 18.939949 0.012572489 18.934124
0.0161933 0.00073459436 -0.067719065 18.922056 18.950842 18.910494 -0.04548492 0.013063361
18.943382 0.019384488 18.91912 18.905445 18.94869 18.961424 -0.07875213 18.914806
18.945412 0.0060055056 -0.02874187 18.913183 18.945623 18.911448 0.0008185057 18.918804
18.928001 -0.0005428517 18.948696 0.006005508 18.951593 -0.037414674 18.936623 18.936314
0.016848313 18.852453 18.927181 0.018726228 18.968683 18.937042 18.92577 18.915836
18.9293 0.012246421 -0.00733838 0.009008728 0.006575506 0.015645176 -0.031042688 -0.07089192
-0.03720195 18.90157 18.94516 0.020614965 18.90917 -0.003816176 -0.05375677 0.01751057
00000000: 2311 f83b ceea 913c ee71 9741 b78c 9641
00000010: 0eca 6f3b a8d1 3fba 5caa 88bd 6f9b 9741
00000020: e699 d4bb 920b ffbc 5c49 9741 f140 9741
00000030: 417c 9abd 8b7c d9ba ae54 9741 428a 803c
00000040: 0e43 9e3c 0237 9741 8545 9741 79c8 61bd
00000050: be6e 9741 e5ef 0b3b cc44 9741 2020 c6bc
00000060: 69ba 8d3c 3708 45bc a328 183c 77da a23b
00000070: 1937 9741 2171 9741 adba 91bb 51b1 313c
00000080: e642 9741 cbae 7e3c 3c40 9741 d840 9741
00000090: eb52 9741 83fe 173c 31fa 8d3c 4555 9741
000000a0: b269 9741 d7ab 9741 d5f7 693c 2a38 0dbc
000000b0: 5b30 253c 9fec 623b 034f 9741 6b3d c03b
000000c0: 606e 9741 e523 543c bf60 9741 d141 9741
000000d0: c802 b8bc 784e 9741 0282 9741 2570 9b3c
000000e0: 5843 9741 de78 9741 b5b6 723c 8253 9741
000000f0: 7596 583c 693c 9741 1768 f3bc 0ad5 5a3c
00000100: 993a 9741 c53f 9741 44f6 01bd aab4 043b
00000110: 0240 9741 6024 bfbc 798b 9741 3d30 9bbd
00000120: 5c67 9abd bb67 9741 559b 9741 2942 9741
00000130: 7f09 553c f286 76bd 15d0 053c d7a6 863c
00000140: be2d 9641 00b9 23ba 1a3e 9741 4648 9741
00000150: 574d 07bd ea3c 9741 8cc4 713c 8564 9741
00000160: 6222 2dba 3a48 9741 7494 e0bc 3a86 883c
00000170: 8e36 8dbb 15a0 9741 5a50 9741 1247 9741
00000180: 693d 9741 f213 9cba 894f 9741 bf3a 3fbd
00000190: 837b 9741 653e 353c e56f 9741 2d80 7c3c
000001a0: ac33 783c 9cd7 93bc 035e 9741 ec38 9741
000001b0: dd85 9741 62b6 9741 b93c 9741 443e 9741
000001c0: 898d 9741 565b 9741 2e75 0e3c 9065 0fbb
000001d0: 3775 9741 81ed 643c 4a3b 9741 f204 17bc
000001e0: a367 e13b f9da 88bb e000 51bc fd3a 9741
000001f0: d7b3 843c d9f0 f3bc 3fdd 7d3c b277 46bd
00000200: 62b7 173c ad57 9741 223b 64bb d971 4dbc
00000210: bb77 9741 5b43 9741 775f 9741 7651 9741
00000220: 3c59 a6bc cb9b 963c 399d 9741 3c72 9741
00000230: 7bcb 19bd c044 9741 6da0 c63b 4b79 0ebc
00000240: 7503 27bb 20eb 9741 bd72 9741 9bf2 1abd
00000250: be40 9741 be97 6b3c c0ba debc 5654 9741
00000260: f284 283c c979 c13b 5ca4 9741 8ff2 9c3c
00000270: 3274 9741 d6ee 80bc af50 9741 8f30 edba
00000280: 0ec1 9741 0238 9741 48ec 2dbd 9691 9741
00000290: c3d5 ba3b 2b52 9741 ac90 9741 f74f 9741
000002a0: 1747 9741 7b3c 9741 b822 9741 21d3 b6bc
000002b0: 4c29 9741 1e8e 9741 ca9c 9441 0442 9741
000002c0: c154 9741 aa41 9741 b60e 9741 0b4f 9741
000002d0: 1449 9741 8911 713c 375a 9741 e3e5 9741
000002e0: 6753 9741 f7ee 583c 5bbd 313c f18a 9741
000002f0: b57f 9741 25dc 9641 895e 1a3c a664 9141
00000300: 2d53 9741 e9fa 9641 2774 9741 087d 953c
00000310: 108e 9741 0485 9741 d7fc 4d3c 1679 9741
00000320: d0a7 843c cb91 403a 4bb0 8abd 5f60 9741
00000330: 539b 9741 b148 9741 654e 3abd b507 563c
00000340: 0c8c 9741 38cc 9e3c 5c5a 9741 5a3e 9741
00000350: eb96 9741 ffb0 9741 cc48 a1bd 8651 9741
00000360: 3490 9741 d5c9 c43b 1274 ebbc 334e 9741
00000370: a390 9741 a54a 9741 fd90 563a b659 9741
00000380: 8c6c 9741 294e 0eba ee96 9741 dac9 c43b
00000390: dd9c 9741 2140 19bd 347e 9741 927d 9741
000003a0: 7905 8a3c d3d1 9641 de6a 9741 bf67 993c
000003b0: ddbf 9741 107f 9741 fa67 9741 a253 9741
000003c0: 356f 9741 36a5 483c cb76 f0bb 5899 133c
000003d0: 5877 d73b 502a 803c 3c4d febc c82f 91bd
000003e0: 1261 18bd 6a36 9741 b08f 9741 b7e0 a83c
000003f0: fb45 9741 cf18 7abb 0f30 5cbd 5472 8f3c

encoder/0/W f4 [15, 784]
0.020628992 0.0043552187 0.033064295 0.014924364 0.029954836 -0.0027206049 -0.040234536 -0.0011721671
0.010086459 0.036094822 -0.08785955 0.06651386 -0.05816288 -0.056596287 0.01664695 -0.059629045
0.015205258 -0.024994235 -0.00984577 0.005366973 0.017744856 -0.077117115 -0.043562446 0.036265496
0.006657927 0.022201648 -0.06783759 -0.013150238 -0.0028690528 -0.051892795 -0.021909272 0.0044816406
0.07831929 0.1157758 -0.00786494 0.18224688 0.13933337 -0.07210762 0.017707003 -0.17797634
-0.33572072 0.005136725 0.059587386 0.3329662 0.24918175 0.118750386 -0.06922419 0.034521107
0.2768628 0.21528757 0.1645915 0.10178849 -0.03484256 -0.011348673 0.01470778 -0.018576002
0.0011477971 0.014568489 -0.051256984 -0.026587766 0.13575564 0.06616961 0.05999507 0.22221078
0.17702171 -0.021889312 -0.109882616 0.16109648 0.13822314 -0.004770181 -0.015288467 0.2048013
0.2382624 0.14227149 0.065739036 0.12046516 0.14816616 0.086705 0.19657461 0.16776946
0.17237663 0.14508072 0.03474604 0.008528231 0.012652532 0.01930383 -0.05884261 -0.04710862
-0.11035537 -0.048845403 0.22352375 0.11393353 0.16787939 0.052167382 0.08471858 0.07380717
0.017983545 0.077415064 0.056372866 0.05832463 0.120639615 0.18826859 0.123843364 0.09634115
0.12305461 0.22303465 0.19183642 0.015086935 0.0029392752 0.110175416 0.09946552 -0.009310888
0.008988628 -0.029459996 -0.08206969 -0.023551775 -0.18095441 0.050764147 -0.03548562 -0.055795833
-0.08727154 -0.059605215 -0.07775668 -0.010452939 -0.057468895 0.027160669 -0.007687368 -0.041178018
-0.031853553 -0.025757022 0.0027828594 0.018587815 0.12981735 0.16552539 0.09414597 -0.03997916
-0.055171445 0.051923558 0.055018753 -0.010240114 -0.046245877 -0.060054656 0.17283876 0.113278255
-0.10996516 -0.020817695 -0.07695052 -0.1147191 -0.10806155 -0.09723975 -0.04521142 -0.012406689
-0.09440114 -0.07718798 0.019347832 -0.072894946 -0.045903027 -0.060199745 -0.043218777 -0.028239958
0.021581842 0.033497963 0.07502512 -0.015651448 -0.03152041 -0.032096513 0.07739012 -0.08349734
0.020163598 0.044103567 -0.09098903 0.02646946 -0.12569655 -0.09764675 -0.13388039 -0.08291044
-0.0023753194 -0.045723192 -0.057213206 -0.059335474 -0.0051931962 -0.020209352 0.0016147965 -0.08188608
-0.020651257 0.041632526 -0.0057698283 -0.039671212 -0.021155298 -0.11115104 -0.04513225 0.03604599
-0.0074292785 -0.11854903 -0.18150552 -0.23384848 -0.024379771 -0.030149287 -0.13405624 -0.23323496
-0.14651252 -0.039974257 -0.074507855 -0.059741974 -0.11052705 -0.06201252 -0.11054083 -0.068795614
-0.04749938 -0.063067645 -0.048947692 -0.029614488 0.037450958 -0.011578608 -0.073125444 -0.03021917
-0.067462616 -0.07581601 -0.15322283 -0.071433656 -0.09404459 -0.0064662 -0.003184469 -0.12526345
0.010177607 0.15540987 0.08962046 -0.005724354 -0.00072941 -0.09148519 -0.017172623 -0.08828844
-0.07096985 -0.03576614 -0.12273645 -0.03296259 -0.04262423 -0.019808844 -0.0066039287 -0.024870228
-0.06813283 -0.01455595 0.034511793 -0.042518165 -0.027263395 -0.06336726 -0.09863649 -0.017581273
-0.05144508 0.031786606 0.15424141 -0.08524588 0.10982007 0.107561834 0.12397388 0.009651841
00000000: 22fe a83c 39b6 8e3b 6d6e 073d 5285 743c
00000010: d863 f53c 2d4c 32bb f8cc 24bd 67a3 99ba
00000020: ad41 253c 2ad8 133d b5ef b3bd 6b38 883d
00000030: 333c 6ebd 82d1 67bd 2f5f 883c 963d 74bd
00000040: 791f 793c b6c0 ccbc 2750 21bc 6fdd af3b
00000050: a95d 913c 94ef 9dbd 896e 32bd 218b 143d
00000060: bd2a da3b 3be0 b53c 6fee 8abd 1974 57bc
00000070: b806 3cbb 8a8d 54bd 137b b3bc bada 923b
00000080: dd65 a03d dd1b ed3d f3db 00bc ed9e 3a3e
00000090: 68ad 0e3e 29ad 93bd 470e 913c 6e3f 36be
000000a0: 96e3 abbe f951 a83b e711 743d 8c7a aa3e
000000b0: 8029 7f3e 6733 f33d 6ac5 8dbd 0166 0d3d
000000c0: f6c0 8d3e 5874 5c3e ad8a 283e 7c76 d03d
000000d0: 12b7 0ebd c9ef 39bc e7f8 703c b32c 98bc
000000e0: ae71 963a acb0 6e3c d8f2 51bd 96ce d9bc
000000f0: 8703 0b3e ef83 873d 64bd 753d 398b 633e
00000100: 2e45 353e 3751 b3bc 230a e1bd 7af6 243e
00000110: 5e8a 0d3e 2e4f 9cbb 7a7c 7abc 6fb7 513e
00000120: 0ffb 733e 9eaf 113e 30a2 863d 70b6 f63d
00000130: dfb8 173e 6492 b13d db4a 493e c2cb 2b3e
00000140: 8083 303e 0a90 143e dd51 0e3d feb9 0b3c
00000150: 914c 4f3c 1123 9e3c f304 71bd f8f4 40bd
00000160: ff01 e2bd 1e12 48bd 69e3 643e fc55 e93d
00000170: 93e8 2b3e 77ad 553d ef80 ad3d 3728 973d
00000180: 3a52 933c ca8b 9e3d 3ce7 663d cfe5 6e3d
00000190: e711 f73d 7bc9 403e 97a1 fd3d 824e c53d
000001a0: 0e04 fc3d 3263 643e c470 443e 312f 773c
000001b0: dba0 403b a6a3 e13d 94b4 cb3d b28c 18bc
000001c0: 0a45 133c 1756 f1bc 2714 a8bd a7ef c0bc
000001d0: 1d4c 39be 11ee 4f3d 5f59 11bd 2c8a 64bd
000001e0: 6cbb b2bd 9924 74bd e53e 9fbd ce42 2bbc
000001f0: 8164 6bbd 0d80 de3c 51e6 fbbb 48aa 28bd
00000200: df78 02bd 6400 d3bc a260 363b 7945 983c
00000210: d7ee 043e 7d7f 293e 9acf c03d 30c1 23bd
00000220: 74fb 61bd ccad 543d 585b 613d 27c6 27bc
00000230: 516c 3dbd dffb 75bd a5fc 303e 6efe e73d
00000240: 6a35 e1bd df89 aabc 3c98 9dbd d9f1 eabd
00000250: 604f ddbd a225 c7bd 9c2f 39bd 6d45 4bbc
00000260: 6355 c1bd bb14 9ebd 587f 9e3c f249 95bd
00000270: d004 3cbd 0294 76bd 2c06 31bd 7c57 e7bc
00000280: 67cc b03c 2935 093d c5a6 993d 7737 80bc
00000290: 8c1b 01bd a277 03bd b67e 9e3d a700 abbd
000002a0: 212e a53c f1a5 343d 7558 babd 7bd6 d83c
000002b0: 99b6 00be 05fb c7bd f117 09be f3cc a9bd
000002c0: 3fab 1bbb 3e48 3bbd 6558 6abd c109 73bd
000002d0: b02b aabb 158e a5bc 94a7 d33a e4b3 a7bd
000002e0: d32c a9bc de86 2a3d d410 bdbb 487e 22bd
000002f0: e04d adbc 28a3 e3bd 98dc 38bd f6a4 133d
00000300: 4e71 f3bb d5c9 f2bd 95dc 39be fa75 6fbe
00000310: 16b8 c7bc a3fb f6bc 0a46 09be 25d5 6ebe
00000320: 6107 16be 0cbc 23bd 9397 98bd 00b4 74bd
00000330: 025c e2bd d700 7ebd 3b63 e2bd b7e4 8cbd
00000340: b68e 42bd 9c29 81bd 607d 48bd 159a f2bc
00000350: 2d66 193d 34b4 3dbc cbc2 95bd 318e f7bc
00000360: d729 8abd 6d45 9bbd 72e6 1cbe cf4b 92bd
00000370: 739a c0bd 6be2 d3bb 86b2 50bb 1045 00be
00000380: fabf 263c c423 1f3e ef8a b73d 5d93 bbbb
00000390: e035 3fba 965c bbbd 9aad 8cbc 92d0 b4bd
000003a0: a458 91bd 847f 12bd 3f5d fbbd c803 07bd
000003b0: bf96 2ebd 2846 a2bc c565 d8bb a6bc cbbc
000003c0: 3a89 8bbd 147c 6ebc 3d5c 0d3d 8727 2ebd
000003d0: 7c57 dfbc b2c6 81bd ee01 cabd 9a06 90bc
000003e0: 14b8 52bd ac32 023d 76f1 1d3e 6495 aebd
000003f0: 58e9 e03d 6149 dc3d 05e6 fd3d c122 1e3c

decoder/1/b f4 [784]
24.017815 0.019961162 0.03649809 0.077035144 23.987448 0.017669583 23.973278 0.043906596
23.970964 23.977028 0.028353535 0.02052417 23.955278 24.007763 0.019644734 24.00068
24.006323 0.016421746 0.025177103 23.995672 0.041595813 24.02236 0.01620973 24.004896
24.049364 24.00333 23.996033 24.0361 0.021783056 0.011759054 23.954576 24.04364
0.02118993 24.007229 0.020032676 0.042060774 0.0383436 24.053883 0.00923586 0.015836576
0.06160061 0.01343925 23.967531 24.047892 23.987154 24.036444 0.019279335 24.01964
0.050624173 23.990456 0.014401267 0.03057134 23.995253 0.026981775 0.011308509 24.03178
0.021477856 0.043927874 24.051376 0.041422173 24.047134 0.014652537 23.975885 0.016113421
0.018006727 0.03424664 24.029968 24.01583 0.022955721 23.97331 0.01397459 23.983479
23.980257 0.003710938 0.017053602 0.014022718 24.053087 24.001204 24.02095 0.015878838
0.046915088 24.04968 0.015518302 0.008439868 23.978504 0.0108527085 24.016644 0.03218689
23.986698 0.018195333 24.026764 0.011161382 23.993141 0.06386648 0.030422583 0.018214284
0.02233903 24.011742 0.055706266 23.99882 0.05249296 24.041883 0.04122876 24.045767
0.012057753 24.00579 0.035802912 0.023691896 0.010645841 0.02094907 0.023637366 0.021648547
0.010701222 0.018901007 23.982077 24.0294 0.012548181 24.012133 0.023736356 24.04768
0.016009059 24.024967 23.97743 -0.003405764 0.010627608 23.99247 23.973503 23.979662
23.982595 0.018823018 24.008114 24.023739 0.039325368 0.016588915 0.0061305556 0.01956061
24.028135 24.053003 0.019753892 0.043693703 23.997156 0.022028038 24.045748 24.033297
24.043713 0.012789122 0.019809972 24.00696 0.026942026 23.963703 24.001513 0.029841263
24.00864 24.007572 -0.010758675 -0.011885145 0.0023178046 24.02465 -0.013481723 24.029348
0.03635812 0.007350824 23.981205 0.020036109 24.02252 0.056256436 0.017427672 0.010826637
0.013946864 0.013504782 0.03468903 24.034767 0.019584382 0.044797003 0.032612592 0.020822167
0.024192818 -0.0003301764 0.033915654 0.008312112 0.0030925681 -0.018151218 -0.010971822 -0.017879961
-0.014492026 23.990944 23.998772 -0.0122495135 0.033376694 0.035531435 0.014503231 0.06944025
0.04244619 0.05003634 0.030300938 24.034262 0.015419483 0.056368005 24.02274 0.016099557
0.022140827 24.02996 23.993668 0.020466443 0.041487526 0.026886195 23.988638 -0.013772389
-0.016655935 -0.01432728 -0.012907361 -0.014398904 -0.0033345607 -0.01363187 23.963425 -0.005333038
0.038657147 23.957798 24.02148 0.029118389 0.009326264 0.029788906 24.040293 0.017330632
0.044397842 24.021055 0.03927635 24.051195 0.05013477 23.967102 0.034219194 0.015118484
-0.018254781 0.017917631 -0.008585642 23.992247 -0.014170766 -0.007025984 0.011031075 -0.0131766945
-0.014080061 -0.015736738 23.959574 23.99436 24.004078 23.998337 23.966215 23.96902
23.980856 0.012829402 0.0150578385 24.044386 0.036417622 23.97894 23.996105 24.056873
00000000: 7c24 c041 9785 a33c 057f 153d 9ac4 9d3d
00000010: 4be6 bf41 cdbf 903c 46c9 bf41 67d7 333d
00000020: 89c4 bf41 f4d0 bf41 ac45 e83c 4e22 a83c
00000030: 69a4 bf41 e60f c041 feed a03c 6501 c041
00000040: f30c c041 e686 863c 3640 ce3c 23f7 bf41
00000050: 5f60 2a3d cb2d c041 45ca 843c 070a c041
00000060: 1965 c041 d206 c041 e0f7 bf41 ef49 c041
00000070: 6172 b23c 0ca9 403c f9a2 bf41 6059 c041
00000080: 8196 ad3c ce0e c041 911b a43c eb47 2c3d
00000090: 2e0e 1d3d 5a6e c041 0152 173c b5bb 813c
000000a0: ec50 7c3d 4d30 5c3c 81bd bf41 1562 c041
000000b0: b1e5 bf41 a34a c041 b2ef 9d3c 3928 c041
000000c0: 4b5b 4f3d 74ec bf41 4bf3 6b3c bf70 fa3c
000000d0: 47f6 bf41 e208 dd3c 5347 393c 1641 c041
000000e0: 54f2 af3c b7ed 333d 3869 c041 4caa 293d
000000f0: 8860 c041 3211 703c 9dce bf41 4b00 843c
00000100: d882 933c 3446 0c3d 603d c041 6b20 c041
00000110: a30d bc3c 57c9 bf41 aef5 643c 2ade bf41
00000120: 91d7 bf41 3533 733b ffb3 8b3c 8bbf 653c
00000130: b96c c041 7702 c041 e82a c041 5614 823c
00000140: 092a 403d bf65 c041 7a40 7e3c 5f47 0a3c
00000150: fad3 bf41 8fcf 313c 1622 c041 66d6 033d
00000160: c2e4 bf41 610e 953c d036 c041 3bde 363c
00000170: f4f1 bf41 6ecc 823d c838 f93c 1f36 953c
00000180: 5700 b73c 0c18 c041 412c 643d 95fd bf41
00000190: dc02 573d c755 c041 7ddf 283d bb5d c041
000001a0: e28d 453c dc0b c041 13a6 123d 8215 c23c
000001b0: e56b 2e3c 629d ab3c 26a3 c13c 4b58 b13c
000001c0: 2e54 2f3c 49d6 9a3c 4bdb bf41 363c c041
000001d0: e396 4d3c d918 c041 bf72 c23c a661 c041
000001e0: 6e25 833c 2233 c041 c7d1 bf41 3d33 5fbb
000001f0: 6b1f 2e3c 94f0 bf41 bcc9 bf41 59d6 bf41
00000200: 5bdc bf41 bb32 9a3c 9e10 c041 9e30 c041
00000210: a313 213d 7ae5 873c d4e2 c83b 933d a03c
00000220: 9f39 c041 8d6c c041 ead2 a13c 2bf8 323d
00000230: 2dfa bf41 2574 b43c b15d c041 3144 c041
00000240: 8659 c041 7789 513c 8648 a23c 410e c041
00000250: 86b5 dc3c aab5 bf41 1903 c041 aa75 f43c
00000260: b211 c041 820f c041 2745 30bc e9b9 42bc
00000270: 4fe6 173b 7c32 c041 72e2 5cbc 1b3c c041
00000280: 41ec 143d 2edf f03b 82d9 bf41 c422 a43c
00000290: 1f2e c041 266d 663d 7ac4 8e3c 3562 313c
000002a0: 6381 643c 2943 5d3c 1616 0e3d 3447 c041
000002b0: 6d6f a03c 107d 373d c894 053d 4093 aa3c
000002c0: 0430 c63c 871b adb9 24eb 0a3d 862f 083c
000002d0: afac 4a3b ddb1 94bc 28c3 33bc ff78 92bc
000002e0: f66f 6dbc 74ed bf41 7cfd bf41 2fb2 48bc
000002f0: 00b6 083d 6989 113d f69e 6d3c b136 8e3d
00000300: 0edc 2d3d e8f2 4c3d ac39 f83c 2b46 c041
00000310: 00a2 7c3c 23e2 663d 922e c041 38e3 833c
00000320: ae60 b53c 5c3d c041 08f3 bf41 3ea9 a73c
00000330: d3ee 293d 7040 dc3c bbe8 bf41 96a5 61bc
00000340: 0772 88bc f8bc 6abc 6579 53bc 61e9 6bbc
00000350: a588 5abb 3558 5fbc 18b5 bf41 c4c0 aebb
00000360: f556 1e3d 92a9 bf41 fe2b c041 b089 ee3c
00000370: 30cd 183c dd07 f43c 8552 c041 f8f8 8d3c
00000380: 83da 353d 1f2b c041 3de0 203d d968 c041
00000390: 1e5a 4d3d a0bc bf41 6d29 0c3d 85b3 773c
000003a0: 0d8b 95bc ffc7 923c cbaa 0cbc 1ff0 bf41
000003b0: 802c 68bc 3a3a e6bb afbb 343c 10e3 57bc
000003c0: 0eb0 66bc 55ea 80bc 35ad bf41 73f4 bf41
000003d0: 5a08 c041 98fc bf41 cfba bf41 8ec0 bf41
000003e0: cbd8 bf41 6a32 523c 27b5 763c e75a c041
000003f0: a52a 153d ded4 bf41 06f8 bf41 7a74 c041

decoder/1/W f4 [784, 15]
25.678469 25.944832 25.8225 25.762993 25.766363 25.543238 26.082083 26.430925
26.208767 25.688047 26.051943 26.029486 25.838636 25.60449 25.916466 -0.28606826
0.494725 0.09461313 -0.18051036 -0.17833678 0.12632287 -0.38310695 -0.18010771 0.22319932
-0.5019038 -0.4066236 -0.13359691 0.18731256 -0.38751692 0.5460582 0.11432599 -0.011775442
-0.2215176 0.3385336 -0.29389662 -0.062735274 -0.11477115 0.12482697 0.31461793 0.14217804
0.8577187 0.47913432 -0.4127267 -0.012260439 0.13304341 0.4075113 -0.29098526 -0.44022557
-0.06801024 -0.19215922 0.5999291 0.2139344 -0.38570377 0.013335842 0.11458042 0.22855967
0.18302564 -0.12613177 0.5504555 -0.022409549 25.688725 26.223446 25.907162 25.92775
25.973383 26.099459 25.95452 25.681055 26.197807 25.709656 26.260298 25.757456
26.0558 26.00088 25.261665 -0.89132726 -0.24802735 -0.17025957 0.2937779 0.35057127
0.29965183 0.26331365 0.022830857 -0.38433015 -0.5597247 -0.19036065 0.06416513 -0.46931368
-0.30244085 -0.056056492 25.934109 25.994692 25.74937 26.089474 26.270315 26.034674
25.767954 25.959024 26.053894 26.049364 25.783794 25.926342 25.950869 25.80248
25.677977 0.45700556 0.04155251 -0.10202049 0.17624852 -0.02020156 0.1760461 -0.11954409
-0.00015774662 0.29178578 -0.12826061 0.094850756 -0.019152561 0.08062015 -0.077326275 0.61831576
25.557941 25.784616 25.630325 25.986044 25.679506 26.310232 26.109682 26.058666
26.269325 26.065187 25.992903 26.081125 25.695265 25.898806 25.86507 25.749228
25.705553 25.715204 25.644512 26.199335 25.81667 25.954906 26.07621 25.847609
26.107553 26.102472 25.767414 26.08088 26.24056 25.907696 -0.37534836 0.31817162
-0.13175106 -0.09641258 -0.057568867 0.12913844 0.0307072 0.09679674 0.21639282 -0.5303322
0.38832554 -0.062059943 -0.01879215 0.033053532 0.47100335 0.3519939 -0.058762237 -0.22229157
0.33458257 0.29798982 -0.29862893 -0.33469674 -0.41176474 -0.18688196 0.6043196 -0.25344646
0.022547714 -0.3427368 -0.20537922 0.18667568 26.36089 25.762789 25.581907 25.659191
26.145765 25.902306 26.06997 25.80619 25.988398 26.08718 25.749722 25.908985
26.23251 25.798323 25.968733 25.597752 26.136402 25.730194 25.664804 25.665617
26.141914 25.761412 25.973001 26.253853 26.104052 25.824589 26.043287 25.831436
25.984163 25.774277 0.009706101 -0.12535796 0.15072216 0.30149606 0.5196105 -0.36842206
0.02419584 -0.23094974 -0.25811142 -0.16194181 -0.17945573 -0.19206886 -0.09586829 0.08808355
0.12845516 25.80925 25.791748 25.668587 26.19554 25.815252 25.891556 25.752275
25.780046 26.042295 25.853853 25.614237 26.120367 25.935171 26.313644 25.991629
25.966496 26.247887 25.693798 25.559776 25.945944 25.39966 25.928823 26.460878
25.70682 25.505413 25.50747 25.88901 25.416748 25.94608 25.707838 -0.41542456
00000000: 816d cd41 048f cf41 7b94 ce41 9c1a ce41
00000010: 8321 ce41 8d58 cc41 1ba8 d041 8972 d341
00000020: 8eab d141 1f81 cd41 616a d041 633c d041
00000030: 87b5 ce41 ffd5 cc41 ec54 cf41 8a77 92be
00000040: 984c fd3e 87c4 c13d b5d7 38be eb9d 36be
00000050: c85a 013e 9826 c4be 286e 38be 5d8e 643e
00000060: c47c 00bf f830 d0be a1cd 08be ddce 3f3e
00000070: 9e68 c6be 78ca 0b3f bf23 ea3d c9ed 40bc
00000080: 82d5 62be 4754 ad3e 9e79 96be 5a7b 80bd
00000090: 230d ebbd 48a5 ff3d 9a15 a13e 1f97 113e
000000a0: 7493 5b3f 1851 f53e ea50 d3be 02e0 48bc
000000b0: 883c 083e 52a5 d03e 05fc 94be 3f65 e1be
000000c0: f448 8bbd 63c5 44be f494 193f 9f11 5b3e
000000d0: f77a c5be 937e 5a3c 24a9 ea3d 8c0b 6a3e
000000e0: 136b 3b3e b028 01be a7ea 0c3f 3b94 b7bc
000000f0: 8282 cd41 9ec9 d141 de41 cf41 086c cf41
00000100: 7dc9 cf41 b1cb d041 dba2 cf41 cd72 cd41
00000110: 1c95 d141 60ad cd41 1715 d241 450f ce41
00000120: 4772 d041 cd01 d041 e417 ca41 062e 64bf
00000130: e2fa 7dbe 8658 2ebe 0f6a 963e 147e b33e
00000140: f76b 993e 0cd1 863e c707 bb3c ecc6 c4be
00000150: 1e4a 0fbf e7ed 42be 0269 833d e249 f0be
00000160: 87d9 9abe 7e9b 65bd 0e79 cf41 21f5 cf41
00000170: b6fe cd41 3eb7 d041 9b29 d241 0347 d041
00000180: c524 ce41 15ac cf41 606e d041 1965 d041
00000190: 3645 ce41 2669 cf41 619b cf41 7b6b ce41
000001a0: 7f6c cd41 a2fc e93e f732 2a3d 1ef0 d0bd
000001b0: 7e7a 343e be7d a5bc 6e45 343e 88d3 f4bd
000001c0: c968 25b9 f264 953e c056 03be 1d41 c23d
000001d0: d5e5 9cbc 2d1c a53d 3d5d 9ebd f149 1e3f
000001e0: aa76 cc41 e546 ce41 e80a cd41 6be3 cf41
000001f0: a16f cd41 5b7b d241 a1e0 d041 2678 d041
00000200: 9427 d241 8185 d041 77f1 cf41 25a6 d041
00000210: e78f cd41 c130 cf41 aaeb ce41 6bfe cd41
00000220: f9a4 cd41 bdb8 cd41 f627 cd41 3d98 d141
00000230: 8a88 ce41 a6a3 cf41 149c d041 e7c7 ce41
00000240: 45dc d041 ddd1 d041 aa23 ce41 a4a5 d041
00000250: abec d141 f642 cf41 a92d c0be 64e7 a23e
00000260: c0e9 06be f573 c5bd 55cd 6bbd de3c 043e
00000270: aa8d fb3c 5f3d c63d 1496 5d3e dac3 07bf
00000280: 9bd2 c63e 9132 7ebd fff1 99bc 2463 073d
00000290: 5a27 f13e 8b38 b43e acb0 70bd 67a0 63be
000002a0: 684e ab3e 1f92 983e e4e5 98be 5f5d abbe
000002b0: d4d2 d2be fc5d 3fbe b0b4 1a3f bcc3 81be
000002c0: fcb5 b83c 337b afbe ee4e 52be e927 3f3e
000002d0: 1ae3 d241 311a ce41 bfa7 cc41 0646 cd41
000002e0: 872a d141 ec37 cf41 4c8f d041 1473 ce41
000002f0: 3de8 cf41 8bb2 d041 6eff cd41 9a45 cf41
00000300: 2edc d141 f762 ce41 f7bf cf41 32c8 cc41
00000310: 5a17 d141 70d7 cd41 8551 cd41 2f53 cd41
00000320: a422 d141 5f17 ce41 b5c8 cf41 e407 d241
00000330: 19d5 d041 c298 ce41 a758 d041 c8a6 ce41
00000340: 91df cf41 b831 ce41 5706 1f3c d65d 00be
00000350: e956 1a3e b15d 9a3e 3205 053f d1a1 bcbe
00000360: 5b36 c63c 177e 6cbe 2e27 84be 13d4 25be
00000370: 3ec3 37be b3ad 44be 9856 c4bd 2665 b43d
00000380: c089 033e 5879 ce41 8055 ce41 4459 cd41
00000390: 7790 d141 a385 ce41 e821 cf41 a904 ce41
000003a0: 893d ce41 9f56 d041 b1d4 ce41 f5e9 cc41
000003b0: 83f6 d041 3b7b cf41 5882 d241 dbee cf41
000003c0: 62bb cf41 acfb d141 e68c cd41 6c7a cc41
000003d0: 4b91 cf41 8132 cb41 3b6e cf41 e1af d341
000003e0: 91a7 cd41 160b cc41 4c0f cc41 b11c cf41
000003f0: 8055 cb41 9291 cf41 a7a9 cd41 87b2 d4be

encoder/1/b f4 [15]
25.886557 25.869839 25.884216 25.880287 25.863407 25.875101 25.892414 25.882122
25.873968 25.867552 25.889805 25.864946 25.881704 25.871838 25.883583
00000000: ab17 cf41 6ef5 ce41 e012 cf41 d40a cf41
00000010: 42e8 ce41 3500 cf41 aa23 cf41 960e cf41
00000020: e3fd ce41 bff0 ce41 521e cf41 69eb ce41
00000030: bb0d cf41 86f9 ce41 9411 cf41
