NIPS_3/Models/Weights_167/36/weights.npz (npz, 176624 bytes, 8 tensors)

encoder/1/W f4 [15, 784]
00000000: a2e2 303d c742 99bc 37cd 9d3d 75f7 56bd
00000010: 8738 dd3d fcae 23bd 7d9e 783c 043c e6bc
00000020: 2180 b93c 59fa 00bb f3e3 f43b bbab 503c
00000030: 064d 593f 5d1d 953f 5ed8 413f 6d07 4e3f
00000040: 4c1d a3bd a2cf 30bd 5940 b9bc cdb1 65bd
00000050: 69e4 153d c0be a93b 68b6 38bd cc73 00bc
00000060: 6940 7bbc 775d c9bc b1b4 d93c d580 f43c
00000070: 1e1d 803d 202e ed3c 0c48 e93c 00b4 88bc
00000080: 1088 3f3f 0be4 763f a830 fa3f b95f 2b40
00000090: 30f2 5040 b993 8540 05a3 aa40 bc6c c540
000000a0: 7aba d240 028e d140 382f d940 10a4 cd40
000000b0: 31a8 d340 ee57 c240 358a 9f40 1fe1 8740
000000c0: 0e08 7340 e00d 1240 6f84 e73f 46b7 613f
000000d0: 9e06 71bb fe88 bebb 6888 bb3c e9bf 2dbc
000000e0: 24db 3b3c 5845 713c b2e1 3f3f f8f7 853f
000000f0: 9556 ec3f 706f 2640 37c2 7940 c9f9 be40
00000100: 816d f140 0461 1a41 e13a 3541 cd6a 4941
00000110: 3303 5941 dea9 6341 5c5d 6b41 bcd1 6d41
00000120: aad7 6d41 e426 6c41 6007 6641 046d 5b41
00000130: f98f 4541 0da3 2541 d963 0241 ff4f aa40
00000140: 324b 4640 4a3f cf3f 57d9 cabc 48c0 3cbd
00000150: 685e 1fbc 7c24 4ebb 3ed7 8a3f 97dd fb3f
00000160: bf0e 4d40 bde2 9b40 4454 ea40 670e 2241
00000170: a624 4641 c100 5f41 70be 6d41 4620 7841
00000180: c070 7c41 401d 8041 f833 8141 1afe 8141
00000190: 88d1 8141 f95f 8141 1c4b 8041 442c 7b41
000001a0: c801 7141 9ebb 5f41 6d19 4341 fce8 1441
000001b0: ca33 cf40 2294 4c40 51b6 903f 322d 03bd
000001c0: d435 d5bc 1406 433f 6f6b f13f d838 4b40
000001d0: 98c9 a540 482c 1941 0334 4541 f2c1 6441
000001e0: a739 7641 8fb9 7e41 6ff5 8141 8e07 8341
000001f0: b0c7 8441 9fbe 8441 d53a 8541 d9c7 8541
00000200: db85 8541 402d 8541 59a9 8441 dc7b 8441
00000210: a4cf 8241 f9f6 7f41 0157 7541 2443 6041
00000220: e056 3e41 4ec1 ff40 8f5e 4c40 e383 983f
00000230: 1953 47bc 23db 56bd ef47 2240 14fe 9540
00000240: 9e21 1d41 2290 5241 0963 6f41 801b 7d41
00000250: 61c1 8141 b230 8441 5351 8441 8c5e 8541
00000260: 2c0f 8641 b008 8641 d694 8641 df4a 8641
00000270: f887 8641 f44a 8641 f37f 8641 b10a 8541
00000280: 9172 8541 3ced 8341 71f1 8141 3eba 7b41
00000290: 87a8 6b41 8e80 4341 5704 d840 903c f03f
000002a0: fc8f cabc 3b0d 993f 584a 6e40 e6f6 f440
000002b0: 2c57 4641 9fe6 6a41 1be7 7c41 60a1 8241
000002c0: 32da 8341 fd73 8541 0cd5 8541 cf3c 8641
000002d0: 62bd 8541 c757 8641 d271 8641 e09b 8641
000002e0: 8ba1 8641 9f47 8641 be70 8641 8fad 8641
000002f0: 5b97 8541 16fa 8441 2361 8341 d119 8141
00000300: 7cb0 7841 d1e0 5c41 1713 1641 e05d 4c40
00000310: 9e71 2e3f 149f 4240 bbba bb40 f47d 2b41
00000320: 8986 6341 d8ff 7841 14f2 8141 96d7 8341
00000330: 0f1b 8541 c33d 8541 0264 8641 12e7 8641
00000340: 5b3d 8641 bb8b 8641 6e0c 8741 2ef1 8541
00000350: ad6a 8641 270d 8641 5f83 8641 0a07 8641
00000360: 5137 8641 625f 8541 4417 8441 d362 8241
00000370: 663b 7c41 ec56 6641 2321 2541 1db0 4e40
00000380: f784 813f 56ca 7640 3f12 0c41 70a6 4c41
00000390: 2c68 6f41 8907 7f41 7c3a 8341 8de3 8441
000003a0: e05d 8541 f04f 8641 8ef6 8541 9abc 8641
000003b0: 9825 8641 1771 8641 4608 8741 cb01 8741
000003c0: dcc3 8641 29b1 8641 0084 8641 0841 8641
000003d0: de36 8641 77d0 8441 3475 8441 f6f2 8141
000003e0: 519e 7c41 4e28 6541 beb4 1c41 318e 3640
000003f0: 118b b53f 7fe3 8b40 f80d 1f41 bf03 5341
0.043184884 -0.0187086 0.07705157 -0.052482087 0.10801797 -0.0399618 0.015174505 -0.02810479
0.022644104 -0.0019680469 0.0074734627 0.012736256 0.84883153 1.1649586 0.75720775 0.8048008
-0.07964572 -0.043166764 -0.022613691 -0.056077767 0.036594782 0.00518021 -0.04509583 -0.007840108
-0.015335181 -0.0245807 0.026575418 0.029846588 0.06255554 0.028952658 0.028476737 -0.016687393
0.7481699 0.96441716 1.9546099 2.6777174 3.264782 4.1742826 5.3324 6.1695232
6.5852633 6.548585 6.787014 6.426277 6.614281 6.0732336 4.985621 4.2462306
3.7973666 2.2820969 1.808729 0.8817028 -0.0036777626 -0.0058146706 0.022892192 -0.010604837
0.011465821 0.0147260055 0.7495376 1.0466299 1.8463923 2.6005516 3.902479 5.9679914
7.544617 9.648685 11.326875 12.588574 13.563281 14.2289715 14.710293 14.863705
14.865152 14.759495 14.376801 13.714115 12.34765 10.352307 8.149377 5.322265
3.0983396 1.6191189 -0.024761839 -0.04608181 -0.009727098 -0.0031454852 1.0846937 1.9676999
3.204025 4.871428 7.3227863 10.128516 12.383947 13.937684 14.858994 15.507879
15.777527 16.014282 16.150375 16.249073 16.22731 16.171862 16.036674 15.698307
15.062935 13.983305 12.193707 9.306881 6.475072 3.1965413 1.1305639 -0.032025523
-0.026026644 0.7618115 1.8860911 3.1753445 5.1808586 9.573311 12.325198 14.29735
15.389075 15.920302 16.24484 16.378689 16.597504 16.593077 16.653727 16.722582
16.69036 16.647095 16.58269 16.560478 16.351387 15.997796 15.333741 14.016392
11.89621 7.992347 3.1932714 1.1915249 -0.012165808 -0.05245508 2.5356405 4.6872654
9.820707 13.160189 14.9616785 15.819214 16.219423 16.523777 16.53971 16.671165
16.757408 16.754242 16.822674 16.786558 16.816391 16.786598 16.812475 16.63022
16.68094 16.490837 16.242891 15.732969 14.728644 12.218885 6.75053 1.8768482
-0.02472686 1.1957163 3.7232876 7.655139 12.396282 14.681304 15.806422 16.328796
16.48154 16.681635 16.729027 16.779692 16.717472 16.79286 16.805576 16.82611
16.828878 16.784971 16.80505 16.834745 16.698904 16.622112 16.42243 16.137606
15.543087 13.804887 9.379661 3.1932297 0.68142116 3.0409594 5.8665442 10.71825
14.2203455 15.562462 16.243202 16.480267 16.638212 16.655157 16.798832 16.862827
16.779959 16.818228 16.88107 16.742764 16.802088 16.756422 16.814146 16.753437
16.77701 16.671574 16.51136 16.298254 15.764502 14.396221 10.32059 3.229499
1.0118703 3.8560996 8.754455 12.790634 14.962933 15.93934 16.403557 16.611109
16.670837 16.789032 16.745388 16.84209 16.768356 16.80522 16.87904 16.875875
16.845634 16.836504 16.814453 16.781754 16.77679 16.60179 16.557228 16.243633
15.788651 14.32234 9.7941265 2.8524287 1.4183065 4.3715205 9.94091 13.188415

encoder/0/b f4 [15]
00000000: c945 1f3d 06d3 89bc 49c6 cb3c 211b 113d
00000010: 2e0f e53c 0277 0b3d 21be 063d 4f39 343d
00000020: 33d0 023d acba 0c3d 63a7 053d e2f6 70bc
00000030: 2397 583d f04d d73c df38 a63c
0.03888491 -0.016824257 0.024874823 0.035426263 0.02796134 0.03404904 0.032896165 0.043999966
0.031936835 0.03435771 0.032630336 -0.014707299 0.05287851 0.02628228 0.02029079

decoder/0/W f4 [784, 15]
00000000: d071 a53e 5483 c1bc c9de 4c3d 7156 aebd
00000010: fa3e a83d a30d 95be 03a4 813e 6f74 003e
00000020: d631 22bd 2716 403d 940e bcbe 30b9 813d
00000030: 4b09 59ba 8194 d4bd 1c0d fabe 89ca 06bf
00000040: 6a6c 9abe c0b3 ec3d 846b 3f3e 3f70 6ebe
00000050: 26d3 b1be ea77 70bd 064d 84be b2d1 56bd
00000060: d02d 13be fda0 163e 6d40 afbd 7eb5 373e
00000070: dea1 9b3d 1eb5 183e 3822 5841 2068 5641
00000080: 0be6 5641 15b2 6141 237c 5841 df30 5b41
00000090: fd69 5841 fc21 5741 f186 6541 0df8 5f41
000000a0: 42c9 5a41 d71a 5841 0474 6041 46ce 5c41
000000b0: 5eb8 4e41 edf7 5841 01ad 5341 7daf 5841
000000c0: 9918 5d41 dfa0 5441 a151 5641 2d65 5a41
000000d0: 4055 6241 c7d3 5541 557f 5b41 dd4c 5f41
000000e0: 47f0 5241 3867 5741 8a25 5541 6ecd 5541
000000f0: dd10 69bc cffa ad3d 8491 20bd f527 e9bd
00000100: 6dc5 8d3e 2f3e 5a3e d847 873c 7268 d1be
00000110: 4320 94be 748f e83d fa99 c3bd ef22 bbbe
00000120: 03ee e43e 5acc 17be fab1 9cbe 6bc0 de3d
00000130: 426d aabe 09c4 00bd 03d3 0dbe 2699 71bc
00000140: e48a 693e 5d49 ab3e 3169 c9be 1c73 babe
00000150: 57b5 c2bc 97a5 90bd 68ec abbe 9904 cdbd
00000160: 9e2c ebbd e0b3 c63e e554 693c 1923 473e
00000170: bc26 b3be 8303 e4bb 63ca a43e 428f d7bd
00000180: 190e 793e bdce 6a3a 0345 1cbd 8a4c bebd
00000190: 025c 95bd 3296 89be ce64 35bc a30a d33c
000001a0: b9ad d6bd 3d2f 5c41 3e7b 5841 ab78 5741
000001b0: 2530 5c41 e51f 5741 d24c 5841 33dc 5c41
000001c0: 8cad 5841 cd21 5541 91b9 5e41 0b02 5c41
000001d0: 237d 5a41 7825 5441 1204 5941 f985 5d41
000001e0: 99bb f93d 2ad6 fabe e6eb 9ebe 1d38 6c3c
000001f0: 6770 c6bd 4ab3 283e 1437 a93d 583b 8d3e
00000200: ea39 1e3c a37e 0f3d 3a3b 963e bb98 37bf
00000210: 0ef8 113e 9b79 e83d 7d23 d7be df89 a13e
00000220: 220e 45be 215c 15be 86bf 273e aed2 a7be
00000230: 11ac 69bd 8b2d 193e be85 2e3d a713 053e
00000240: 7fa4 ab3e 9b9c 0fbe 93ab 70be c42e ecbd
00000250: 5cc8 b2be b396 2c3e 8e8b 5841 dc28 5341
00000260: 8fc6 5a41 cc06 5b41 8b0e 5641 8a8d 5b41
00000270: c529 5841 3cc3 5b41 f5a5 5f41 6105 5b41
00000280: f563 5641 7f93 5f41 b15b 5c41 78cb 5a41
00000290: 7f98 5c41 d894 5e41 d554 5841 2ffb 5841
000002a0: 0103 5641 d166 5a41 4644 5d41 afe2 5741
000002b0: 8ab0 5a41 d149 5c41 471e 6141 7183 6041
000002c0: 67fa 5441 e47e 5c41 a096 5a41 449e 5741
000002d0: 8ff3 d1bc 6221 bebe b0af cabe c795 11bc
000002e0: 4c19 0a3e 0d2b 7c3e da54 8d3e f680 8fbe
000002f0: 3e44 c1be d4a8 20bd fd03 8f3e e726 733d
00000300: fafb 4fbe e0c8 8e3b 8322 9f3e 0c9a e33d
00000310: a38e 53be f287 033e 534f 823e 5817 85bd
00000320: c875 cabd 3231 b83e 13ab 9fbc 2694 4dbe
00000330: 75d0 6bbe 3f1a cfbd 62bf 393e 4406 59be
00000340: b310 05bf 03ac a33e 8d9d 5841 3818 5741
00000350: e1c9 5841 0c3e 5c41 f762 5d41 b529 5841
00000360: a25f 5e41 6ba5 5141 2b26 5b41 d7a6 5641
00000370: 8800 5f41 679b 5541 5f36 5d41 9a25 5741
00000380: 803e 5c41 3312 983c 2c10 87bd 14b0 f8bd
00000390: bfdc 95be bc52 01be 4ef9 64be a5ad b63d
000003a0: 246c 7cbd a8cb aa3d 0ac6 c7be 7df5 053e
000003b0: 9f41 383e 3e0b 95be 9b34 12bd fcab 15bd
000003c0: c7fe 10bf 685b 733e c500 92be e643 8bbe
000003d0: 13e6 9c3e 8092 d2bd bbd9 62be e2ac 1d3e
000003e0: d947 b33d 5e5a a13d 43ff 193e 83b5 8c3d
000003f0: f322 313e 66b7 e5be 2349 e8bd 85bb 5c41
0.32313395 -0.023622192 0.050017152 -0.08512581 0.08215137 -0.29111966 0.25320444 0.12544416
-0.03959831 0.046896126 -0.36729872 0.0633415 -0.0008279278 -0.10379887 -0.48838127 -0.52652794
-0.30160838 0.11557722 0.18693358 -0.23285006 -0.34731406 -0.05870811 -0.25840014 -0.052446075
-0.14372945 0.1470985 -0.0855721 0.17940328 0.07599233 0.1491284 13.508354 13.400421
13.431163 14.105977 13.530307 13.699431 13.525876 13.445797 14.345445 13.998059
13.674135 13.506553 14.028324 13.80036 12.9200115 13.560529 13.229737 13.542844
13.818505 13.289275 13.394929 13.649701 14.145813 13.364203 13.718587 13.956265
13.183661 13.4627 13.321665 13.362654 -0.014225212 0.084951036 -0.039201275 -0.11384574
0.27689686 0.21312784 0.01651375 -0.40899998 -0.28930864 0.113554865 -0.09550853 -0.3655009
0.4471284 -0.14824048 -0.30604535 0.108765446 -0.33286482 -0.031436954 -0.13850026 -0.014745986
0.22806889 0.3345441 -0.39338067 -0.36415946 -0.02376811 -0.07062834 -0.335788 -0.100106426
-0.114831194 0.3880911 0.014241432 0.19446982 -0.3499049 -0.0069584264 0.3218566 -0.10525371
0.24321784 0.0008957198 -0.038151752 -0.092919424 -0.0729294 -0.26872402 -0.011071397 0.025761908
-0.10482354 13.761533 13.530088 13.46696 13.761754 13.445287 13.518755 13.80376
13.54237 13.320752 13.920304 13.750499 13.655551 13.259148 13.563494 13.845208
0.121939845 -0.4899152 -0.3103935 0.014417675 -0.09689408 0.16474643 0.082624584 0.27584338
0.0096573625 0.03503288 0.2934206 -0.71717423 0.14254782 0.113513194 -0.42019263 0.315505
-0.19243672 -0.14585926 0.16381654 -0.32777923 -0.05704886 0.1495878 0.042608015 0.12995778
0.33523938 -0.14024584 -0.2350295 -0.11532357 -0.34918487 0.16854362 13.534071 13.197475
13.673476 13.689159 13.378551 13.722055 13.510198 13.735165 13.978017 13.688813
13.399404 13.97351 13.772386 13.674675 13.7872305 13.911339 13.520711 13.561324
13.375733 13.650102 13.829168 13.492843 13.6681 13.768022 14.069892 14.03209
13.311133 13.780979 13.661774 13.476139 -0.025628833 -0.37134844 -0.39587164 -0.008885807
0.13486212 0.24625798 0.276038 -0.28028077 -0.37747377 -0.039223507 0.2793273 0.059363272
-0.20310965 0.0043574423 0.31081018 0.111133665 -0.2065988 0.12844828 0.25451145 -0.06498593
-0.09885746 0.35975033 -0.019490754 -0.20076045 -0.23028739 -0.10112428 0.18139413 -0.21193796
-0.51978606 0.31967172 13.538465 13.443413 13.549287 13.765148 13.836661 13.510182
13.898348 13.102885 13.696818 13.415732 13.93763 13.35044 13.825774 13.44668
13.765259 0.018563366 -0.065948814 -0.12142959 -0.29269978 -0.12629217 -0.22360727 0.08919839
-0.06162657 0.083396256 -0.3901828 0.13081928 0.17993782 -0.2911014 -0.0356947 -0.03654097
-0.5663876 0.23765337 -0.28516212 -0.2720024 0.30644283 -0.10281849 -0.2215337 0.15397981
0.08753938 0.07878564 0.15038781 0.06870558 0.17298488 -0.44866484 -0.11342075 13.795781

decoder/0/b f4 [784]
00000000: 2311 f83b ceea 913c 9815 3241 ba4a 3041
00000010: 0eca 6f3b a8d1 3fba 5caa 88bd ae68 3241
00000020: e699 d4bb 920b ffbc 61c4 3141 86b3 3141
00000030: 417c 9abd 8b7c d9ba 09db 3141 428a 803c
00000040: 0e43 9e3c a49f 3141 b0bc 3141 79c8 61bd
00000050: 370f 3241 e5ef 0b3b 3ebb 3141 2020 c6bc
00000060: 69ba 8d3c 3708 45bc a328 183c 77da a23b
00000070: d19f 3141 fd13 3241 adba 91bb 51b1 313c
00000080: 72b7 3141 cbae 7e3c 1cb2 3141 54b3 3141
00000090: 83d7 3141 83fe 173c 31fa 8d3c 39dc 3141
000000a0: 1c05 3241 8689 3241 d5f7 693c 2a38 0dbc
000000b0: 5b30 253c 9fec 623b b2cf 3141 6b3d c03b
000000c0: 7a0e 3241 e523 543c 31f3 3141 46b5 3141
000000d0: c802 b8bc 9bce 3141 c835 3241 2570 9b3c
000000e0: 55b8 3141 7b23 3241 b5b6 723c b2d8 3141
000000f0: 7596 583c 75aa 3141 1768 f3bc 0ad5 5a3c
00000100: d4a6 3141 2eb1 3141 44f6 01bd aab4 043b
00000110: a7b1 3141 6024 bfbc ba48 3241 3d30 9bbd
00000120: 5c67 9abd 2d01 3241 7a68 3241 f7b5 3141
00000130: 7f09 553c f286 76bd 15d0 053c d7a6 863c
00000140: 9a8c 2f41 00b9 23ba d6ad 3141 33c2 3141
00000150: 574d 07bd 76ab 3141 8cc4 713c c0fa 3141
00000160: 6222 2dba 1cc2 3141 7494 e0bc 3a86 883c
00000170: 8e36 8dbb fc71 3241 5fd2 3141 cbbf 3141
00000180: 75ac 3141 f213 9cba bdd0 3141 bf3a 3fbd
00000190: c628 3241 653e 353c 8611 3241 2d80 7c3c
000001a0: ac33 783c 9cd7 93bc b9ed 3141 79a3 3141
000001b0: 803d 3241 a29e 3241 15ab 3141 2aae 3141
000001c0: db4c 3241 5de8 3141 2e75 0e3c 9065 0fbb
000001d0: 2b1c 3241 81ed 643c 36a8 3141 f204 17bc
000001e0: a367 e13b f9da 88bb e000 51bc 9ca7 3141
000001f0: d7b3 843c d9f0 f3bc 3fdd 7d3c b277 46bd
00000200: 62b7 173c 09e1 3141 223b 64bb d971 4dbc
00000210: 3521 3241 5cb8 3141 a2f0 3141 99d4 3141
00000220: 3c59 a6bc cb9b 963c 436c 3241 3416 3241
00000230: 7bcb 19bd 26bb 3141 6da0 c63b 4b79 0ebc
00000240: 7503 27bb 3708 3341 3617 3241 9bf2 1abd
00000250: 20b3 3141 be97 6b3c c0ba debc 5ada 3141
00000260: f284 283c c979 c13b 8c7a 3241 8ff2 9c3c
00000270: 211a 3241 d6ee 80bc 09d3 3141 8f30 edba
00000280: ffb3 3241 a3a1 3141 48ec 2dbd f754 3241
00000290: c3d5 ba3b 02d6 3141 2453 3241 9ad1 3141
000002a0: d5bf 3141 99aa 3141 0677 3141 21d3 b6bc
000002b0: 3084 3141 064e 3241 ee69 2c41 acb5 3141
000002c0: 30db 3141 f9b4 3141 f84e 3141 c1cf 3141
000002d0: d0c3 3141 8911 713c 1fe6 3141 bbfd 3241
000002e0: 7cd8 3141 f7ee 583c 5bbd 313c aa47 3241
000002f0: 2c31 3241 bee9 3041 895e 1a3c 13f8 2541
00000300: 08d8 3141 5427 3141 0b1a 3241 087d 953c
00000310: e94d 3241 cd3b 3241 d7fc 4d3c ec23 3241
00000320: d0a7 843c cb91 403a 4bb0 8abd 72f2 3141
00000330: 7668 3241 0ac3 3141 654e 3abd b507 563c
00000340: e049 3241 38cc 9e3c 68e6 3141 57ae 3141
00000350: a45f 3241 da93 3241 cc48 a1bd b8d4 3141
00000360: 3352 3241 d5c9 c43b 1274 ebbc 11ce 3141
00000370: 1253 3241 f3c6 3141 fd90 563a 1ce5 3141
00000380: d10a 3241 294e 0eba ab5f 3241 dac9 c43b
00000390: 8c6b 3241 2140 19bd 2a2e 3241 e62c 3241
000003a0: 7905 8a3c 14d5 3041 7507 3241 bf67 993c
000003b0: 9cb1 3241 e32f 3241 ac01 3241 f2d8 3141
000003c0: 2510 3241 36a5 483c cb76 f0bb 5899 133c
000003d0: 5877 d73b 502a 803c 3c4d febc c82f 91bd
000003e0: 1261 18bd 739e 3141 2b51 3241 b7e0 a83c
000003f0: 9dbd 3141 cf18 7abb 0f30 5cbd 5472 8f3c
0.007570402 0.017812159 11.130272 11.018244 0.003658894 -0.0007317313 -0.066731185 11.150557
-0.0064880727 -0.031133447 11.110444 11.106329 -0.07543231 -0.0016592903 11.115975 0.015690926
0.019319084 11.101475 11.108566 -0.055122826 11.128715 0.0021352705 11.108213 -0.02418524
0.017300801 -0.012025884 0.009287032 0.0049698907 11.101518 11.12988 -0.0044473023 0.010845498
11.107286 0.015544604 11.105984 11.106281 11.115115 0.009276989 0.017331215 11.116265
11.126247 11.158575 0.014280279 -0.008619348 0.01008233 0.00346259 11.113207 0.0058666966
11.128534 0.012948011 11.121873 11.106756 -0.022462264 11.112941 11.13813 0.018974373
11.107503 11.133662 0.014814069 11.115404 0.0132194655 11.1041155 -0.02971272 0.0133564565
11.1032295 11.105757 -0.031728998 0.0020249286 11.105872 -0.023332775 11.1427555 -0.0757756
-0.075392455 11.125287 11.150507 11.106925 0.013002752 -0.060187288 0.008167286 0.016436977
10.971827 -0.00062455237 11.10494 11.109912 -0.03303274 11.104361 0.014756333 11.123718
-0.00066045497 11.10989 -0.027414538 0.016665567 -0.004309482 11.152828 11.11386 11.109324
11.104604 -0.00119078 11.1134615 -0.046686884 11.134954 0.011062239 11.129278 0.015411419
0.015149038 -0.018047146 11.120538 11.10241 11.140015 11.163729 11.104268 11.1050205
11.143764 11.119229 0.00869493 -0.0021880604 11.131877 0.013972641 11.103567 -0.009217488
0.0068788095 -0.004176494 -0.012756556 11.10342 0.016199036 -0.029777931 0.015494644 -0.048453994
0.00926003 11.11744 -0.0034825285 -0.01253935 11.133107 11.10751 11.121248 11.114404
-0.020306222 0.018384835 11.151431 11.130421 -0.03754757 11.108191 0.0060616047 -0.008695911
-0.0025484238 11.189506 11.130667 -0.037829023 11.106232 0.01437944 -0.027188659 11.1158085
0.010285603 0.0059044105 11.154919 0.01915863 11.131379 -0.015738886 11.114022 -0.0018096137
11.168944 11.101962 -0.042461663 11.145743 0.005701752 11.114748 11.145298 11.113672
11.109334 11.10415 11.091558 -0.022317471 11.094772 11.144049 10.775862 11.1068535
11.116013 11.106683 11.0817795 11.113221 11.110306 0.014713653 11.118682 11.186946
11.115353 0.013240567 0.0108483685 11.142496 11.137005 11.057066 0.009421953 10.373065
11.115242 11.072102 11.131358 0.018248096 11.144021 11.1396 0.012572489 11.13377
0.0161933 0.00073459436 -0.067719065 11.121691 11.150503 11.110117 -0.04548492 0.013063361
11.143036 0.019384488 11.118752 11.105063 11.14835 11.161097 -0.07875213 11.114433
11.145068 0.0060055056 -0.02874187 11.112809 11.145281 11.111072 0.0008185057 11.118435
11.127641 -0.0005428517 11.148356 0.006005508 11.151257 -0.037414674 11.1362705 11.135962
0.016848313 11.052021 11.126821 0.018726228 11.168362 11.136691 11.125408 11.115465
11.128942 0.012246421 -0.00733838 0.009008728 0.006575506 0.015645176 -0.031042688 -0.07089192
-0.03720195 11.101184 11.144816 0.020614965 11.108792 -0.003816176 -0.05375677 0.01751057

encoder/0/W f4 [15, 784]
00000000: 22fe a83c 39b6 8e3b 6d6e 073d 5285 743c
00000010: d863 f53c 2d4c 32bb f8cc 24bd 67a3 99ba
00000020: ad41 253c 2ad8 133d b5ef b3bd 6b38 883d
00000030: 333c 6ebd 82d1 67bd 2f5f 883c 963d 74bd
00000040: 791f 793c b6c0 ccbc 2750 21bc 6fdd af3b
00000050: a95d 913c 94ef 9dbd 896e 32bd 218b 143d
00000060: bd2a da3b 3be0 b53c 6fee 8abd 1974 57bc
00000070: b806 3cbb 8a8d 54bd 137b b3bc bada 923b
00000080: dd65 a03d dd1b ed3d f3db 00bc ed9e 3a3e
00000090: 68ad 0e3e 29ad 93bd 470e 913c 6e3f 36be
000000a0: 96e3 abbe f951 a83b e711 743d 8c7a aa3e
000000b0: 8029 7f3e 6733 f33d 6ac5 8dbd 0166 0d3d
000000c0: f6c0 8d3e 5874 5c3e ad8a 283e 7c76 d03d
000000d0: 12b7 0ebd c9ef 39bc e7f8 703c b32c 98bc
000000e0: ae71 963a acb0 6e3c d8f2 51bd 96ce d9bc
000000f0: 8703 0b3e ef83 873d 64bd 753d 398b 633e
00000100: 2e45 353e 3751 b3bc 230a e1bd 7af6 243e
00000110: 5e8a 0d3e 2e4f 9cbb 7a7c 7abc 6fb7 513e
00000120: 0ffb 733e 9eaf 113e 30a2 863d 70b6 f63d
00000130: dfb8 173e 6492 b13d db4a 493e c2cb 2b3e
00000140: 8083 303e 0a90 143e dd51 0e3d feb9 0b3c
00000150: 914c 4f3c 1123 9e3c f304 71bd f8f4 40bd
00000160: ff01 e2bd 1e12 48bd 69e3 643e fc55 e93d
00000170: 93e8 2b3e 77ad 553d ef80 ad3d 3728 973d
00000180: 3a52 933c ca8b 9e3d 3ce7 663d cfe5 6e3d
00000190: e711 f73d 7bc9 403e 97a1 fd3d 824e c53d
000001a0: 0e04 fc3d 3263 643e c470 443e 312f 773c
000001b0: dba0 403b a6a3 e13d 94b4 cb3d b28c 18bc
000001c0: 0a45 133c 1756 f1bc 2714 a8bd a7ef c0bc
000001d0: 1d4c 39be 11ee 4f3d 5f59 11bd 2c8a 64bd
000001e0: 6cbb b2bd 9924 74bd e53e 9fbd ce42 2bbc
000001f0: 8164 6bbd 0d80 de3c 51e6 fbbb 48aa 28bd
00000200: df78 02bd 6400 d3bc a260 363b 7945 983c
00000210: d7ee 043e 7d7f 293e 9acf c03d 30c1 23bd
00000220: 74fb 61bd ccad 543d 585b 613d 27c6 27bc
00000230: 516c 3dbd dffb 75bd a5fc 303e 6efe e73d
00000240: 6a35 e1bd df89 aabc 3c98 9dbd d9f1 eabd
00000250: 604f ddbd a225 c7bd 9c2f 39bd 6d45 4bbc
00000260: 6355 c1bd bb14 9ebd 587f 9e3c f249 95bd
00000270: d004 3cbd 0294 76bd 2c06 31bd 7c57 e7bc
00000280: 67cc b03c 2935 093d c5a6 993d 7737 80bc
00000290: 8c1b 01bd a277 03bd b67e 9e3d a700 abbd
000002a0: 212e a53c f1a5 343d 7558 babd 7bd6 d83c
000002b0: 99b6 00be 05fb c7bd f117 09be 5cd8 a9bd
000002c0: 45f5 63bb 419b 41bd df6c 70bd 805d 77bd
000002d0: 4c6c c4bb e4bc aabc 4ef1 923a ba2f a8bd
000002e0: ed39 a9bc de86 2a3d d410 bdbb 487e 22bd
000002f0: e04d adbc 28a3 e3bd 98dc 38bd f6a4 133d
00000300: 4e71 f3bb d5c9 f2bd 95dc 39be fa75 6fbe
00000310: 16b8 c7bc a3fb f6bc 0a46 09be 25d5 6ebe
00000320: 6107 16be 0cbc 23bd 9397 98bd 0632 76bd
00000330: 7e55 e5bd c7b2 7dbd 3074 dfbd 0595 8abd
00000340: a1c8 3dbd 8e78 7dbd d1a1 45bd a3be edbc
00000350: 3556 1b3d 6d49 3fbc 00fe 95bd a19a f0bc
00000360: efaf 8abd 6d45 9bbd 72e6 1cbe cf4b 92bd
00000370: 739a c0bd 6be2 d3bb 86b2 50bb 1045 00be
00000380: fabf 263c 3e5f 203e ad63 bd3d e557 a3ba
00000390: 832d a33a 0a87 bcbd 1743 59bb 156d 92bd
000003a0: 6b40 6dbd 6e21 b8bc 2715 e7bd a19e c7bc
000003b0: 37f0 0bbd 2cd3 4bbc 0f5d b2b9 e940 91bc
000003c0: c43b 79bd 719d f3bb c5af 353d e390 1dbd
000003d0: 8bd0 e0bc e743 82bd ee01 cabd 9a06 90bc
000003e0: 14b8 52bd ac32 023d 76f1 1d3e 6495 aebd
000003f0: 58e9 e03d 35e7 fa3d 0e41 123e 9e78 0f3d
0.020628992 0.0043552187 0.033064295 0.014924364 0.029954836 -0.0027206049 -0.040234536 -0.0011721671
0.010086459 0.036094822 -0.08785955 0.06651386 -0.05816288 -0.056596287 0.01664695 -0.059629045
0.015205258 -0.024994235 -0.00984577 0.005366973 0.017744856 -0.077117115 -0.043562446 0.036265496
0.006657927 0.022201648 -0.06783759 -0.013150238 -0.0028690528 -0.051892795 -0.021909272 0.0044816406
0.07831929 0.1157758 -0.00786494 0.18224688 0.13933337 -0.07210762 0.017707003 -0.17797634
-0.33572072 0.005136725 0.059587386 0.3329662 0.24918175 0.118750386 -0.06922419 0.034521107
0.2768628 0.21528757 0.1645915 0.10178849 -0.03484256 -0.011348673 0.01470778 -0.018576002
0.0011477971 0.014568489 -0.051256984 -0.026587766 0.13575564 0.06616961 0.05999507 0.22221078
0.17702171 -0.021889312 -0.109882616 0.16109648 0.13822314 -0.004770181 -0.015288467 0.2048013
0.2382624 0.14227149 0.065739036 0.12046516 0.14816616 0.086705 0.19657461 0.16776946
0.17237663 0.14508072 0.03474604 0.008528231 0.012652532 0.01930383 -0.05884261 -0.04710862
-0.11035537 -0.048845403 0.22352375 0.11393353 0.16787939 0.052167382 0.08471858 0.07380717
0.017983545 0.077415064 0.056372866 0.05832463 0.120639615 0.18826859 0.123843364 0.09634115
0.12305461 0.22303465 0.19183642 0.015086935 0.0029392752 0.110175416 0.09946552 -0.009310888
0.008988628 -0.029459996 -0.08206969 -0.023551775 -0.18095441 0.050764147 -0.03548562 -0.055795833
-0.08727154 -0.059605215 -0.07775668 -0.010452939 -0.057468895 0.027160669 -0.007687368 -0.041178018
-0.031853553 -0.025757022 0.0027828594 0.018587815 0.12981735 0.16552539 0.09414597 -0.03997916
-0.055171445 0.051923558 0.055018753 -0.010240114 -0.046245877 -0.060054656 0.17283876 0.113278255
-0.10996516 -0.020817695 -0.07695052 -0.1147191 -0.10806155 -0.09723975 -0.04521142 -0.012406689
-0.09440114 -0.07718798 0.019347832 -0.072894946 -0.045903027 -0.060199745 -0.043218777 -0.028239958
0.021581842 0.033497963 0.07502512 -0.015651448 -0.03152041 -0.032096513 0.07739012 -0.08349734
0.020163598 0.044103567 -0.09098903 0.02646946 -0.12569655 -0.09764675 -0.13388039 -0.082932204
-0.0034783643 -0.047267202 -0.058697578 -0.060391903 -0.0059943553 -0.020842023 0.001121083 -0.08212228
-0.020657504 0.041632526 -0.0057698283 -0.039671212 -0.021155298 -0.11115104 -0.04513225 0.03604599
-0.0074292785 -0.11854903 -0.18150552 -0.23384848 -0.024379771 -0.030149287 -0.13405624 -0.23323496
-0.14651252 -0.039974257 -0.074507855 -0.0601063 -0.11197947 -0.061938073 -0.10910833 -0.067667045
-0.046333913 -0.061882548 -0.048250023 -0.029021567 0.03792401 -0.011675221 -0.07323837 -0.029370608
-0.06771838 -0.07581601 -0.15322283 -0.071433656 -0.09404459 -0.0064662 -0.003184469 -0.12526345
0.010177607 0.15661332 0.09247527 -0.0012462108 0.0012449477 -0.09205444 -0.003315156 -0.07149712
-0.057922762 -0.022476878 -0.11283331 -0.024367632 -0.034164634 -0.012440484 -0.0003402014 -0.017731147
-0.060848013 -0.00743454 0.04435708 -0.038468253 -0.027443191 -0.063606076 -0.09863649 -0.017581273
-0.05144508 0.031786606 0.15424141 -0.08524588 0.10982007 0.122511305 0.14282629 0.03502714

decoder/1/b f4 [784]
00000000: 71e8 7541 9785 a33c 057f 153d 9ac4 9d3d
00000010: e86d 7541 cdbf 903c 0e36 7541 67d7 333d
00000020: 292c 7541 8344 7541 ac45 e83c 4e22 a83c
00000030: 20ec 7441 f0bf 7541 feed a03c 73a3 7541
00000040: d5b0 7541 e686 863c 3640 ce3c 1d8f 7541
00000050: 5f60 2a3d 9cf9 7541 45ca 843c 77b4 7541
00000060: bd67 7641 d8ad 7541 7a90 7541 b531 7641
00000070: 6172 b23c 0ca9 403c 8cea 7441 764f 7641
00000080: 8196 ad3c 78bd 7541 911b a43c eb47 2c3d
00000090: 2e0e 1d3d d277 7641 0152 173c b5bb 813c
000000a0: ec50 7c3d 4d30 5c3c 571e 7541 7461 7641
000000b0: 1a6d 7541 e532 7641 b2ef 9d3c d4ef 7541
000000c0: 4b5b 4f3d 5b7a 7541 4bf3 6b3c bf70 fa3c
000000d0: e88d 7541 e208 dd3c 5347 393c b31a 7641
000000e0: 54f2 af3c b7ed 333d b96c 7641 4caa 293d
000000f0: e45d 7641 3211 703c ef3f 7541 4b00 843c
00000100: d882 933c 3446 0c3d 6617 7641 7ce0 7541
00000110: a30d bc3c ad35 7541 aef5 643c f15b 7541
00000120: 6a50 7541 3533 733b ffb3 8b3c 8bbf 653c
00000130: 1d76 7641 d8a4 7541 26f5 7541 5614 823c
00000140: 092a 403d 4565 7641 7a40 7e3c 5f47 0a3c
00000150: 464a 7541 8fcf 313c f4e3 7541 66d6 033d
00000160: 5f6b 7541 610e 953c 2f0c 7641 3bde 363c
00000170: b984 7541 6ecc 823d c838 f93c 1f36 953c
00000180: 5700 b73c b8cf 7541 412c 643d e39b 7541
00000190: dc02 573d 0646 7641 7ddf 283d 5154 7641
000001a0: e28d 453c c1b7 7541 13a6 123d 8215 c23c
000001b0: e56b 2e3c 629d ab3c 26a3 c13c 4b58 b13c
000001c0: 2e54 2f3c 49d6 9a3c 7d58 7541 3316 7641
000001d0: e396 4d3c 7dd0 7541 bf72 c23c b25e 7641
000001e0: 6e25 833c 1b04 7641 1546 7541 3d33 5fbb
000001f0: 6b1f 2e3c e981 7541 bd35 7541 dd4e 7541
00000200: 995a 7541 bb32 9a3c 2ac1 7541 3700 7641
00000210: a313 213d 7ae5 873c d4e2 c83b 933d a03c
00000220: ec11 7641 5d73 7641 ead2 a13c 2bf8 323d
00000230: 1495 7541 2574 b43c 8d58 7641 4d26 7641
00000240: 7850 7641 7789 513c 8648 a23c a9bc 7541
00000250: 86b5 dc3c 560f 7541 eba5 7541 aa75 f43c
00000260: 06c3 7541 91bc 7541 2745 30bc e9b9 42bc
00000270: 4fe6 173b d6fe 7541 72e2 5cbc a116 7641
00000280: 41ec 143d 2edf f03b 6b55 7541 c422 a43c
00000290: 11fb 7541 266d 663d 7ac4 8e3c 3562 313c
000002a0: 6381 643c 2943 5d3c 1616 0e3d 682c 7641
000002b0: 6d6f a03c 107d 373d c894 053d 4093 aa3c
000002c0: 0430 c63c 871b adb9 24eb 0a3d 862f 083c
000002d0: afac 4a3b ddb1 94bc 28c3 33bc ff78 92bc
000002e0: f66f 6dbc 8e7a 7541 cf9a 7541 2fb2 48bc
000002f0: 00b6 083d 6989 113d f69e 6d3c b136 8e3d
00000300: 0edc 2d3d e8f2 4c3d ac39 f83c 4d2b 7641
00000310: 00a2 7c3c 23e2 663d b7fb 7541 38e3 833c
00000320: ae60 b53c 5c19 7641 7985 7541 3ea9 a73c
00000330: d3ee 293d 7040 dc3c a671 7541 96a5 61bc
00000340: 0772 88bc f8bc 6abc 6579 53bc 61e9 6bbc
00000350: a588 5abb 3558 5fbc 3f0d 7541 c4c0 aebb
00000360: f556 1e3d 8cf7 7441 24f7 7541 b089 ee3c
00000370: 30cd 183c dd07 f43c 6342 7641 f8f8 8d3c
00000380: 83da 353d 6ef5 7541 3de0 203d 3f6e 7641
00000390: 1e5a 4d3d 701c 7541 6d29 0c3d 85b3 773c
000003a0: 0d8b 95bc ffc7 923c cbaa 0cbc 4d7f 7541
000003b0: 802c 68bc 3a3a e6bb afbb 343c 10e3 57bc
000003c0: 0eb0 66bc 55ea 80bc 3afe 7441 d188 7541
000003d0: dcae 7541 f298 7541 bb19 7541 0925 7541
000003e0: 1453 7541 6a32 523c 27b5 763c b753 7641
000003f0: a52a 153d 1e4c 7541 d390 7541 e784 7641
15.369248 0.019961162 0.03649809 0.077035144 15.339333 0.017669583 15.325697 0.043906596
15.323281 15.3292265 0.028353535 0.02052417 15.307648 15.35936 0.019644734 15.352405
15.355672 0.016421746 0.025177103 15.34744 0.041595813 15.37344 0.01620973 15.356559
15.400327 15.354942 15.347773 15.3871355 0.021783056 0.011759054 15.307262 15.3944
0.02118993 15.358757 0.020032676 0.042060774 0.0383436 15.404253 0.00923586 0.015836576
0.06160061 0.01343925 15.319907 15.398792 15.339136 15.387425 0.019279335 15.371052
0.050624173 15.342372 0.014401267 0.03057134 15.347145 0.026981775 0.011308509 15.381518
0.021477856 0.043927874 15.401544 0.041422173 15.3979225 0.014652537 15.328109 0.016113421
0.018006727 0.03424664 15.3807125 15.367306 0.022955721 15.325604 0.01397459 15.334947
15.332132 0.003710938 0.017053602 0.014022718 15.403836 15.352745 15.372351 0.015878838
0.046915088 15.399724 0.015518302 0.008439868 15.330633 0.0108527085 15.368153 0.03218689
15.338714 0.018195333 15.3779745 0.011161382 15.344903 0.06386648 0.030422583 0.018214284
0.02233903 15.363213 0.055706266 15.350558 0.05249296 15.392096 0.04122876 15.395585
0.012057753 15.357362 0.035802912 0.023691896 0.010645841 0.02094907 0.023637366 0.021648547
0.010701222 0.018901007 15.334104 15.38042 0.012548181 15.3634 0.023736356 15.398119
0.016009059 15.376002 15.32961 -0.003405764 0.010627608 15.344216 15.32562 15.331754
15.334619 0.018823018 15.359659 15.375052 0.039325368 0.016588915 0.0061305556 0.01956061
15.379375 15.403165 0.019753892 0.043693703 15.348896 0.022028038 15.396619 15.384351
15.394646 0.012789122 0.019809972 15.35856 0.026942026 15.316244 15.353007 0.029841263
15.360113 15.358537 -0.010758675 -0.011885145 0.0023178046 15.374716 -0.013481723 15.380525
0.03635812 0.007350824 15.333354 0.020036109 15.3737955 0.056256436 0.017427672 0.010826637
0.013946864 0.013504782 0.03468903 15.385841 0.019584382 0.044797003 0.032612592 0.020822167
0.024192818 -0.0003301764 0.033915654 0.008312112 0.0030925681 -0.018151218 -0.010971822 -0.017879961
-0.014492026 15.342421 15.350295 -0.0122495135 0.033376694 0.035531435 0.014503231 0.06944025
0.04244619 0.05003634 0.030300938 15.3855715 0.015419483 0.056368005 15.373954 0.016099557
0.022140827 15.381191 15.345086 0.020466443 0.041487526 0.026886195 15.340246 -0.013772389
-0.016655935 -0.01432728 -0.012907361 -0.014398904 -0.0033345607 -0.01363187 15.315734 -0.005333038
0.038657147 15.310436 15.372837 0.029118389 0.009326264 0.029788906 15.391208 0.017330632
0.044397842 15.372419 0.03927635 15.401916 0.05013477 15.319443 0.034219194 0.015118484
-0.018254781 0.017917631 -0.008585642 15.343579 -0.014170766 -0.007025984 0.011031075 -0.0131766945
-0.014080061 -0.015736738 15.312067 15.345902 15.35519 15.34984 15.318782 15.321542
15.332783 0.012829402 0.0150578385 15.395438 0.036417622 15.331083 15.347857 15.407447

decoder/1/W f4 [784, 15]
00000000: 6833 8541 9254 8741 815a 8641 64e0 8541
00000010: c8e6 8541 491e 8441 386e 8841 2038 8b41
00000020: 5b71 8941 8d46 8541 8830 8841 be01 8841
00000030: 417b 8641 979b 8441 e31a 8741 8a77 92be
00000040: 984c fd3e 87c4 c13d b5d7 38be eb9d 36be
00000050: c85a 013e 9826 c4be 286e 38be 5d8e 643e
00000060: c47c 00bf f830 d0be a1cd 08be ddce 3f3e
00000070: 9e68 c6be 78ca 0b3f bf23 ea3d c9ed 40bc
00000080: 82d5 62be 4754 ad3e 9e79 96be 5a7b 80bd
00000090: 230d ebbd 48a5 ff3d 9a15 a13e 1f97 113e
000000a0: 7493 5b3f 1851 f53e ea50 d3be 02e0 48bc
000000b0: 883c 083e 52a5 d03e 05fc 94be 3f65 e1be
000000c0: f448 8bbd 63c5 44be f494 193f 9f11 5b3e
000000d0: f77a c5be 937e 5a3c 24a9 ea3d 8c0b 6a3e
000000e0: 136b 3b3e b028 01be a7ea 0c3f 3b94 b7bc
000000f0: 6149 8541 1e90 8941 ea08 8741 bc32 8741
00000100: b58f 8741 5d92 8841 056a 8741 5239 8541
00000110: d85b 8941 c473 8541 4fdc 8941 91d5 8541
00000120: ed38 8841 54c8 8741 e0de 8141 062e 64bf
00000130: e2fa 7dbe 8658 2ebe 0f6a 963e 147e b33e
00000140: f76b 993e 0cd1 863e c707 bb3c ecc6 c4be
00000150: 1e4a 0fbf e7ed 42be 0269 833d e249 f0be
00000160: 87d9 9abe 7e9b 65bd d840 8741 96bc 8741
00000170: 9dc6 8541 e17e 8841 dff0 8941 9c0e 8841
00000180: c0ec 8541 9073 8741 0b36 8841 772c 8841
00000190: 3f0d 8641 7730 8741 f562 8741 f732 8641
000001a0: 5634 8541 a2fc e93e f732 2a3d 1ef0 d0bd
000001b0: 7e7a 343e be7d a5bc 6e45 343e 88d3 f4bd
000001c0: c968 25b9 f264 953e c056 03be 1d41 c23d
000001d0: d5e5 9cbc 2d1c a53d 3d5d 9ebd f149 1e3f
000001e0: 483e 8441 380e 8641 b1d2 8441 e4aa 8741
000001f0: c236 8541 cb42 8a41 7aa8 8841 7e3f 8841
00000200: 14ef 8941 c24c 8841 5db9 8741 566d 8841
00000210: 5057 8541 18f8 8641 62b3 8641 d7c5 8541
00000220: 226c 8541 5480 8541 47ef 8441 2a5f 8941
00000230: d14f 8641 586b 8741 4b63 8841 398f 8641
00000240: 54a3 8841 9d99 8841 a5ea 8541 ea6c 8841
00000250: e2b3 8941 7f0a 8741 a92d c0be 64e7 a23e
00000260: c0e9 06be f573 c5bd 55cd 6bbd de3c 043e
00000270: aa8d fb3c 5f3d c63d 1496 5d3e dac3 07bf
00000280: 9bd2 c63e 9132 7ebd fff1 99bc 2463 073d
00000290: 5a27 f13e 8b38 b43e acb0 70bd 67a0 63be
000002a0: 684e ab3e 1f92 983e e4e5 98be 5f5d abbe
000002b0: d4d2 d2be fc5d 3fbe b0b4 1a3f bcc3 81be
000002c0: fcb5 b83c 337b afbe ee4e 52be e927 3f3e
000002d0: d0aa 8a41 9ae1 8541 996f 8441 9d0d 8541
000002e0: bef1 8841 78ff 8641 3d57 8841 7f3a 8641
000002f0: dbaf 8741 dd79 8841 6ac7 8541 de0c 8741
00000300: afa3 8941 662a 8641 c187 8741 5f8e 8441
00000310: 3bdd 8841 cc9d 8541 9317 8541 de18 8541
00000320: a3e8 8841 dbdd 8541 9d8e 8741 efcd 8941
00000330: eb9a 8841 4f5f 8641 6b1e 8841 c76c 8641
00000340: 7ea5 8741 faf7 8541 5706 1f3c d65d 00be
00000350: e956 1a3e b15d 9a3e 3205 053f d1a1 bcbe
00000360: 5b36 c63c 177e 6cbe 2e27 84be 13d4 25be
00000370: 3ec3 37be b3ad 44be 9856 c4bd 2665 b43d
00000380: c089 033e ce3f 8641 951b 8641 e91f 8541
00000390: bf56 8941 8b4b 8641 26e8 8641 6bcb 8541
000003a0: a503 8641 eb1c 8841 b49a 8641 cab0 8441
000003b0: 79bc 8841 7141 8741 7548 8a41 6bb5 8741
000003c0: ee7c 8741 e3bc 8941 a14e 8541 d23b 8441
000003d0: 3b52 8741 daf3 8241 0e30 8741 1f71 8b41
000003e0: f868 8541 2fcc 8341 2fd1 8341 b1dd 8641
000003f0: d816 8341 cc52 8741 526b 8541 87b2 d4be
16.6501 16.916294 16.794191 16.734566 16.737686 16.514788 17.053818 17.402405
17.18035 16.659449 17.023697 17.00085 16.810183 16.575972 16.888128 -0.28606826
0.494725 0.09461313 -0.18051036 -0.17833678 0.12632287 -0.38310695 -0.18010771 0.22319932
-0.5019038 -0.4066236 -0.13359691 0.18731256 -0.38751692 0.5460582 0.11432599 -0.011775442
-0.2215176 0.3385336 -0.29389662 -0.062735274 -0.11477115 0.12482697 0.31461793 0.14217804
0.8577187 0.47913432 -0.4127267 -0.012260439 0.13304341 0.4075113 -0.29098526 -0.44022557
-0.06801024 -0.19215922 0.5999291 0.2139344 -0.38570377 0.013335842 0.11458042 0.22855967
0.18302564 -0.12613177 0.5504555 -0.022409549 16.66083 17.19537 16.879353 16.899773
16.94517 17.071466 16.926767 16.652988 17.169846 16.681526 17.232573 16.72928
17.027796 16.972816 16.233826 -0.89132726 -0.24802735 -0.17025957 0.2937779 0.35057127
0.29965183 0.26331365 0.022830857 -0.38433015 -0.5597247 -0.19036065 0.06416513 -0.46931368
-0.30244085 -0.056056492 16.906662 16.967083 16.72198 17.061953 17.242613 17.007133
16.7406 16.931427 17.026388 17.021711 16.756468 16.898664 16.923319 16.774885
16.650555 0.45700556 0.04155251 -0.10202049 0.17624852 -0.02020156 0.1760461 -0.11954409
-0.00015774662 0.29178578 -0.12826061 0.094850756 -0.019152561 0.08062015 -0.077326275 0.61831576
16.53041 16.756943 16.602877 16.958443 16.651737 17.282614 17.082264 17.031002
17.241737 17.03748 16.96551 17.053387 16.667633 16.87114 16.83759 16.721601
16.6778 16.68766 16.616835 17.171467 16.788973 16.927414 17.048483 16.819933
17.07975 17.075006 16.739573 17.05318 17.212833 16.880125 -0.37534836 0.31817162
-0.13175106 -0.09641258 -0.057568867 0.12913844 0.0307072 0.09679674 0.21639282 -0.5303322
0.38832554 -0.062059943 -0.01879215 0.033053532 0.47100335 0.3519939 -0.058762237 -0.22229157
0.33458257 0.29798982 -0.29862893 -0.33469674 -0.41176474 -0.18688196 0.6043196 -0.25344646
0.022547714 -0.3427368 -0.20537922 0.18667568 17.333405 16.735157 16.554491 16.631647
17.118038 16.87474 17.042597 16.778563 16.960867 17.059504 16.72237 16.881283
17.204924 16.770702 16.941286 16.569517 17.108023 16.70205 16.63651 16.637142
17.113592 16.733328 16.944635 17.225554 17.075644 16.796537 17.014853 16.803114
16.955807 16.746082 0.009706101 -0.12535796 0.15072216 0.30149606 0.5196105 -0.36842206
0.02419584 -0.23094974 -0.25811142 -0.16194181 -0.17945573 -0.19206886 -0.09586829 0.08808355
0.12845516 16.781155 16.763468 16.640581 17.167356 16.786886 16.863354 16.724325
16.75178 17.01412 16.825539 16.586323 17.092028 16.906954 17.28538 16.963583
16.936 17.21723 16.663393 16.52921 16.915152 16.369068 16.898464 17.430235
16.676254 16.474699 16.47714 16.858248 16.386154 16.915428 16.677402 -0.41542456

encoder/1/b f4 [15]
00000000: aecd 8641 0baf 8641 c9ca 8641 dac2 8641
00000010: b4a1 8641 c2b8 8641 20db 8641 37c4 8641
00000020: 67b6 8641 fea9 8641 94d5 8641 48a5 8641
00000030: a2c4 8641 63b2 8641 fdc9 8641
16.85043 16.83547 16.849016 16.845142 16.828957 16.840214 16.856995 16.845808
16.839064 16.833004 16.854286 16.830704 16.846012 16.837103 16.848627
